DDPG/checkpoint_actor.pth (torch, 170263 bytes, 6 tensors)

fc1.weight f4 [256, 33]
000000 52 d9 37 3e 9c 0e 29 3d 71 c3 a2 3e ba d0 ee bd
       0.17953995 0.0412737 0.31789735 -0.11660905
000010 8d f8 89 bd 19 87 db 3c 96 e9 48 bd 04 94 1a 3d
       -0.067368604 0.026797818 -0.04905089 0.037738815
000020 d6 83 df 3d 94 fc f9 bd b7 2c 42 be c2 1a 04 be
       0.109138176 -0.122063786 -0.1896237 -0.12900832
000030 58 c5 d8 3d 4c 02 e7 3a 94 d4 a1 bd 16 3f 9c bd
       0.10584515 0.0017624586 -0.07901874 -0.0762922
000040 9f c1 0f 3c f6 52 17 be 70 99 02 bd c4 a6 64 be
       0.00877419 -0.14777741 -0.03188461 -0.22329241
000050 c9 42 9b 3d 92 ea 51 3e ac dc 03 3d ce 47 a3 3d
       0.07581098 0.20499638 0.03219287 0.0797268
000060 d4 84 72 be 31 6f 2b bd 15 b0 8a 3e 7a 4f c0 3d
       -0.23683482 -0.041854087 0.27087465 0.09390159
000070 50 8f 28 3e cc b9 ab 3d fa ac bb bc 60 05 07 3e
       0.1646092 0.08385047 -0.02290963 0.13185644
000080 ae da 01 3f d3 33 55 3d 04 01 09 3f 51 34 5a 3d
       0.50724304 0.052051377 0.53517175 0.05327255
000090 13 64 5b bd f0 a6 80 3c a9 68 99 bd 64 64 c8 3d
       -0.053562235 0.015704602 -0.074906655 0.09784773
0000a0 84 77 3f bd 58 6f 82 3e 4f b9 8f 39 28 91 ad bd
       -0.04674484 0.25475574 0.0002741315 -0.08474952
0000b0 06 bb 3b 3e 4b b1 9d 3d 1f b1 11 3d a9 2b a6 3e
       0.18333063 0.076998316 0.035569306 0.32455185
0000c0 a3 18 40 be f7 01 5f 3d bc f0 21 3e 7d 6c be 3c
       -0.18759398 0.054445233 0.15814489 0.02324509
0000d0 bf 4c 67 bd 86 50 a0 3d 68 c0 77 bb bd 27 c9 3c
       -0.056469675 0.078278586 -0.0037803892 0.024555082
0000e0 ee 1a e0 bd a7 96 07 3e 1c 6e 09 3c 64 4d 08 be
       -0.109426364 0.13241063 0.0083880685 -0.13310772
0000f0 9e 98 ac bd f4 ae 1c be 08 c1 03 3d dc e5 f8 3d
       -0.08427547 -0.15301114 0.03216651 0.12153217
000100 fc 6c ee 3d 04 7f 03 3f 04 05 6f 3e 3e 98 00 be
       0.11641881 0.51365685 0.23341757 -0.12558076
000110 8d c2 13 be 4b 67 d8 39 e8 b4 2b be 94 2c 44 be
       -0.14429684 0.0004127569 -0.16768229 -0.1915763
000120 66 63 cc bc 90 7e 83 3d a5 dc 6b bd 11 ef 62 bd
       -0.02494974 0.06420624 -0.05758347 -0.055403773
000130 1c fa c2 bb 5d fe df 3d f9 fd 20 bd 58 87 f1 bd
       -0.0059502255 0.10937188 -0.039304707 -0.11793393
000140 8a a0 1a 3d 9e 14 87 3b 46 02 41 bd b0 73 9a bc
       0.03775076 0.004122331 -0.04712131 -0.018853992
000150 fb 65 7d 3d a0 0e 0f bd 97 6e b5 3e 7b 3a d0 3c
       0.061864834 -0.034926057 0.35435936 0.02541851
000160 6a 49 10 be 4a 4c 27 be 1f d7 bd bd a8 da 9e 3c
       -0.14090505 -0.16337696 -0.09269547 0.019391373
000170 11 c3 d5 3d fa ed 82 bd d5 0a 12 3e 10 2f 9f 3c
       0.104375966 -0.06393047 0.14261945 0.01943162
000180 3f 07 cc 3d 50 2c 84 3c db 6b 5e bf ca 65 f5 3d
       0.099623196 0.016134411 -0.86883324 0.11982305
000190 20 8e 8f be 57 01 88 3d 03 5e ab bd 8b bc b3 bc
       -0.2803812 0.066408806 -0.08367541 -0.02194049
0001a0 41 f2 4a bc 97 28 1d be e2 06 95 3d 00 e7 85 3d
       -0.012386859 -0.15347515 0.072767034 0.065382004
0001b0 1b 16 f5 bd 3d 98 b9 bd 2e cb e1 3c 6f 48 6d 3e
       -0.11967107 -0.0906224 0.027562704 0.23172162
0001c0 ee e4 17 bd b3 26 ac 3e d9 06 ca 3d 13 f1 fd 3c
       -0.03708356 0.33623275 0.09864587 0.030998742
0001d0 59 b0 f3 3c 39 66 d0 3d 95 a3 18 3e e3 f3 58 be
       0.029747175 0.101757474 0.14906152 -0.21186785
0001e0 e6 03 9d be 85 41 34 3d f1 66 48 be 69 6b a1 3d
       -0.30667037 0.044007797 -0.19570519 0.07881815
0001f0 ac f7 d5 bd 3b 83 71 bd 07 1a 62 3e 05 b9 8f 3d
       -0.1044763 -0.05896304 0.22080241 0.070177115
000200 b4 00 52 3d 81 0e 0a be b7 e8 f8 bd 75 ef 9d 3c
       0.0512702 -0.13482095 -0.12153762 0.019279221
000210 04 f1 e7 bd cb a6 2c be 4e 64 0e 3e 17 94 21 bc
       -0.11325267 -0.16860501 0.1390545 -0.0098619675
000220 58 cf a6 3c 69 24 1a 3e 41 f9 88 3d 10 c1 31 be
       0.020362541 0.15052952 0.066881664 -0.17358804
000230 14 5f 27 be 28 ef fc 3d 58 ae 39 be 58 24 08 be
       -0.16344863 0.12350303 -0.18132913 -0.13295114
000240 da d2 3c bc 39 eb 73 be 55 75 17 3e 76 88 7a bd
       -0.01152488 -0.23820199 0.14790852 -0.061165296
000250 e3 8e 1c 3e 53 3d ed bd 39 ec a9 3d 23 7b 22 3d
       0.15288882 -0.11583962 0.08297009 0.039668214
000260 13 53 11 3c 53 7b 08 3e 19 cd fb bd e9 47 e5 3d
       0.008869904 0.13328294 -0.12294979 0.111953564
000270 1b cc 1c 3e 3d 00 48 3e 22 58 ac bd d2 ef 9e bd
       0.15312235 0.19531341 -0.084152475 -0.07760586
000280 75 75 81 be 40 48 a2 bc 68 20 55 bd 7e f1 0f be
       -0.25284925 -0.019809842 -0.052032858 -0.14056966
000290 e9 d6 18 3e 67 8a 1e 3d 55 47 e7 bc 53 d4 ea bc
       0.14925732 0.03870621 -0.028232256 -0.028665697
0002a0 05 59 59 be b9 65 51 3d a9 73 85 bd 7b 15 30 3d
       -0.21225365 0.0511224 -0.06516201 0.042989235
0002b0 c6 3e 5f 3d 33 1b 2c be 0b 27 29 3e 7b 29 b0 bd
       0.054503225 -0.1680725 0.165188 -0.08601662
0002c0 27 06 a0 bd 99 30 d4 bd 1e ed 45 be 35 36 1b be
       -0.078136735 -0.10360832 -0.19328734 -0.15157397
0002d0 2e 5d c7 bd 61 3f 0a 3d a1 76 5a 3d 1d b5 f0 bd
       -0.097345695 0.03375185 0.05333579 -0.117532946
0002e0 3f c1 a8 3e 0e 0b bb bd 69 43 33 3d 10 3f 84 bd
       0.32959935 -0.09132968 0.04376546 -0.06457341
0002f0 81 ea 28 3e 6d 90 c0 3d 39 af 24 be 94 4c a6 bd
       0.16495706 0.09402547 -0.16082467 -0.08120075
000300 de 7a de bc 43 02 1a 3e ae e0 2f 3e a3 ae 69 3d
       -0.027158197 0.15039925 0.17175552 0.057051312
000310 b0 2b 30 be 1b 21 25 3e 40 1b 18 be 60 11 88 3e
       -0.17204165 0.1612591 -0.14854145 0.26575756
000320 93 4a 17 be 33 a9 e8 bd 8c 45 fa 3d 6d 21 64 bd
       -0.14774542 -0.11360397 0.12220296 -0.05569594
000330 24 24 4a 3d 30 59 4a be 1e fd 0e bd 1b b8 85 3c
       0.049350873 -0.19760585 -0.03490936 0.01632314
000340 c1 45 d1 bd 82 d5 dc 3d 44 1f 08 3e d6 53 05 3d
       -0.102183826 0.10782911 0.13293177 0.032550655
000350 72 22 41 bd 0c f0 95 bd 5b 04 2c bd ab d5 f8 3d
       -0.04715199 -0.07321176 -0.04199634 0.12150129
000360 b7 2f d4 bd 0f f7 a8 3d 6c 48 22 be 82 dd 60 3e
       -0.103606634 0.08250248 -0.15847939 0.21959499
000370 85 0a a4 3d 10 68 d7 bd 8c 1b 91 be 99 9b d4 3d
       0.08009819 -0.10517895 -0.2834133 0.103812404
000380 fa 5a 0a 3e fa 70 04 3e 13 69 dd bd 16 9a 17 be
       0.13511267 0.12933722 -0.10811057 -0.14804873
000390 ba 5d a9 3c 19 64 30 be cd cd 9e be 91 1b 36 3d
       0.020674575 -0.17225684 -0.3101639 0.044459883
0003a0 df 97 83 3b e7 93 04 3e 70 b2 cf bd 64 b5 a2 3b
       0.004015907 0.12947045 -0.10141456 0.004965471
0003b0 01 12 c3 3d 63 28 e7 bd 79 55 90 3c 46 11 87 3e
       0.09524918 -0.11287 0.017618882 0.26380366
0003c0 69 5a db 3d e6 cf 4d 3e 3c 87 0c 3e ef fd 62 3d
       0.10710604 0.20098838 0.13723463 0.05541795
0003d0 68 1d 0d be ad 21 0c be 22 51 82 be 5a c3 72 3c
       -0.13780749 -0.13684721 -0.25452524 0.014817083
0003e0 67 bf 9b bd 3f 49 0a be ff 2f ba bd 78 c7 91 bd
       -0.076048665 -0.13504504 -0.09091186 -0.07118124
0003f0 a6 3a 8b bd 50 b8 c8 3a ad fe f7 bd e4 fb 5e be
       -0.06798296 0.0015313718 -0.121091224 -0.21775776

fc1.bias f4 [256]
000000 22 76 2d 3d 73 34 d7 3c e4 a8 20 bd af fa e2 3d
       0.04234899 0.026270127 -0.039223567 0.1108297
000010 fb a4 3d 3d 2c 65 e0 bd 2a 40 22 be f6 a4 94 3d
       0.046299916 -0.10956797 -0.15844789 0.07258026
000020 2d 10 82 bd 2f e9 de 3d 3d 22 91 bd a1 8e af 3d
       -0.063507415 0.1088432 -0.070866086 0.08572126
000030 a3 04 53 3e ed 91 31 3e 3b 03 15 3e cb 19 9f bc
       0.20607238 0.17340823 0.14552014 -0.019421479
000040 87 f0 25 be 64 9a af bd 34 6a 63 3d 67 0c 70 bd
       -0.16205035 -0.085743695 0.055521205 -0.058605578
000050 6b 2a 6b 3d f4 ab 16 3e bc f7 d6 3a d7 8d 36 3e
       0.0574135 0.14714032 0.0016400735 0.17827545
000060 64 44 0f 3e b7 9f 71 3b 8c eb 3a 3e 3c 43 ac bb
       0.13990933 0.003686888 0.18253917 -0.0052570384
000070 fe f4 d4 bd 89 1c 4d bd 67 1c 10 bd 24 4e 57 be
       -0.10398291 -0.05007604 -0.035183337 -0.21025902
000080 1f f0 ad bd 60 2a 0b 3e 7c 6d 17 be 23 96 77 3e
       -0.08493065 0.13590384 -0.14787859 0.24178366
000090 e9 47 12 3e c5 23 8a 3e 05 7e 78 3e a9 a2 4a bd
       0.14285244 0.26980415 0.24266823 -0.04947153
0000a0 11 47 7a 3b 7a f4 2f be a6 16 fc bd d3 08 a3 3d
       0.0038189332 -0.17183104 -0.12309007 0.079606675
0000b0 f6 8c 40 3e 8c 15 1c 3e bc ac c8 3d a4 90 55 3d
       0.18803772 0.15242594 0.097985715 0.052139893
0000c0 02 4c c6 3d bb c2 fd 3d 81 91 94 3d 14 2d 3a 3d
       0.09682466 0.123906575 0.07254315 0.045453146
0000d0 37 81 0e bc af 43 ec bc 62 f8 a4 3d c3 8a 92 3b
       -0.008697799 -0.028840868 0.08055188 0.004472108
0000e0 4b 61 8c bd ae bc 81 3e 29 a7 6a 3e 36 7f 9c 3e
       -0.06854495 0.25339264 0.22915329 0.30565804
0000f0 91 a3 c5 3d 51 6c 0c 3e 09 0a 10 3c a7 8f f7 bd
       0.096503384 0.13713194 0.008791455 -0.120879464
000100 b1 2f 14 3e c5 00 2f 3e 0f 53 c3 3c 16 31 43 bd
       0.14471318 0.17090137 0.023843316 -0.047654234
000110 3a 5e a8 3d e8 0f 89 bd ec 55 9a 3d 97 02 77 3d
       0.08221097 -0.06692487 0.075359195 0.060305204
000120 1c 00 f7 3d fe 14 41 bd 87 69 2a bd 59 c9 81 bd
       0.12060568 -0.04713916 -0.041604545 -0.06337232
000130 b9 b8 10 3e 3c 47 45 3e 9b 54 28 be 66 ab f0 3d
       0.14132966 0.19265455 -0.16438524 0.11751442
000140 8e 4d 57 3e 7f 55 0f bc ca 3d 76 bd 99 a0 c4 3d
       0.21025679 -0.008748411 -0.06011752 0.09600944
000150 93 c5 0e 3d 4c bc bd bd d2 8f a6 3c d3 d8 35 3e
       0.03485639 -0.092644304 0.02033225 0.17758493
000160 07 1d dd bd 7b 5b bd bd a8 d5 3f 3e 94 eb ba 3d
       -0.10796552 -0.09245964 0.18733847 0.09126964
000170 f3 bf df 3d e3 47 5a 3c e7 54 5c bc 9b 4e 8f 3d
       0.10925283 0.013322803 -0.013447977 0.06997415
000180 9e db 21 3e 2c 6d 5c bd f6 d1 3a 3e 6a f8 6f 3d
       0.15806434 -0.053815052 0.18244156 0.058586515
000190 cc 98 c0 bd a9 d5 32 3d 2b 47 a6 bd 98 a5 92 bd
       -0.09404144 0.043660793 -0.08119043 -0.07160491
0001a0 82 e0 57 3d 49 a1 83 3d 5d 1d 1b be 50 a0 25 3e
       0.05270434 0.06427247 -0.1514792 0.16174436
0001b0 0e f0 02 3e 89 53 07 3d d5 0c aa 3d 53 9a 52 3d
       0.12786886 0.03303865 0.08303229 0.051416706
0001c0 53 40 c3 3c af 75 5e bd 7f 18 a1 3d 11 d1 b4 3d
       0.023834383 -0.05431145 0.078660004 0.08828939
0001d0 39 b2 36 bd e5 af 3e 3e b8 4a 25 3e 9a af 17 3e
       -0.04460356 0.18621786 0.16141784 0.1481308
0001e0 be 9d 1d be cd ca 10 3d f3 0b f7 3c f7 16 a9 3d
       -0.15392205 0.035349656 0.030157065 0.08256333
0001f0 f1 b9 a0 bd b1 ef b4 bc d2 39 70 be eb 87 f8 3b
       -0.078479655 -0.02208695 -0.23459557 0.007584562
000200 dc fd f7 bc fc 82 2d 3e cf 80 ac 3b 55 43 8f 3e
       -0.030272417 0.16944498 0.0052643786 0.27981058
000210 ed d5 29 3e d8 0d 26 be 54 3a 00 3d a2 a5 fc 3d
       0.16585512 -0.16216218 0.031305626 0.123362795
000220 cb a3 2b 3e 55 c4 92 be 30 e2 e9 3d 8e dd 25 be
       0.16761701 -0.28665414 0.11420095 -0.16197798
000230 73 0d c2 3c cf b0 e7 bd 7c f3 20 3e fa 15 a4 3c
       0.023688054 -0.113130204 0.15717882 0.02003001
000240 5c c4 83 bd 75 1f 9a be e6 fe fe 3c 67 48 12 3e
       -0.06433937 -0.30102125 0.031127404 0.14285432
000250 d7 15 df 3d 46 a7 e2 bd 38 24 3e 3e 53 88 87 bd
       0.108928375 -0.11067061 0.18568504 -0.06617799
000260 b6 4f 8a 3d d9 49 e7 bc 68 1e 63 bd ff 28 9b bd
       0.06753485 -0.028233455 -0.05544892 -0.07576179
000270 7e d6 ac bd 8e ff d7 bd f7 6d bd bd 33 43 b6 ba
       -0.08439349 -0.1054679 -0.0924949 -0.0013905525
000280 3f 69 7c 3d 1b 81 39 3e 6c ec 0b 3c e8 db 09 be
       0.061623808 0.18115656 0.008540254 -0.13462794
000290 84 77 53 be 6b d9 d6 3b 0e f6 64 bd be aa 09 3d
       -0.2065106 0.00655668 -0.05589872 0.033610098
0002a0 d3 8d c7 3c 10 58 1f bd 43 11 81 3d 58 30 24 3e
       0.02435962 -0.038902342 0.063021205 0.16034067
0002b0 2a ec fd bd 2d 7b 56 3e 68 f6 09 be 4b d7 6d bc
       -0.1239856 0.20945425 -0.13472903 -0.014516662
0002c0 61 07 09 3d b6 fd 38 be 0a 51 0c be 8d 7d 32 3d
       0.033454303 -0.18065533 -0.13702789 0.043576766
0002d0 82 ff 10 be e3 31 40 3d fe d4 73 bd 81 76 ac bd
       -0.14159968 0.046922576 -0.059529297 -0.0842104
0002e0 f3 09 d2 3a 77 6a 09 3e a3 ae fa bd 16 94 25 3e
       0.0016024694 0.1341952 -0.122403406 0.16169772
0002f0 bd 2c f5 3d 63 a2 fa bd 59 7c 41 bd 7e e4 c3 bd
       0.11971424 -0.12238004 -0.047237728 -0.09565066
000300 96 04 0e 3e 7a d5 fc 3a 87 68 77 3d bf b5 97 3d
       0.13868937 0.0019289695 0.06040242 0.07407712
000310 c2 ee eb 3d 08 32 c8 bc 40 c1 8c 3d fd 5e 90 3e
       0.11520149 -0.02443792 0.06872797 0.2819747
000320 ed 16 73 bc 41 a8 14 bd dd 16 7a 3d 45 09 01 be
       -0.014837009 -0.036293272 0.06105696 -0.12601192
000330 da ae 7f 3e b0 e9 ab bd 6e a9 d8 3d 53 92 86 3e
       0.24969044 -0.08394182 0.10579191 0.26283512
000340 86 fd 83 3d 3e 73 0c be 59 ac 04 3e 3c 5e 9f 3d
       0.0644484 -0.13715836 0.1295637 0.07781646
000350 93 00 72 3c d1 97 19 bd 31 a4 0f 3d 75 dd e2 3d
       0.014770645 -0.0374983 0.035068695 0.11077396
000360 73 4a 05 be 0e a7 04 bc c8 b5 b0 bd 5b 86 80 bd
       -0.13016681 -0.00809647 -0.08628422 -0.06275626
000370 fc 77 23 3e 44 23 a9 3d 41 44 3d 3d 00 32 25 3e
       0.15963739 0.082586795 0.04620767 0.16132355
000380 a3 ca f4 3c 28 5e 4f bc f1 65 02 3e 2c d0 b4 bd
       0.029881781 -0.012656726 0.127342 -0.08828768
000390 be 31 27 bd 46 59 88 3e 61 66 f5 bd 86 c8 56 3e
       -0.040818922 0.2663061 -0.11982418 0.20974931
0003a0 69 06 cf bc f5 3f 34 3d a8 b5 41 3e 27 21 d6 bd
       -0.025271611 0.044006307 0.18916953 -0.10455542
0003b0 8a 43 56 bd 02 f9 89 bd c7 2f da bd f1 d1 16 3e
       -0.052310504 -0.067369476 -0.10653644 0.14728524
0003c0 5b ae 5e 3e b8 71 f5 bb 08 f8 c4 bd 19 29 62 3e
       0.21746199 -0.007490363 -0.09617621 0.2208599
0003d0 b6 34 6b be c8 f2 67 3d 01 7b fb 3c c6 f6 c4 bd
       -0.22969326 0.05662802 0.030698301 -0.09617381
0003e0 e2 71 c8 3a f6 9e b0 bd 8e 42 bd 3d 80 64 14 3e
       0.0015292729 -0.086240694 0.0924121 0.14491463
0003f0 b9 f5 39 be 48 a8 fb bd e9 63 c8 bd a8 5c 2b bd
       -0.18160142 -0.122879565 -0.09784681 -0.04183641

fc2.weight f4 [128, 256]
000000 d0 06 5d bc 98 4c 11 3e 69 bc 44 be 49 be ed 3d
       -0.013490394 0.14189374 -0.19212498 0.1160856
000010 c3 6c bf bc 09 a8 2d 3b 28 f1 4b bd 38 97 99 bc
       -0.023367291 0.0026497862 -0.04979053 -0.018748865
000020 d8 5d 21 3e f7 f4 04 3e b4 4c a4 3c 4c 3c cb 3d
       0.15758455 0.12984072 0.020056106 0.0992361
000030 d9 dc 9d 3c 3a 85 14 3e ba 95 c2 bc 6b b2 e2 bd
       0.019270347 0.14503947 -0.023753036 -0.11069187
000040 51 95 43 be 2a 4a 82 bc 87 60 70 3d cb 76 78 3d
       -0.19099928 -0.015904505 0.058685806 0.060660165
000050 11 88 24 3d 15 23 34 3e 8b 19 82 3d 18 73 25 bd
       0.040168826 0.17591508 0.06352528 -0.040392965
000060 32 9e 0e 3e 43 fd 3c bd 8b a0 31 3d 57 14 38 be
       0.13927534 -0.046139967 0.043365996 -0.17976509
000070 36 a7 b3 bc 70 4d 5d be ce 9f 3d be e3 21 7f bd
       -0.021930318 -0.21611571 -0.18517992 -0.062288176
000080 b9 54 a3 bc 6a 4d 62 bd 2b 2a 8c bd 9f 8b 0d 3d
       -0.01993786 -0.05524961 -0.068439804 0.03455698
000090 09 95 01 bd 0f 32 b1 bc a7 2e 6e 3d 37 56 38 bd
       -0.03163627 -0.021630315 0.05814996 -0.045004096
0000a0 0a b7 c2 bd 1c 26 59 3d 94 6e b0 bd 45 6c 47 3c
       -0.09507568 0.05301486 -0.08614841 0.01217181
0000b0 b7 60 fc 3d 98 68 f0 bc 6f 93 6e bd 1d d0 4b 3d
       0.123231344 -0.02934675 -0.058246072 0.04975902
0000c0 d4 f6 c2 bc 74 c1 d6 bb 24 1a 18 be a5 88 42 be
       -0.023799337 -0.006553823 -0.14853722 -0.18997438
0000d0 c2 c1 d3 bd 38 72 90 3d f8 da c7 3d 19 ff 1a 3d
       -0.10339691 0.070530355 0.09758562 0.037840936
0000e0 33 af 38 bd 03 3d c9 bd 2b 21 b6 bd 16 de 2e bc
       -0.045088958 -0.0982609 -0.08893045 -0.010673067
0000f0 d9 2b 2e 3e 3c ed 7e 3d ff 0e 56 be d2 56 5b 3e
       0.17008914 0.062237963 -0.20904158 0.21419838
000100 94 58 08 3d c3 b7 17 3d e9 f4 38 3e 80 3a 18 3d
       0.0332876 0.037040483 0.18062176 0.037165165
000110 d7 2a 31 be 5a a5 da bd 03 83 22 3e de 04 20 be
       -0.17301498 -0.106760696 0.1587029 -0.15626857
000120 e5 01 82 ba 1a 62 57 3c b7 8a 18 be 5d cb 3a bc
       -0.0009918778 0.013145948 -0.14896666 -0.011401025
000130 37 3e cf 3d f4 a6 09 3c 1e a0 56 be 5f c6 62 3d
       0.101192884 0.008401621 -0.20959517 0.055364963
000140 78 c2 ed 3d 47 33 16 bb 46 99 a4 3b b5 90 c5 3c
       0.116093576 -0.0022918747 0.0050231544 0.024116853
000150 40 04 04 3e 64 3e 53 3d ba 78 90 bc c9 44 45 bd
       0.12892246 0.051573172 -0.017635692 -0.0481613
000160 ce 2f 8f 3d 52 69 8d 3d 30 bb 4d 3c 54 58 54 bd
       0.0699154 0.06904854 0.012556836 -0.05184205
000170 3c cf b9 bd 60 b2 95 bd db 26 56 3e bb 9a e6 bb
       -0.0907273 -0.07309413 0.2091326 -0.0070374883
000180 6d de 82 3d 8a 02 04 bd 88 c9 75 3b 1b 4a 91 bc
       0.063900806 -0.032228984 0.0037504155 -0.017735532
000190 5f a1 e1 3b 76 c2 c0 3d 0a 6f 1e 3d f0 bb 33 be
       0.006885692 0.094120905 0.038680114 -0.17552161
0001a0 3b fc 49 3c e6 19 0c 3d 95 b0 82 3c b2 c3 9b bd
       0.012328203 0.034204386 0.015953341 -0.07605685
0001b0 ca 42 90 3d 59 a8 df bd 25 d4 59 3c 41 89 d1 bd
       0.07043989 -0.10920782 0.013295208 -0.10231257
0001c0 36 73 05 bc 51 14 97 3d c2 15 a0 bc a1 65 78 bd
       -0.008145144 0.07376922 -0.019541625 -0.060643796
0001d0 1c 11 5a bd ac 38 fa 3c 88 10 8b 3d 9b bc f5 3c
       -0.053238973 0.030544601 0.067902625 0.02999716
0001e0 7c 33 5b bd 19 e9 b9 3c 47 88 cc bd 73 eb 80 3b
       -0.053515896 0.022694157 -0.0998693 0.0039343177
0001f0 61 48 05 be 8f 14 51 3d 92 c7 81 bc 53 a7 38 be
       -0.13015892 0.051044997 -0.015842233 -0.18032579
000200 fe d7 b6 3d 35 ae 96 3c a5 11 8d 3d e2 ac 3a bd
       0.08927916 0.018393615 0.06888131 -0.04557503
000210 23 11 08 3d f6 b7 1f be 67 47 c3 bd 5e 92 72 3c
       0.033219468 -0.1559752 -0.09535103 0.0148054045
000220 19 bd a8 3d cc 0c af be 66 7c bd 3d d1 52 d6 3d
       0.082391925 -0.3418945 0.09252243 0.10465015
000230 24 00 c9 3b 56 6d 81 be 85 80 a4 be ef 9c 4d 3d
       0.00613405 -0.2527873 -0.32129303 0.05019849
000240 de ed 9f 3d b8 89 80 be 94 fd 36 bb fe b1 5a bd
       0.078090414 -0.2510507 -0.002792214 -0.053392403
000250 a2 ec 6f 3d 1e 59 56 3d 2c 58 7a 3d e6 e2 8c bd
       0.05857528 0.052331083 0.061119244 -0.06879215
000260 8e d5 1a be 99 a7 a8 3c a4 0f 71 3e f3 6d f7 3d
       -0.15120527 0.02058773 0.23541123 0.12081518
000270 3d 40 03 bd 48 8f 80 bd c4 7e b8 be fa 3e 4a be
       -0.032043684 -0.06277329 -0.36034214 -0.19750586
000280 73 aa fb 3d 0e d6 c6 bd fa 4e bf 3d e4 70 ed 3a
       0.1228837 -0.097087964 0.093412355 0.0018115309
000290 61 ec 40 bd a0 c2 8e 3c 7a cb ec 3d ce 78 af bd
       -0.04710043 0.017426789 0.115622476 -0.085679635
0002a0 50 b6 e6 3d 00 96 0d be e6 de 7c 3d e7 b2 90 3d
       0.11265242 -0.13826752 0.06173601 0.07065373
0002b0 9e 2d 8f bd 0c 70 1a 3d 9f 1d 4c 3c 08 0d 78 bd
       -0.06991123 0.037704512 0.012458234 -0.060559303
0002c0 26 83 6d 3d 09 7f 50 bd e4 4a 86 3d 3d 6e 2b be
       0.0579864 -0.0509024 0.06557253 -0.16741271
0002d0 9f 1e 3b bd 19 97 a1 3d 0d 02 f8 3d 46 26 c8 bd
       -0.0456835 0.07890148 0.12109766 -0.09772925
0002e0 51 76 8c bd d1 78 3a bd 3a e4 e7 bc 36 10 03 bd
       -0.068585046 -0.045525376 -0.02830707 -0.03199788
0002f0 e6 b0 11 3e 1b 78 c4 3c 00 10 2a be b4 f2 09 3d
       0.14227638 0.023983052 -0.16607666 0.033678725
000300 b1 8d 3f 3d 08 80 89 bc 8d 53 31 bd 2b a0 6f bb
       0.046765987 -0.016784683 -0.04329257 -0.0036563973
000310 03 c9 39 bd 36 4d d2 3d b2 8c af 3d 4c 0d bb 3d
       -0.045357715 0.10268633 0.085717574 0.091333956
000320 97 8c 84 be da d8 6b 3c f3 cd 27 3e c5 3d 9f bd
       -0.25888512 0.014394963 0.16387157 -0.077754535
000330 b3 f2 34 3e 7e ee 23 3e f7 e3 d4 3d 69 04 2d be
       0.17670707 0.16008946 0.10395043 -0.16896214
000340 02 1e b0 3d 60 b2 02 3e 19 d5 66 3d 5d 3c a9 bd
       0.085994735 0.12763357 0.05635557 -0.082634665
000350 20 18 3f bc 21 8b 80 be dc 4d c8 bd a3 c4 0a 3d
       -0.011663467 -0.25106147 -0.097804755 0.033878934
000360 e0 40 7a 3d 49 10 d8 3c ec 49 b4 bd ae b4 cb bc
       0.061097026 0.026374953 -0.08803162 -0.024866428
000370 fd df 53 3d 2d 2d 00 3c 7f 49 99 3d 79 39 e5 bd
       0.051727284 0.007823271 0.074847214 -0.11192603
000380 90 83 65 3d 39 cd 3b 3c 7a 3b 9e 3d 88 4d c9 bd
       0.05603367 0.011462503 0.07726188 -0.09829241
000390 42 5a 77 bd ce a7 41 bd 85 9c e0 3a 10 96 87 3d
       -0.06038881 -0.04727917 0.001713649 0.06620419
0003a0 35 da b7 bd fe 6c 04 3d 7c b5 33 3d db 38 96 3d
       -0.089771666 0.032330506 0.04387425 0.07335063
0003b0 7d b9 cd bd a5 b1 57 bc 3e 7a bb 3c 94 cb 1c 3a
       -0.10045145 -0.013164912 0.022885438 0.0005981263
0003c0 4e 71 bf bd c9 6f 85 3d e6 7b f5 3c 3c cd 83 3d
       -0.09347783 0.06515462 0.029966306 0.0643563
0003d0 b5 40 93 3c 2b 2a fe bd d0 a2 07 be 5f 2d 80 bd
       0.01797519 -0.12410387 -0.13245702 -0.06258654
0003e0 37 1e 69 bd 1d 0e 9b bd f4 f3 dc 3d 59 c7 12 3e
       -0.05691358 -0.07571051 0.10788718 0.14333858
0003f0 a9 5a b3 bc 40 2c fd 3c 2d b5 66 bd 06 6f 60 bd
       -0.021893816 0.03090489 -0.056325126 -0.05479338

fc2.bias f4 [128]
000000 be 9a 7a 3d c5 c2 29 3d 45 89 ff 3c 3d be 9c bb
       0.06118273 0.041445512 0.031193385 -0.0047834204
000010 5b ee f4 3c 82 aa 8f bd 40 fe ce 3b 70 d6 2b 3d
       0.029898813 -0.07014944 0.00631693 0.04195255
000020 13 2a 11 3e e6 d7 79 bd 05 34 2e 3d bd f2 0c 3d
       0.14176206 -0.060996912 0.04253008 0.03441118
000030 43 ef 98 bd 8f 28 3e 3d 84 e5 a7 bd 53 8e 5e bd
       -0.074675106 0.0464254 -0.081980735 -0.05433495
000040 42 e5 82 3d a3 23 6a bd 6c 82 79 3d c6 a9 10 bd
       0.06391384 -0.057162892 0.060915396 -0.03531816
000050 ca 74 18 bc 6b c4 91 3d 58 b1 a0 3d 06 a5 9f bc
       -0.009305188 0.07117542 0.07846326 -0.019487869
000060 6d aa 97 bd 4e 62 28 bd b0 6c 22 bd 5d 85 89 3c
       -0.07405553 -0.041109376 -0.039654434 0.016787225
000070 1e 40 eb 3c 5d 0f f6 3b 5f 84 7a bc c2 58 27 bd
       0.028717097 0.0075091557 -0.015290349 -0.04085613
000080 2d 95 58 3d 2a d7 7c 3c 13 96 93 3d c8 c5 79 bd
       0.05287664 0.0154321585 0.07206359 -0.060979635
000090 8a 11 fb 3c d7 43 c6 bc 74 27 51 3d d5 0a 26 bd
       0.030648012 -0.02420227 0.051063016 -0.040537674
0000a0 ee b7 63 3d 57 ba 58 bd 45 7a 77 3d 11 9b 99 bc
       0.05559533 -0.052912083 0.06041934 -0.0187507
0000b0 8b 39 83 3c 91 ec c1 3d dd 6c 09 3c 42 83 8f 3c
       0.01601865 0.094689496 0.008387771 0.017518643
0000c0 4f 1a a6 bb 19 0b 07 3d 61 f9 07 be d5 54 14 bd
       -0.005069054 0.032969568 -0.13278724 -0.036213715
0000d0 f7 32 3b 3d c4 7b 0a bd 63 1d 04 bd fe 13 24 3d
       0.0457029 -0.03380944 -0.032254588 0.04005813
0000e0 b7 2f 2d b9 64 63 8e 3d 60 8a 47 3c 98 31 3d bd
       -0.00016516341 0.06952551 0.012178987 -0.046189874
0000f0 a3 bf 28 3d 6c ec 9d bd 6f 2a 84 bd 68 16 f8 3c
       0.041198384 -0.077111095 -0.06453406 0.030284122
000100 79 56 bb 3b 1a 5a e4 3c a6 fb 13 3d bb ef 31 3c
       0.0057170955 0.027874995 0.036128663 0.010860379
000110 00 c7 3c bc 96 13 e9 bb a0 67 a0 3c 57 b2 aa bc
       -0.011522055 -0.0071129305 0.019580662 -0.020836992
000120 3f 1e a6 3c d9 97 13 bc 15 a8 4f 3d 22 6f d8 3d
       0.020278094 -0.009008371 0.050697405 0.10568072
000130 51 a5 87 bd 89 65 bb 3d 9f ad d3 bc 91 32 0d bd
       -0.066233285 0.09150226 -0.025839625 -0.034472052
000140 83 fe ca 3c 34 ef e9 3c 11 61 3a 3d ce 54 9b bd
       0.024779564 0.028556444 0.045502726 -0.075845346
000150 70 cd 2d bd 6e f3 9a 3d b8 67 be bd b9 99 75 bc
       -0.04243225 0.07565962 -0.092971265 -0.014990264
000160 aa bf 0f bd 40 59 eb 3c 38 03 94 bd 29 1c 3a bb
       -0.035094894 0.028729081 -0.072271764 -0.0028398132
000170 91 8a 38 3c d9 c0 60 bd 7e 35 48 bd d9 60 b2 b9
       0.011263506 -0.054871414 -0.04887914 -0.00034022963
000180 49 22 48 bd 7d dc 1e bd 44 bf 3b bd 8b cd 81 bd
       -0.048860822 -0.038784493 -0.045836702 -0.06338032
000190 f4 32 d4 bc c3 2a bd bb 60 20 cb bc 92 25 9c 3b
       -0.025903203 -0.00577292 -0.024795711 0.004765221
0001a0 1f 38 83 3d 79 e5 41 3c b8 56 29 3c e5 2f 03 3d
       0.064071886 0.011834496 0.010335617 0.032028098
0001b0 df 0e 70 3c 43 0b 25 be 6f a9 18 bd be 1c 4d bd
       0.014651983 -0.16117577 -0.03727096 -0.05007624
0001c0 39 06 fd bc 44 e5 cf 3d 43 66 3c 3c 95 7a 94 bb
       -0.030886756 0.10151151 0.0114989905 -0.0045312145
0001d0 86 07 ce 3c 37 f2 d1 3b 62 1e a3 bc 97 28 57 3d
       0.025150072 0.006407048 -0.019911949 0.052528944
0001e0 3e ed c3 bd e8 0a 09 3c 3a 94 61 bc ad 55 50 3d
       -0.09566735 0.008364417 -0.01376825 0.050862957
0001f0 83 87 31 bd 74 62 35 3d f3 e3 46 bd 95 70 88 bc
       -0.043342125 0.044283345 -0.048557233 -0.016655246

fc3.weight f4 [4, 128]
000000 fd 42 4d be c3 8b b6 bd a0 0b 41 be ea 68 14 be
       -0.20045085 -0.08913376 -0.18852091 -0.14493147
000010 bd 49 a8 bd 8f 24 02 3e aa 7f 03 3e 8a 9f 04 be
       -0.082171895 0.12709258 0.12841669 -0.12951484
000020 cb 7b 12 be 62 1b 9b 3e 6d f8 d8 bd 7e 7b de 3d
       -0.14305036 0.3029433 -0.105942585 0.10863398
000030 76 c7 36 be ab 05 ce bd ab c5 96 bd 6c 4d 3f 3e
       -0.17849526 -0.10059675 -0.07361921 0.18681878
000040 4f b7 5a 3e 40 41 90 bc be 39 ae bc 21 d5 1e bf
       0.21358989 -0.017609239 -0.021267768 -0.6204396
000050 37 ad 08 bf d8 7c e7 3d ef e7 27 3e b9 51 04 3e
       -0.53389305 0.11303109 0.1639707 0.129218
000060 09 7f a6 3b 6a e1 04 3f dd 3c 4b 3d 95 5e 06 be
       0.0050810617 0.51906455 0.04961859 -0.13122018
000070 9d 4e 1e 3e 62 5f a6 bd 5b 65 64 be 13 d8 6c be
       0.15459676 -0.081236616 -0.22304289 -0.23129301
000080 75 b1 8b bd 2d 6b aa bd 75 d0 e4 bd 47 00 8d 3e
       -0.068209566 -0.083212234 -0.111725725 0.27539274
000090 70 14 88 3d e9 cb 00 bd 3b e0 1a 3e 8a 5f dd be
       0.06644523 -0.031444464 0.151246 -0.43236953
0000a0 79 93 89 3e 15 5d 4d be 64 c7 c3 bd 83 7e 66 bd
       0.26870325 -0.20055039 -0.09559515 -0.056272995
0000b0 ca 45 68 bd 80 2f ed bc 89 52 b1 3c e0 ea 14 3c
       -0.05670718 -0.028953314 0.021645801 0.009089202
0000c0 65 4d 00 bd e3 ef d1 bc 11 d0 18 be 77 ff b7 bb
       -0.03132381 -0.025627082 -0.14923121 -0.0056151706
0000d0 05 64 6d 3e 44 b3 5a 3c 37 47 3c 3d b9 9a 44 3e
       0.23182686 0.013348404 0.045966353 0.19199647
0000e0 90 88 88 bd 63 f7 5b 3e 59 7e eb bd 16 b5 45 bd
       -0.06666672 0.2148109 -0.11498708 -0.0482684
0000f0 f8 09 17 3e 40 cd a8 3b ab 20 fb be 68 79 c1 3d
       0.14749897 0.005151421 -0.4904836 0.094469845
000100 f6 7f 12 3f 0a 57 b2 bd 29 03 82 3d 84 80 0a bf
       0.572265 -0.08708008 0.06348259 -0.5410235
000110 57 65 ed 3d 52 e6 dc bd 5f 14 04 3d fa 62 b7 bd
       0.11591595 -0.107861176 0.03224599 -0.08954425
000120 c6 4e c6 bc 48 3e 0e be 9d 3c 6d be ca fc 04 3e
       -0.024207484 -0.13890946 -0.23167653 0.12987056
000130 f2 de ce 3e 3c ba b2 3e 84 15 14 bd f2 11 dd be
       0.4040447 0.3490771 -0.03615333 -0.43177754
000140 4d b7 68 3e ff b0 67 3e 61 c8 f3 3d fa fd 47 3b
       0.22726174 0.22626112 0.119034536 0.0030516372
000150 37 04 08 be d9 90 db bd ef 59 ba 3d 00 05 f2 3c
       -0.13282858 -0.10720987 0.09099185 0.0295434
000160 0e 3c 08 3e 4f 80 96 bc f4 75 42 bd 9a d5 a8 3e
       0.13304159 -0.01837173 -0.04747577 0.32975465
000170 42 e9 7d 3e 24 45 48 be fd bd 16 be fd 6c 69 bd
       0.24796012 -0.19557625 -0.14720912 -0.056988705
000180 0d a3 34 3e b1 84 d2 3d 73 8a bf bd 9d fd 79 bc
       0.17640324 0.10279215 -0.09352579 -0.01525822
000190 38 26 ed bc ac c5 04 3e f2 86 09 3d 3c 38 0c 3f
       -0.028948888 0.12966031 0.03357596 0.54773307
0001a0 4a da 2e 3e 75 af ae 3e 3f a9 e5 3e 94 05 02 bd
       0.17075458 0.34118238 0.44855687 -0.0317436
0001b0 1e 54 d5 bd 0b b6 cc bd 8f 33 e1 3d 8b b5 4e bd
       -0.10416435 -0.099956594 0.10996162 -0.0504661
0001c0 a6 89 2a 3e d7 88 8f bd f0 d5 2c 3c 05 e7 a0 bd
       0.16654071 -0.07008522 0.010549054 -0.078565635
0001d0 2d 3d 37 be 9e c6 77 bb 21 dc 30 bc 33 55 8f bd
       -0.1789443 -0.0037807594 -0.01079467 -0.06998672
0001e0 6f 39 37 bd f4 a1 98 bc 81 31 59 bd 78 47 88 3e
       -0.044732507 -0.018631913 -0.053025726 0.26617026
0001f0 51 26 ad be 17 17 05 bc 15 5e a1 bd da 91 8b 3d
       -0.33818296 -0.008123181 -0.07879273 0.06814928
000200 0c 33 12 be 5f 8c b5 3d 88 d4 26 be c9 26 9f 3e
       -0.14277285 0.08864664 -0.16292012 0.31084278
000210 01 e7 61 3e 97 1e a7 bd 21 32 17 bd 75 2c 86 3e
       0.22060777 -0.081601314 -0.03691304 0.26205793
000220 04 04 1a 3e 1f 6a b2 3d f5 70 3c 3d ee 9a 84 3e
       0.15040594 0.08711647 0.04600616 0.25899452
000230 f5 3f 0e 3d 50 59 45 be 00 dd 11 3e 5f 67 36 3e
       0.034728963 -0.19272351 0.14244461 0.1781287
000240 97 20 b2 3d ff 00 88 3e b6 e8 02 3e 0f 69 40 3d
       0.08697622 0.2656326 0.12784085 0.04697519
000250 15 cf 31 bc 91 61 49 bd 64 41 a3 3e 70 59 bb 3e
       -0.010852595 -0.049165312 0.31885827 0.36591673
000260 52 7f a3 bd 75 21 eb bc 07 45 ae bc 81 f8 83 3e
       -0.07983269 -0.028702477 -0.02127315 0.2577553
000270 af 7a e9 bc d2 64 f7 bd bc f7 4a 3d 2f f5 06 3d
       -0.028500883 -0.12079777 0.049552664 0.03294867
000280 ec 9f 13 be bc bf ee bd 55 c3 9c 3c 42 86 3d bc
       -0.14416474 -0.11657664 0.01913611 -0.011567654
000290 e8 3b af 3e e0 fe 93 3c e5 45 3c bd 9a b7 ad 3c
       0.34225392 0.01806587 -0.045965094 0.021205712
0002a0 26 93 e9 3d 05 bd 4f 3d 80 ca a3 3e d4 9e 4b be
       0.114050195 0.050717372 0.31990433 -0.19884807
0002b0 b4 1d 25 bd 24 62 b1 3d 0e dc 95 bd 29 09 ca bd
       -0.04031153 0.08661297 -0.07317363 -0.098650284
0002c0 25 b0 ff bd 80 aa a5 bd 33 f5 e1 bd 8f 1b 18 be
       -0.12484769 -0.08089161 -0.11033096 -0.14854263
0002d0 77 b5 48 bd 26 fa 99 bd 5c 88 6a 3d 93 73 26 bb
       -0.049001183 -0.07518415 0.05725895 -0.0025398477
0002e0 05 b2 b4 3b 20 bf a6 3d 0f d7 a8 3e 85 26 2f bc
       0.0055143856 0.08141923 0.32976577 -0.010690336
0002f0 45 b6 d2 3c 1f 07 0b 3e 14 70 e1 bc 58 6f bd bd
       0.025721679 0.13576935 -0.027519263 -0.09249753
000300 12 e1 38 be e6 aa ed bc 65 cb 6b bd 7a 26 c8 3d
       -0.18054608 -0.029012155 -0.05756702 0.09772964
000310 03 8f 95 bd ac dc 91 3d 2f 9e b9 bd 8c 88 07 3f
       -0.07302668 0.07122168 -0.09063374 0.5294273
000320 d7 ab c6 3c b0 3c 9d be 45 31 49 3c e7 fa 16 3e
       0.024251861 -0.30710363 0.012279813 0.14744149
000330 07 43 86 3e 2d 4f 9d 3d ba 7d 31 bd 3b a7 24 3c
       0.26223013 0.07681117 -0.043332793 0.0100496365
000340 86 78 b7 bd c2 27 e6 bd ac c0 33 bd a6 aa de 3d
       -0.08958535 -0.11238052 -0.043884918 0.10872392
000350 e2 3a ba bc c5 17 39 3c e1 46 1a 3e 04 06 2e 3e
       -0.022733156 0.011297171 0.150661 0.16994482
000360 31 3e ca 3e 63 3c 2b be df 5e f2 bd f1 c5 50 bd
       0.39500573 -0.16722254 -0.118345015 -0.05097002
000370 9c 98 df 3d 0e fb a0 be df a3 97 bc d7 5a 23 be
       0.1091778 -0.3144154 -0.018510757 -0.15952621
000380 a9 d9 84 3c 81 17 e5 bd 93 2e b6 3b 80 51 11 3e
       0.01621707 -0.11186124 0.0055597513 0.14191246
000390 13 9d fd bd 45 37 05 bc 38 83 11 3e 98 dc bc 3e
       -0.12383475 -0.008130853 0.14210212 0.3688705
0003a0 05 63 0a 3d e1 73 bf bd 0b 49 1b be 53 99 71 bb
       0.03378584 -0.09348274 -0.15164582 -0.003686507
0003b0 18 07 a3 3e bb 26 33 3c 38 aa be 3d ba a6 a9 3e
       0.3184135 0.010934527 0.093098104 0.33135015
0003c0 a0 5f 0b 3f fc dd 94 3c 42 bb c2 bc c0 e7 a2 3e
       0.5444279 0.018172257 -0.023770932 0.31817436
0003d0 1a 5c bd 3d 56 5e 93 bd 98 7a 8e bd 67 68 12 bd
       0.092460826 -0.071957275 -0.06956977 -0.035744097
0003e0 eb 29 c8 3e 92 b8 b7 bd 20 1e 2b 3e ca 2b 5c bd
       0.3909448 -0.08970751 0.1671071 -0.053752698
0003f0 77 65 10 3e e7 59 0a be 38 22 39 be d3 35 f9 bd
       0.14101206 -0.13510858 -0.1807946 -0.12168469

fc3.bias f4 [4]
000000 21 f1 02 3d 7c 40 5d bc c0 fd 4f bb 2f c5 75 bd
       0.03196824 -0.013504144 -0.003173694 -0.060002502
