DDPG/checkpoint_critic.pth (torch, 436431 bytes, 7 tensors)

fcs1.weight f4 [256, 33]
00000000: 0b33 3f3d 438f 443e b48b ecbc d1f7 c43d
00000010: ef45 b1bc 6630 87be d6aa b9bc 8fa8 fdbc
00000020: b4c6 a53a 3cd0 b8bc c219 4a3d dc4f 2f3d
00000030: ce62 5e3d 6404 083d 46af 8fbe 7dc0 443e
00000040: cb51 96be d033 233c 05da cd3c 18e8 023d
00000050: b973 30bc e91f 23bd e228 473c 0641 b8bd
00000060: f57d fcbb bc10 ed3c 64bd 87bc 7ef9 9c3e
00000070: c35c a2bd 3e3a b881 7ef9 9cbe ea36 1701
00000080: d92a 3e3e f392 9d3d 3820 383e 39ff 423d
00000090: a1b2 0e3e bd7b 6f3d 0528 0fbe ca41 6dbc
000000a0: 6904 8e3d 0409 6e3d c920 733d 9617 6b3c
000000b0: eb28 39bd 04d6 ed3d 026a 1a3e f3d5 6cbd
000000c0: 457d ec3c 6e66 07b9 bf78 0d3d 2b9e b0bd
000000d0: 820f 22bc aa71 8a3c a795 d53b 1779 0bbd
000000e0: 85c1 87bd 0af2 abbc d1e1 dbbd 5105 27be
000000f0: 9de0 fd3d 53d2 31bd 84b3 e181 9de0 fdbd
00000100: 9469 2b81 7ea7 223e ff30 acbd 8e56 893e
00000110: f3fb 58be 8618 99bc 3613 d0bc 988d aa3d
00000120: 400c 89bd 1ebd 053d 2b1a 7ebd 8941 41bd
00000130: cf82 00bc c498 e73b cf84 773b a4e9 cc3c
00000140: 9698 b6be f758 873e 1f89 1bb9 0e62 f8bc
00000150: 030d b2bd d83a 83bd f8de 4bbb 698b f0bc
00000160: 850d ce3b 24e8 49bb c03d 13bd a88a 363c
00000170: 2e6d 6d3c 6f67 483e e959 05be acc7 3881
00000180: 6f67 48be 6d81 0500 6b5e b5bd 39d6 ac3c
00000190: f294 2b3c 1af2 323c 2f7d 6d3c f01b b33c
000001a0: 445e 093b 6c7f 743b e385 8bbc ee4c a1bc
000001b0: 8e26 003c df5e a23b 1883 c73b 608f debb
000001c0: 065c 8439 12d9 da3c 1306 ef3b f82b 593c
000001d0: 1e20 9d3b bb7f 57bc 0d35 f33c 8ed7 c939
000001e0: a2fc 02bb 2f61 c03c 846f dbba 073f 863b
000001f0: 1ae9 533a 0164 64bc 7e55 3c3d f259 e7bb
00000200: 5989 1d02 7e55 3cbd aca7 9181 cad4 8dbc
00000210: 816d b7bc eaa3 713d c879 b93d 7d5b 98bd
00000220: dd3d 00bc ed5f 8dbc 5441 7d3d e479 7bbc
00000230: 3258 903d c1f6 6fbd f31b 50be 6afa 313d
00000240: fde9 d03c f443 e03d c688 af3d 626c d03d
00000250: bb24 44bd 3665 003c 4ddd c83c 893e 3ebd
00000260: 8c05 97bd 048a a03d b94e 01bd a954 cebd
00000270: a527 9b3c aa70 dc3d c4f9 35bd 7058 483e
00000280: a19b 26be 1a25 8981 7058 48be 08f9 3b81
00000290: a376 0abc 9f99 093d 0ee4 6b3d dcf1 173d
000002a0: 8060 b1bc f702 463c 04d2 89bc 063d 203c
000002b0: 3a5e 8a3c 84f7 293c 3013 9b3c 43e5 263c
000002c0: 0d25 503d 5eba d0bc 9487 4b3c 6410 393d
000002d0: a722 44bc 5c38 0abd 3600 12bc 09d7 88bc
000002e0: b669 313d ac62 0ebd b094 6bbc 9cb3 413c
000002f0: fe82 b73c f421 febc ca25 203c 526b f0bc
00000300: 1e92 be3d 02a7 87bc a46b 9081 1e92 bebd
00000310: 42be 1c80 aa76 b7bc 9408 363e 1e2f e43b
00000320: 7893 e43d c134 403e c457 fcbd 07a9 933e
00000330: 8cff a5bc ea46 11bd 2457 8fbb 3f72 29bb
00000340: c97e 85bd 2714 1a3d bf76 e4bb a11f 03be
00000350: dc3f 6abd 5703 29be 38ee 3cbd 90ee 10bc
00000360: 865f 24bd 3271 083e 3c49 fabc d4f6 333c
00000370: 6df7 0d3b 7572 0ebc 66b3 7ebd 1979 8c3d
00000380: ef33 033c 4001 6d3e 9c9a 0bbd bc17 1401
00000390: 4001 6dbe 8a1e d601 392b 233c ede5 813d
000003a0: d30a 04bd 8335 f13d aa18 513d 7f52 8ebd
000003b0: 8afe b7bd 3be5 953d 8222 40bc 4cdb 0abe
000003c0: a518 bcbd e063 d9bc 947d 2cbe 72cb c9bd
000003d0: 5a2c 10bd c691 8d3d bab2 7abe 722b 28bd
000003e0: 1232 a8bd 6dc7 bfbc 4b84 2bbe 8ebc 443c
000003f0: e7fd b8bc 2851 d3bc e5e7 fa3d 23a8 24bd
0.046679538 0.19195275 -0.02887521 0.0961758 -0.021639792 -0.26404113 -0.022664469 -0.030964164
0.0012647719 -0.022560231 0.04934097 0.04280077 0.054293446 0.033207312 -0.2806341 0.19214053
-0.29359278 0.0099610835 0.025128374 0.031959623 -0.010769778 -0.039825354 0.012155743 -0.08996777
-0.007705445 0.028938644 -0.0165698 0.30659097 -0.07927849 -6.76745e-38 -0.30659097 2.777372e-38
0.18571033 0.07694044 0.1798104 0.04760668 0.13935329 0.058467615 -0.1398011 -0.014481017
0.06934435 0.058114067 0.05935744 0.014348885 -0.045205038 0.11613086 0.15079501 -0.057821225
0.028868327 -0.00012912761 0.03453898 -0.08623918 -0.009891393 0.016899902 0.006518084 -0.034051027
-0.06628708 -0.020989437 -0.107364304 -0.16310622 0.12396357 -0.04341347 -8.290954e-38 -0.12396357
-3.1483488e-38 0.15884206 -0.08407783 0.26823848 -0.21189861 -0.018688451 -0.025399785 0.08327788
-0.066917896 0.03265106 -0.062036674 -0.04718164 -0.007843687 0.0070677716 0.003776837 0.025013752
-0.3566329 0.26435062 -0.00014833033 -0.030320194 -0.08693888 -0.06407708 -0.0031108242 -0.029363351
0.0062882327 -0.0030808533 -0.03594756 0.011141457 0.0144913625 0.19570707 -0.13022579 -3.393872e-38
-0.19570707 5.05607e-40 -0.088558994 0.021098243 0.010472523 0.010921979 0.014495178 0.021863908
0.0020960728 0.0037307395 -0.017031616 -0.019690003 0.007821692 0.004955157 0.0060886256 -0.006791994
0.00025245565 0.026714835 0.0072944253 0.013255112 0.0047950884 -0.013153012 0.029688383 0.00038498308
-0.0019987007 0.02348384 -0.0016741608 0.004096869 0.0008083746 -0.013939858 0.04597997 -0.007060283
1.1573955e-37 -0.04597997 -5.3505185e-38 -0.01731338 -0.022391083 0.05899421 0.09056431 -0.07439325
-0.007827249 -0.017257655 0.06182988 -0.015348885 0.07048072 -0.058584932 -0.20323162 0.043451704
0.0255022 0.10950461 0.08571009 0.101769224 -0.04788659 0.007836631 0.024519587 -0.046446357
-0.07374105 0.078388244 -0.031569216 -0.100747414 0.018939802 0.107636765 -0.04442765 0.19564986
-0.16270305 -5.037909e-38 -0.19564986 -3.4525147e-38 -0.008451137 0.03359377 0.057590537 0.03709589
-0.02165246 0.012085668 -0.016823776 0.009780174 0.016890634 0.010373954 0.018930048 0.010186496
0.050816584 -0.025479492 0.012422461 0.045181647 -0.011971152 -0.033745155 -0.008911183 -0.0167041
0.043313704 -0.03476207 -0.014378712 0.011822607 0.02240133 -0.03102205 0.009774635 -0.02934805
0.093052134 -0.016559128 -5.30517e-38 -0.093052134 -2.639646e-39 -0.02239545 0.1777671 0.0069636246
0.1116094 0.18770124 -0.123214275 0.28839895 -0.020263456 -0.03546802 -0.0043744016 -0.002585545
-0.06518323 0.037616875 -0.0069721634 -0.12805034 -0.057189807 -0.1650518 -0.04612562 -0.00884594
-0.04013016 0.1332443 -0.030552499 0.010984141 0.002166237 -0.008694281 -0.062182806 0.06859035
0.008007987 0.23145008 -0.034082994 2.7200335e-38 -0.23145008 7.8655006e-38 0.009959036 0.06342683
-0.032236885 0.11777785 0.051048912 -0.06949329 -0.08984096 0.07319113 -0.011726977 -0.13560218
-0.09184388 -0.026536882 -0.16844779 -0.09853257 -0.035198547 0.0691257 -0.24482241 -0.041057058
-0.08212675 -0.023410523 -0.16749685 0.012007846 -0.022582008 -0.025795534 0.122512616 -0.04019941

fcs1.bias f4 [256]
00000000: 7af9 9cbe 8fe0 fdbd 7167 48be 7c55 3cbd
00000010: 6e58 48be 2392 bebd 3f01 6dbe d9e5 0dbe
00000020: 6d76 5dbe defe a4be d091 60be e3fa d4bd
00000030: 6b0c 22be e29d 36bd a912 01be 8bcf ccbd
00000040: c116 8f3d 4be7 36bd ce04 25bd ba01 6dbe
00000050: 455f abbd 986a 43bd 6b95 2abe a944 f9bc
00000060: 855a 84bd d950 13be 5afe 59be 0dab 2ebd
00000070: db3e 34bd 2606 15be 04bc eabd f9ad 29bd
00000080: ff30 2cbe 8b68 78be 74b5 99bd 8769 41be
00000090: 2dd2 a1bd 9e28 25be c3e0 4cbe d5f4 74bd
000000a0: 651d 02be d6ce acbd 52b1 82bd 3ea6 cd3d
000000b0: 91b7 38be 628b 76bd 39cb 1bbe 5632 1ebe
000000c0: 8032 ae3c 1600 7bbd 9c6f 86be 949a 92bb
000000d0: e7c4 f7bd 8c21 0ebe dbe2 1ebe a7cf 00be
000000e0: 9589 7bbe eb46 05be 1518 bcbd 38cc 30be
000000f0: edd7 0bbe 19b4 41bd 7441 91be df65 48bd
00000100: fa07 6dbe 4d47 47bd d62b 84bd a68b 7ebe
00000110: 9793 83bd 51f1 72bd 8555 18be 0a8d 3ebe
00000120: eb70 73bd 7fe9 f3bd 7b5f 1cbe 4914 6bbd
00000130: 211b 1bbe 5a22 4dbd b633 32be 8644 0bbe
00000140: 9527 14be 51bf e2bd a7a6 f7bd 2922 49be
00000150: dce4 9bbd 5e7d 24be b288 c8bd 7d7e 93bd
00000160: 45f9 72bd 4ed5 4bbe d2c0 f0bd fdd5 efbd
00000170: 2c1d 3dbe b286 84be bffc 92bc 75b5 21be
00000180: 08db 35be e0c5 83bd 8a8b 62bd 25aa 14be
00000190: 3550 b1bc 0cbd c7bd 8397 80be a954 49be
000001a0: 2b35 6fbe 1745 3dbe 4eb1 5fbd a073 5bbe
000001b0: d24e 48be 07b5 c5bd 86bc 56bd 6313 e1bd
000001c0: 9b16 1ebd b08d 3fbd 8ca8 46bd de4b 9bbd
000001d0: 967c 2cbd b2b3 3ebe 900b 36be 9fb2 8dbd
000001e0: 463c 7cbd 8704 08be 96ca 82bc 1405 41be
000001f0: ae94 43be f563 a7bc a217 95bd a0b4 2bbe
00000200: 9673 a1be 3e56 68bd fdb2 2dbd 8be9 a5bc
00000210: 5821 84bd 10b1 32bd 72cf 61be c1ec 3ebd
00000220: d9cc 42be 9481 1dbd c01c 1ebe 2ebe 43bd
00000230: 432e cbbc 489d afbd 053a afbd 414e 71bd
00000240: 3bb3 47bd 8b70 24bd 7d5b 54be 76e4 42be
00000250: ad44 60be e4e4 ccbc 3bdc 75be 6969 6ebe
00000260: 0e30 f8bd 79e0 cabd 3ee4 32be 851c 2dbe
00000270: 3411 90be c7be 2cbe 83e0 83be bce9 50be
00000280: 77d7 e1bd 1c7e 2bbd 4fe8 5ebd 46e6 26bd
00000290: 000e 4bbe 1b1a 5fbd 63a2 53bd 666e ecbd
000002a0: 625a 28bd bbb6 7bbe 89fe bcbd 9226 2cbe
000002b0: 37e4 2ebd adff 25be 4fe5 81be bc81 18bd
000002c0: 143c 2fbe da50 2dbe 3208 18bd 74fc 36bd
000002d0: fd02 28be b67c 6ebd ff16 48bd c066 8dbe
000002e0: ac65 80be aaba 71bd 4c1b 83bd 4d94 03bd
000002f0: 187c 1ebe 1b97 20be bd67 f9bd a39b fdbd
00000300: 11aa 17bd ba2c 82bd 2585 d9bd 76e4 13be
00000310: dbef 99bd 99d8 26bd 3bc8 3dbd 521b 36bc
00000320: acf7 d0bd c933 6bbd 86c6 90bd 86e9 f9bc
00000330: 5dbb 93bd 99f0 30be 7eee 77bd 9c23 39bd
00000340: 2b71 f5bd c418 00bd e6e7 37be 89f2 11bd
00000350: 9b83 fdbd f9b7 4fbd 7645 13be 4d49 56be
00000360: 4a45 a1bd 9ea5 41bd 3935 26be 991d 95bd
00000370: 1267 20be 87aa 8abd 66e7 8dbe 6fbd 2fbe
00000380: 042e 45bd 08bf 9dbd e9f2 3ebe a52b 40be
00000390: 585f 41bd cd9f 96bd 6142 5abd be71 d2bd
000003a0: 306f 3ebd ecb6 e7bd 28ba 3fbe 1347 54be
000003b0: 5e0b 36be f3bc ddbc 4e2d e2bd 778c a3be
000003c0: 1934 f4bd e3ae 88bd 01fa 8bbe 94c7 a2be
000003d0: bfcd 76bd b41a d2bd 2676 5ebd 3f8c c9bc
000003e0: 0d82 6cbe 88eb 34be ee61 cd3c 3620 d4bc
000003f0: 339c 64be c77b 97bc 688c 3ebd 2e1a 1cbd
-0.30659086 -0.12396347 -0.1957071 -0.04597996 -0.19564983 -0.09305217 -0.23145007 -0.13857211
-0.21627207 -0.32225698 -0.21930623 -0.10399415 -0.1582505 -0.044584163 -0.12604775 -0.10000523
0.06986762 -0.044654172 -0.040287785 -0.2314519 -0.083677806 -0.047709078 -0.16658561 -0.030428248
-0.06462578 -0.1438631 -0.21288434 -0.042643595 -0.044005256 -0.14553127 -0.114616424 -0.04142568
-0.16815566 -0.2425863 -0.075053126 -0.18887912 -0.07901416 -0.16128775 -0.20007615 -0.059803803
-0.12706526 -0.08437888 -0.063814774 0.10041474 -0.18038775 -0.06019152 -0.15214242 -0.15448889
0.021264315 -0.06127938 -0.26257026 -0.0044739936 -0.12098103 -0.13879985 -0.15516226 -0.12579213
-0.24564202 -0.13015334 -0.09184281 -0.17265403 -0.13656588 -0.047290895 -0.2837025 -0.048925277
-0.23147574 -0.048651982 -0.064536735 -0.24857959 -0.06424635 -0.05931217 -0.14876373 -0.1860849
-0.05943386 -0.1190977 -0.15270798 -0.057392392 -0.15147068 -0.05008159 -0.17402539 -0.13600358
-0.14468224 -0.11071647 -0.12092333 -0.19641937 -0.07612011 -0.16063449 -0.097916976 -0.0720186
-0.059319753 -0.19905588 -0.117555276 -0.11710737 -0.1846816 -0.25884014 -0.017942784 -0.15791877
-0.17759335 -0.06434226 -0.055308856 -0.1451803 -0.021644691 -0.09752855 -0.25115594 -0.19661202
-0.23360126 -0.18483387 -0.05461245 -0.21430826 -0.19561318 -0.09653669 -0.052425884 -0.10990026
-0.038595777 -0.046765983 -0.048500583 -0.0758283 -0.042111002 -0.18623236 -0.17777848 -0.06918835
-0.06158092 -0.13282977 -0.015965741 -0.18849593 -0.19099686 -0.020433405 -0.07279898 -0.16768122
-0.31533498 -0.056722872 -0.042407025 -0.020252964 -0.06451672 -0.04362589 -0.2205179 -0.046612505
-0.19023456 -0.038453653 -0.15440655 -0.04778879 -0.024802333 -0.08574921 -0.08555988 -0.05891252
-0.048754912 -0.04014639 -0.20738025 -0.19032463 -0.21901198 -0.025011487 -0.24009793 -0.23282398
-0.12118541 -0.09906096 -0.1746988 -0.1690541 -0.28138125 -0.16869651 -0.25757226 -0.20401663
-0.11027425 -0.041868314 -0.054420765 -0.04074695 -0.1982956 -0.054468255 -0.051668536 -0.11544494
-0.04110182 -0.24581425 -0.09228236 -0.16811588 -0.04269811 -0.16210814 -0.2537026 -0.0372331
-0.17112762 -0.16925374 -0.03711719 -0.04467435 -0.1640739 -0.058224402 -0.048850056 -0.27617455
-0.2507757 -0.059015907 -0.06401691 -0.032123853 -0.15477026 -0.15682642 -0.1217799 -0.12383201
-0.037027422 -0.06356187 -0.106210984 -0.1444262 -0.07516452 -0.040733907 -0.046333533 -0.011114912
-0.1020349 -0.057422433 -0.07069115 -0.03050686 -0.07213471 -0.1727928 -0.06053018 -0.045199975
-0.11984476 -0.03127362 -0.17959556 -0.03563169 -0.123786174 -0.05071256 -0.14381966 -0.209264
-0.07874544 -0.047277085 -0.1623124 -0.07281036 -0.15664318 -0.06770807 -0.27715605 -0.17162107
-0.048139587 -0.07702452 -0.1864735 -0.18766649 -0.047210068 -0.07354698 -0.05328596 -0.10275601
-0.046492755 -0.113141865 -0.18723357 -0.20730238 -0.17777774 -0.027067637 -0.110437974 -0.31943104
-0.11923999 -0.06673982 -0.27339175 -0.3179289 -0.06025481 -0.102589995 -0.054311894 -0.024603007
-0.23096485 -0.17667973 0.02507111 -0.025894266 -0.2232521 -0.018491639 -0.04652062 -0.038110904

fc2.weight f4 [256, 260]
00000000: 3547 f5bd 8297 ad3d f352 3e3d 7834 323c
00000010: 51b3 8ebd e3ba c13c d1ff 53bd 5bc2 31bd
00000020: c028 7fbc d565 e43c b54c 91bc 2ac9 f43c
00000030: f462 19bd 28bc 95bc f1a5 893d e086 d9bd
00000040: 57d1 f03d 7fc2 0d3c 20a5 c63c 1f69 843d
00000050: e65f 02bd 6512 7fbc f758 473d ccf8 38bc
00000060: 8b0a 0a3c 2a81 29bc 8d75 85bd 55fe dcba
00000070: 5ecc 1c3c 9b17 973c c676 743b fde5 963c
00000080: 0ab9 74bd 50ce e13d 18c8 033c c873 8f39
00000090: 63ee 2cbc de35 533c 0097 e53c 0d4d 123c
000000a0: 2fd0 333c 2c46 87be 6a76 583c 30c9 f53d
000000b0: 279f c03d bc21 0d3d 9356 3a3d 959c 8fbc
000000c0: 4528 08bf a4ea a5bc ad4b db3b 88c1 82bd
000000d0: d896 4d3c 75a6 2e3d e541 d53c 11fd b3bd
000000e0: 71a9 bfbd 9398 643d fa21 3dbe c0bb c1bd
000000f0: ff8a 16bd c2a1 8ebb f6c3 1cbb 3f86 b0bb
00000100: 466d 6f3c ce08 c53c e74a 11bc 7fd2 79bd
00000110: 9031 6bbb 8977 babd 9cc1 37bd 808c 1bba
00000120: 5bd3 61bc b78a a8bd 79e0 9b3c 632c 2abd
00000130: aee1 c03d ae64 2f3b f6af 29bd 68d9 383d
00000140: 13e1 133c d5e6 cfbd b55a 4e3d 37a9 f8bd
00000150: 180f 0cba 2e2d 043d 386a 0b3d d574 9f3c
00000160: d286 b53c c877 dfbd 903c 453d 313d 3abd
00000170: 18a2 fc3c bfcc 72bc 7249 8c3d e3d8 a03d
00000180: a04a 463c 3ff0 ab3b 1258 633c bf3d 95bc
00000190: 70b5 853d 11d1 9ebd b55f 883d bd60 0abc
000001a0: c07e c93c 6188 11be 3fee 01bc ee72 c8bd
000001b0: b799 1dbc 96d3 ebbd 4f69 98b9 f846 0f3d
000001c0: 16bb 9cbc 6b06 b93a f426 64bc 1a99 9cba
000001d0: e8ae 563b 7851 5b3d 403e e23c 251c 2b3b
000001e0: 1d60 80bd a91d 3b3d 20ad 0cbd 304b 863d
000001f0: b528 80bd 20e3 41bb d7a4 3cbc 9caa b9bd
00000200: fbc6 03bd 1f95 3dbb afcf 493c 5193 ab3c
00000210: cd20 b5ba 258b a6ba d9be 923c 7ec3 cc3b
00000220: bb17 38bb 8d92 0abc dfbf c5bc 6972 803b
00000230: 7993 1abb e0d7 433d 8994 58bc 9292 f9bb
00000240: ae83 abbb 288b b93b 8de8 37bd cc69 bebd
00000250: 90b9 b9bd caef 96b9 1abf 743d d46b a1bd
00000260: c34f 06bd 3713 f4bb e306 1a3d fca5 bebd
00000270: e088 ea3b 5781 20bd 69f7 1a3d 730f 2c3b
00000280: 6f49 ae3b de26 2d3a 82c6 08bd 430c f43a
00000290: 6ff6 263d c6f8 fabc 8f62 5b3b 99da 6ebd
000002a0: 1176 7fbd 218e 5e3d 1605 45bd 2844 6e3d
000002b0: 0e6a 153c 18c4 983c de17 1b3e c538 303c
000002c0: 31c7 3b3d 2de3 f9bd 7271 763b 68f3 adbc
000002d0: 20ea 633c 25a1 903d 0b6e aabb 060d cabd
000002e0: 585d 95bd a43b 983c 6b61 02bf 5a0f 0a3c
000002f0: f749 e53c c490 4cbc 39c8 903d 56fc 8539
00000300: c358 3f3a e817 893b d9b5 e73c c7b3 873d
00000310: d256 843a cc4d 4bbc d3e3 babb 5d2b 5db9
00000320: dcad 243c 0d8a 863d e3c9 2bbc cee0 37be
00000330: 2885 c3ba 8655 243d ab1c 14bb be35 ac39
00000340: cfaf 4dbd 28bf 95bb 28a4 9b3d 9f2b 723d
00000350: 0edf 043c 16ad 74bc b6e9 2cbd 6940 6c3d
00000360: 3a2c 47bf c7de baba 7118 0fbb 9859 9bbd
00000370: 0203 b4bd 8cd4 46bd d09c 78bd 456f 89bc
00000380: a9b8 573c 9dc8 993c b99d cebd 1152 a93d
00000390: 9bb0 d03c 07a3 cc3c cc8f eabb 3c1b 993b
000003a0: cba4 72bc fa9b 7abd 0bda 24bd 90b1 043d
000003b0: 75ee 783d 3974 b83b 60d6 43bd 4e68 063d
000003c0: 14e4 333d baa1 83bc 5e03 76bd 7121 fd3b
000003d0: cecf 2ebc a0d5 be3c 442e 803b 7f2d 933d
000003e0: d50a e03c 6bc4 19be 10e1 9fbd de2c 1ebc
000003f0: 7e41 2a3a 54ce f8bd 7b08 f33b 9a02 883c
-0.11976472 0.084761634 0.046465825 0.010876767 -0.06967796 0.023648685 -0.051757637 -0.043398242
-0.01557368 0.027880589 -0.017736772 0.029881079 -0.037447885 -0.018278196 0.06721104 -0.106214285
0.117586784 0.0086523285 0.02424866 0.06465363 -0.031829737 -0.01556835 0.048668828 -0.011289787
0.008425365 -0.0103457365 -0.06516562 -0.0016860465 0.009570209 0.018443873 0.003730224 0.018420214
-0.05974678 0.11025679 0.008043312 0.0002736135 -0.010554883 0.012891261 0.028026104 0.008929503
0.010974928 -0.26420724 0.013211826 0.12001264 0.09405356 0.034456 0.04549272 -0.017530719
-0.53186446 -0.020253487 0.006692371 -0.063845694 0.012548171 0.042639215 0.026032398 -0.08788503
-0.0935849 0.05580957 -0.18469992 -0.094596386 -0.03675365 -0.004352779 -0.0023920513 -0.005387097
0.014613455 0.02405205 -0.008867956 -0.06099176 -0.0035887696 -0.09104831 -0.044862375 -0.0005933717
-0.013783301 -0.08229583 0.019027935 -0.041546237 0.09418045 0.002676289 -0.041427575 0.04512921
0.00902583 -0.101514496 0.050379474 -0.1214165 -0.00053428253 0.03226965 0.034036845 0.01946489
0.022159014 -0.10911518 0.04815346 -0.045468513 0.030839011 -0.014819323 0.06849946 0.07853868
0.012102753 0.0052471454 0.013875978 -0.01821792 0.06528747 -0.0775472 0.0665888 -0.008445916
0.024596572 -0.1421218 -0.007930337 -0.09787546 -0.009619168 -0.11514966 -0.0002907016 0.03497979
-0.019132178 0.0014116293 -0.013925303 -0.0011947483 0.003275806 0.05354449 0.027617574 0.0026109305
-0.06268332 0.045682583 -0.034344792 0.0655731 -0.06257764 -0.002958484 -0.01151391 -0.09065744
-0.032172184 -0.0028927994 0.012317582 0.02094427 -0.001381898 -0.0012706263 0.017913269 0.0062488904
-0.0028090316 -0.008457792 -0.024139343 0.0039198888 -0.0023586436 0.047813296 -0.013219007 -0.0076163495
-0.0052342033 0.0056623407 -0.044899512 -0.09297523 -0.09068596 -0.00028788886 0.05975256 -0.07881895
-0.03279091 -0.0074485797 0.037604224 -0.09309003 0.00715743 -0.039185848 0.037833605 0.0026254326
0.0053188126 0.0006605218 -0.033392437 0.0018619377 0.04076236 -0.030636203 0.0033475494 -0.05831394
-0.062368456 0.054334763 -0.048100553 0.058170468 0.009119524 0.018648192 0.15145823 0.010755722
0.04584426 -0.122015335 0.003760424 -0.02123423 0.0139108 0.07061986 -0.0052011064 -0.09865765
-0.072931945 0.018583126 -0.509299 0.008426512 0.02798937 -0.012485687 0.070694394 0.00025555742
0.00072992983 0.004183758 0.028284954 0.06626087 0.0010096675 -0.012408685 -0.0057034283 -0.00021092356
0.010051217 0.065693 -0.010485145 -0.1795685 -0.0014917003 0.040120624 -0.0022600095 0.00032846438
-0.050216492 -0.0045699067 0.0759967 0.05912363 0.008109821 -0.014933845 -0.04221507 0.057678614
-0.7780186 -0.0014257067 -0.0021834637 -0.07585448 -0.08789636 -0.048542544 -0.060696423 -0.01677669
0.013166585 0.018772418 -0.10088677 0.08267606 0.025474837 0.024980081 -0.007158255 0.004672436
-0.0148097975 -0.061183907 -0.040247004 0.0323959 0.060774285 0.005629089 -0.047811866 0.032814316
0.043918684 -0.016068328 -0.060061805 0.007724934 -0.010669662 0.023295224 0.0039117653 0.07186412
0.027348915 -0.15016334 -0.07806599 -0.009654252 0.00064947444 -0.12148729 0.0074167824 0.016602803

fc2.bias f4 [256]
00000000: d45e 983e f814 f3bd dd2e 08bd dd97 28bd
00000010: a5b3 6dbe e7cc 8abc 56c1 1fbc 7ae9 cebc
00000020: 1d84 4f3d e91b 03bd 1bf2 2bbe 8d1b 9bbc
00000030: 548b 25bc a4d2 08bd 25f7 03be e7d6 a03c
00000040: 0141 efbd 69ed 09be 2c54 14bd 29e6 e23d
00000050: 4bc5 5c3e d314 83bd bed2 f33e 713d 00bd
00000060: 7ffe a9bd f789 73be db73 2dbf 2c90 36bb
00000070: 369c 2fbd 41b9 28bc 2c35 b73d 7bfb b2be
00000080: 199f ad3e ef78 0fbd f511 b4bc 2f2a 983c
00000090: a3c7 3dbd 0e57 b6bc 14f2 ae3d 592f 0c3e
000000a0: d49e ffbc 30c5 68bd d6b0 813e 1de8 04bd
000000b0: 56be 0ebd b1cf aabc c7b1 81bc 06de 0ebd
000000c0: dadb 6d3c 3aa4 72ba e681 6e3e 3eba 5ebd
000000d0: 0873 9abc 0a68 0dbd f529 13bd 5272 9fbd
000000e0: 29c9 5bbd 1eb3 6bbc 97c6 15be 1807 74bc
000000f0: 8a36 afbd 719a 86bc c631 0abd 1356 b8bc
00000100: c1ef 30be 6cae 59bd fcb7 34bf 3fdb 2cbd
00000110: e9d9 05bd 4651 15bd 85e6 69bc 0229 70bc
00000120: 3c49 19bc a9be ddbc 6382 d4bc e5eb 08bd
00000130: 3f99 463e 45e8 16bd bd03 7cbe 8cf8 ecbb
00000140: a941 5bbd 03b7 e1bc 8a8b 663e 859e 09bd
00000150: d476 a4bc 3278 643e 0da6 2ebc e44a fbbd
00000160: 88cf bebc 5b89 1dbd 70cb e2bd 78c7 5cbc
00000170: 448a 03bd 31e3 afbd 2bdd fdbc 6ec4 25be
00000180: 7984 c3bd b44f 8cbd 4955 6dbc d560 eebc
00000190: 331c 37be ed6e c33d c566 4fbd cc50 053e
000001a0: ef70 4ebe bf30 79bd ff12 cabc f713 67bd
000001b0: 7bac 03bd e1eb 07bf bd96 4abb b802 65bd
000001c0: aa69 d7bc 8462 3b3c 7de8 2cbd 9107 12bd
000001d0: 3459 bbbc 8fe6 6cbd 4f5c 18bd bd24 9f3d
000001e0: 171f 92bd 8399 09bd 0b9a dbbd 42ee 3dbd
000001f0: 442c 25be 6e40 8cbc 04dc 1ebd 9228 34be
00000200: 004b dabc 3bba d2bc af62 bebc fafa 20be
00000210: 9a12 a3bc 4c55 43be 78b9 d0bc ad7c 0ebd
00000220: c3a0 053e b607 aabd 5ed8 c1be ef10 bfbc
00000230: aa09 89bb 8449 19bd a03d 87bc 4494 013d
00000240: 7345 74be 0e38 33be 395a cabc 1e18 d23c
00000250: 28fc ae3c 26e2 58bd 6206 05bd 28e3 8abd
00000260: fe65 0fbd 2b45 1bbd 0d12 f5bc 9946 4cbc
00000270: 99d8 03bd 2389 9dbc 44e1 01bf a1df 50bc
00000280: c4d7 f1bc 2fc2 1ebd b55a d5bc ec0c f6bc
00000290: b498 81bc d3dc c1bc 6f7c 44be 4f0a 08be
000002a0: 1e3c c6bc 807a 7bbd c37d f33d b434 38be
000002b0: 68b9 44be 29a8 16bd 6401 bebc 4432 843e
000002c0: fa52 bcbc e48a 0dbd 0f59 3cbd d30f e5bc
000002d0: 08e1 a03d 7a9b b8bc d8d7 45be 89c3 adbd
000002e0: ae03 04bc e5da 9abb ade9 49bc 7694 44bd
000002f0: 49ab c3bb c3d6 33bd 5ddc 163e f828 97bc
00000300: cfd9 9ebc 7bb1 04be 0207 69bc 4b20 b7bc
00000310: 78c1 a3bc 41b3 3bbc 3b29 10bd 389e a1bd
00000320: 36f0 26bd 104f a7bc 336a aebc ddf1 1ebf
00000330: 33c0 0dbd b66c aebc cde8 04bd 05ba 64bc
00000340: 786d c4bb 4acc 8cbe ad70 e4bc 5c07 b0bc
00000350: 419e 76be bd89 83bd 8724 1cbc 1104 cebc
00000360: 3652 0bbd 45c8 9fbe 06d0 d3bc 6647 3ebc
00000370: 6cd6 02bd 14b0 22be 0ecd a3bd c3eb 62be
00000380: 228e 06bd 209d d4bc 2c76 55bd 65ef 58bd
00000390: 02c1 bbbd d4c8 39bd 563f c8bc e4e1 d3bc
000003a0: aea0 7bbb 2cd8 9fbd 02d1 22bd f0a1 abbd
000003b0: 8533 14bd 6f7f 9a3c f8d0 f3bc d690 bdbc
000003c0: a1c9 4cbe b5d7 a1bd 59e2 f0bc a5af 31bd
000003d0: 530f 2abe 6a13 53bd a8e2 fcbc 6af3 c0bc
000003e0: f4ae 963b e5ad 80bb 13fa 26bd f476 9c3c
000003f0: cfb6 42bc a741 503d 3007 23bc 75dd 97be
0.29759848 -0.11869234 -0.033247817 -0.041160453 -0.2321306 -0.016943408 -0.009750685 -0.025257815
0.050663102 -0.03200904 -0.16791575 -0.018934036 -0.010104019 -0.033404008 -0.12887247 0.019633723
-0.116823204 -0.13469471 -0.036213085 0.11079056 0.21559636 -0.06400456 0.4762172 -0.031308595
-0.083004944 -0.23783098 -0.67754906 -0.002785693 -0.042873584 -0.010298074 0.089456886 -0.3495749
0.33910444 -0.03502744 -0.021981219 0.018574802 -0.046332967 -0.022258308 0.085422665 0.13689937
-0.031203665 -0.056828678 0.25330228 -0.032447923 -0.034849487 -0.020850988 -0.015831841 -0.034879707
0.014517749 -0.0009256039 0.2329174 -0.054376833 -0.01885368 -0.034523048 -0.035928685 -0.07785477
-0.05365864 -0.014385967 -0.14626537 -0.014894269 -0.085553244 -0.016431065 -0.033738874 -0.02250198
-0.17278959 -0.053144857 -0.7059324 -0.042201277 -0.03267852 -0.03645446 -0.014276152 -0.0146582145
-0.009355839 -0.027068453 -0.02594108 -0.03342809 0.19394396 -0.036842603 -0.24610801 -0.0072317775
-0.053529415 -0.027553087 0.22514167 -0.03359844 -0.020076193 0.22311476 -0.010659707 -0.12270144
-0.023292318 -0.03846107 -0.11073959 -0.013475291 -0.032114282 -0.08588255 -0.03098925 -0.16188213
-0.095467515 -0.0685114 -0.014485666 -0.029098907 -0.17881851 0.09542642 -0.050635118 0.13019103
-0.20160268 -0.060837504 -0.024667261 -0.056415524 -0.032146912 -0.530943 -0.00309126 -0.055910796
-0.026295502 0.011437062 -0.042213906 -0.035651747 -0.022869684 -0.057837065 -0.037197407 0.07770679
-0.07134836 -0.033593666 -0.10722741 -0.0463698 -0.16130167 -0.017120566 -0.038784042 -0.17593601
-0.02664709 -0.025723567 -0.023240415 -0.1572074 -0.01990633 -0.19075507 -0.025479063 -0.03478687
0.13049607 -0.08302252 -0.37860388 -0.023323504 -0.0041820602 -0.037423626 -0.016508877 0.031635538
-0.23854618 -0.17501852 -0.024701225 0.025646266 0.021360472 -0.052950047 -0.03247679 -0.06781608
-0.035009377 -0.03790776 -0.029915834 -0.012468004 -0.032188985 -0.019230431 -0.50734353 -0.01274863
-0.02952183 -0.038759407 -0.026044229 -0.030035459 -0.015819885 -0.023664868 -0.19188093 -0.13285182
-0.024198588 -0.061396122 0.118892215 -0.17988855 -0.19211352 -0.036781464 -0.023194022 0.258196
-0.022988785 -0.034556285 -0.04598337 -0.027961647 0.07855421 -0.022535075 -0.19320619 -0.08484561
-0.008057518 -0.0047258013 -0.012323779 -0.047993146 -0.0059713465 -0.043905985 0.147325 -0.018452153
-0.019390969 -0.12958328 -0.014222862 -0.022354266 -0.019989714 -0.011456312 -0.03519557 -0.07891506
-0.040756427 -0.020423442 -0.021290874 -0.62087804 -0.034607124 -0.021292072 -0.03244858 -0.013960366
-0.005994495 -0.2749961 -0.02788576 -0.021487884 -0.24083807 -0.06422756 -0.009530193 -0.025148423
-0.03401395 -0.3120748 -0.02585603 -0.011613702 -0.03194277 -0.15887481 -0.079980955 -0.22160248
-0.032850392 -0.02595383 -0.05211465 -0.05296268 -0.09167673 -0.04535754 -0.024444263 -0.025864549
-0.0038395333 -0.078049034 -0.039750107 -0.083804965 -0.036181945 0.018859593 -0.02976273 -0.023140352
-0.1999879 -0.07902471 -0.029404806 -0.0433804 -0.16607408 -0.051532187 -0.030869797 -0.023553569
0.0045984928 -0.00392698 -0.040765833 0.01909969 -0.011884405 0.05084386 -0.009950444 -0.29661146

fc3.weight f4 [128, 256]
00000000: ff3b a6bb 5576 89b7 c72c 23b5 86a5 3136
00000010: 3062 2fb8 67ee 78b7 c10c 99b5 6498 b9b4
00000020: b946 5e3a d205 e0b5 c872 1338 9018 0e37
00000030: 135a 823b 2854 5ab3 f4cc 3238 1a8e 0c3c
00000040: b98f 0ab9 9d72 cb37 ec3e 0d35 bab0 e439
00000050: b8c8 74bb bfbb 8a36 365b cbbc 762c 81bb
00000060: c38d 6c3b 621e 0c38 beb7 96bb 1001 2cb4
00000070: 9548 26b7 8209 03b6 8c60 c137 934e b0bb
00000080: f611 aeba 6043 c236 f525 a9b5 f7b6 e5b6
00000090: a2ec d635 7f95 2437 d9f2 673b 7d15 1eb8
000000a0: 0fe9 9cb7 c4df 8fb7 e029 603b 69d3 7536
000000b0: 4bc0 82b7 f1fb 80b6 c85f dcb5 32be d436
000000c0: ff9e 38ba b90f d937 ab44 08bc 2d35 2639
000000d0: a87f 9238 0223 6e37 d1df 01b6 6857 0d3a
000000e0: 6f9c 11b9 b03b c0b5 579a 6437 88f9 16bb
000000f0: 0d38 3538 012d 13b6 680e 83b7 186e c3b5
00000100: e64b 89b8 01d1 dcb8 66ca 073c d9ed d036
00000110: 4417 1335 03c0 60b7 da9e 49b6 b1f1 1738
00000120: 2c04 7bb5 4884 75b6 9a74 a035 4fdd 59b5
00000130: 7ada 2dbc 2ff8 8cb5 67ae a137 e43f 5ab5
00000140: 4646 f237 e683 96b7 f357 81bc 97a2 8835
00000150: 3418 37b7 abe1 b8bc 9a97 2cb5 7ac9 0a38
00000160: 0052 33b6 7adc a1ba ea7f 4337 66a7 a934
00000170: 0099 5735 ded0 43b8 00c8 c3ba f4f3 99b6
00000180: 8832 4a38 5599 bfb9 a565 51b6 7eb0 c6b5
00000190: 56cd 71b8 5fa5 5a39 9893 2c36 c48a 2a3a
000001a0: 8c38 30bb 6a4b 30bb f20a 44b6 40c4 8fb7
000001b0: 4981 80b8 cce6 2cbb b1b0 88b4 ac21 cf37
000001c0: c878 7637 f263 ee37 5d7e f836 e9c7 24b7
000001d0: 040b a4b6 1e39 00b6 c86c f436 8915 5539
000001e0: a3a3 353c 88fd b1b6 589e 9fb8 9f7b 78b6
000001f0: ac8c 7ab8 a495 79b5 0a24 3fb7 3641 a536
00000200: 2287 98b7 c897 08b7 cb08 e2b5 4a62 1c38
00000210: 5d45 02b6 5144 57bb 9020 73b6 bd1f 7ab5
00000220: a031 0ebb 45cc 0f38 a7c3 8038 5772 1836
00000230: f00e 1235 9e02 8c36 d858 04b6 9edd a037
00000240: 3488 a8bb 6258 bcb7 ee43 25b6 5a02 c2b8
00000250: 2810 4cb8 254a 5036 535f 67b5 a2c0 af37
00000260: bd0e 4ab5 10f0 edb4 6204 c6b6 ec03 37b6
00000270: 8cf1 7136 480f 39b6 0778 65ba d053 f9b5
00000280: dd07 42b6 9025 0ab9 9c15 2f35 c560 41b6
00000290: f32f d7b5 c60c 3bb7 e69d 9838 75bd 61bc
000002a0: 41f4 47b6 c818 8bba ba8d 1ebb 0297 cfba
000002b0: f4fb 2e3b a8b6 2b38 2331 9bb6 1dc1 35bc
000002c0: 9b16 aeb6 9ee1 9234 eaab c4b8 085b c0b5
000002d0: 3ccc d23b bdcb 03b6 9e97 bb36 b21e 00b9
000002e0: 2526 8eb5 ef0c a5b4 babd a0b9 a604 7838
000002f0: bacd aeb5 6fc7 8337 600a 0d3b 936d a935
00000300: 78d1 86b6 1e7e b937 5c81 e3b5 d488 32b9
00000310: df31 8ab4 fd9d feb5 8416 99b5 4d9a a6b9
00000320: b4ba e436 c343 0736 a06b 9bb6 e331 f6b8
00000330: d83d 9fb5 831e 79b7 9369 21b5 c1bd c6b5
00000340: 1243 82b5 e597 d037 833c ceb6 d3dc 0eb6
00000350: 72ad a538 1e14 413a 549e a9b4 98c0 40b5
00000360: 2725 8cb5 9e4d d6bb 3d36 7bb8 f5ce b3b5
00000370: daff e536 6a6a fb39 d5f2 4a37 65c7 deb7
00000380: bb38 37b8 7f11 01b6 5295 8736 d73f 24b7
00000390: 8a85 d137 536f 9c36 c5fa 72b7 7e58 09b7
000003a0: 99c3 e337 2f20 263a 3c9f 00b7 706b da37
000003b0: 6837 2736 5ece bc3b 73d6 08b7 8eb4 28b7
000003c0: ca96 5a38 9746 69b5 bf83 dc35 5a32 64b7
000003d0: f3e8 ab37 0960 033b ae64 34b7 9e0e c935
000003e0: 9467 35b8 a370 1838 c5b3 10b6 b649 5936
000003f0: 3692 8cb5 018d a737 d46b b5b5 ce64 e537
-0.00507307 -1.6386775e-05 -6.078739e-07 2.6471403e-06 -4.1814696e-05 -1.4837459e-05 -1.14031e-06 -3.4569814e-07
0.00084791664 -1.6690994e-06 3.515443e-05 8.4695785e-06 0.003978023 -5.083362e-08 4.2629385e-05 0.0085788015
-0.00013214246 2.4252857e-05 5.2618157e-07 0.0004361922 -0.0037351083 4.134577e-06 -0.024823766 -0.0039420677
0.0036095239 3.3406897e-05 -0.0045995405 -1.6019135e-07 -9.91127e-06 -1.9526055e-06 2.3052351e-05 -0.0053804605
-0.0013280499 5.789494e-06 -1.2602528e-06 -6.8460317e-06 1.6013112e-06 9.809969e-06 0.0035392551 -3.7690148e-05
-1.8705176e-05 -1.7151127e-05 0.0034204647 3.6630902e-06 -1.5586751e-05 -3.844027e-06 -1.6419153e-06 6.340234e-06
-0.0007042735 2.5875737e-05 -0.008317153 0.00015850803 6.9856e-05 1.4194056e-05 -1.9352776e-06 0.00053917477
-0.00013886554 -1.4322486e-06 1.3625794e-05 -0.0023036916 4.3205964e-05 -2.1930903e-06 -1.5623125e-05 -1.4560674e-06
-6.546806e-05 -0.000105293475 0.008288002 6.226572e-06 5.4795623e-07 -1.3396147e-05 -3.0043798e-06 3.6226298e-05
-9.351086e-07 -3.6584843e-06 1.1954864e-06 -8.1160846e-07 -0.010611171 -1.0503044e-06 1.9273908e-05 -8.13043e-07
2.8881372e-05 -1.7942813e-05 -0.015789008 1.018011e-06 -1.0913285e-05 -0.022568544 -6.42956e-07 3.3089404e-05
-2.6720809e-06 -0.0012349032 1.1652688e-05 3.16005e-07 8.0316386e-07 -4.6686146e-05 -0.0014936924 -4.588155e-06
4.8207614e-05 -0.000365446 -3.1202592e-06 -1.4803516e-06 -5.765011e-05 0.00020851706 2.5715908e-06 0.0006505663
-0.0026889173 -0.002690042 -2.9212647e-06 -1.7138314e-05 -6.127597e-05 -0.0026382683 -2.5460534e-07 2.4692003e-05
1.4690864e-05 2.8418352e-05 7.4056866e-06 -9.821707e-06 -4.8888633e-06 -1.9106733e-06 7.2844305e-06 0.00020321285
0.011086377 -5.304526e-06 -7.611205e-05 -3.7026837e-06 -5.9735656e-05 -9.2977484e-07 -1.1392878e-05 4.9249747e-06
-1.8182738e-05 -8.141571e-06 -1.6840871e-06 3.7284837e-05 -1.9411884e-06 -0.0032847116 -3.6228776e-06 -9.317844e-07
-0.002169706 3.4284098e-05 6.139959e-05 2.271632e-06 5.4410975e-07 4.17263e-06 -1.9721247e-06 1.9176685e-05
-0.00514319 -2.2452503e-05 -2.4626456e-06 -9.251079e-05 -4.8652437e-05 3.1037573e-06 -8.619292e-07 2.0951327e-05
-7.527231e-07 -4.4319358e-07 -5.90137e-06 -2.7271408e-06 3.6052397e-06 -2.7576043e-06 -0.0008753542 -1.8576338e-06
-2.891283e-06 -0.00013174699 6.5224026e-07 -2.8815568e-06 -1.6032703e-06 -1.1149043e-05 7.277336e-05 -0.01377808
-2.9795485e-06 -0.0010612244 -0.0024193362 -0.001583785 0.0026700469 4.093969e-05 -4.6250802e-06 -0.011093405
-5.1882357e-06 2.7358777e-07 -9.37803e-05 -1.4331608e-06 0.006433038 -1.9639112e-06 5.590685e-06 -0.00012218466
-1.0590926e-06 -3.0743055e-07 -0.00030658935 5.9132137e-05 -1.3023885e-06 1.5709285e-05 0.0021521077 1.2623372e-06
-4.0178966e-06 2.2112446e-05 -1.6950466e-06 -0.00017026375 -2.574079e-07 -1.8970455e-06 -1.1405941e-06 -0.0003177695
6.8166646e-06 2.015601e-06 -4.631889e-06 -0.00011739486 -1.1864422e-06 -1.4848661e-05 -6.0130805e-07 -1.4807375e-06
-9.705275e-07 2.4866264e-05 -6.146323e-06 -2.1288186e-06 7.90012e-05 0.00073653634 -3.1593902e-07 -7.1805835e-07
-1.0441626e-06 -0.0065400144 -5.9893577e-05 -1.3396772e-06 6.854517e-06 0.00047953735 1.2096677e-05 -2.6557313e-05
-4.3683434e-05 -1.9232682e-06 4.0406967e-06 -9.790026e-06 2.4976925e-05 4.662122e-06 -1.4482711e-05 -8.18644e-06
2.7151591e-05 0.0006337193 -7.666469e-06 2.6037655e-05 2.491719e-06 0.0057619056 -8.156162e-06 -1.0055619e-05
5.2115684e-05 -8.6901986e-07 1.642962e-06 -1.3601582e-05 2.0493264e-05 0.0020046255 -1.0752277e-05 1.4979921e-06
-4.3250227e-05 3.6344525e-05 -2.1562312e-06 3.2378425e-06 -1.0473366e-06 1.9973611e-05 -1.3516933e-06 2.7345868e-05

fc3.bias f4 [128]
00000000: 64bb 9fbc c435 61bc 8672 a2b1 d246 ebb7
00000010: c704 a7bc 3385 4fbc 9c61 8eb1 9ff2 85bb
00000020: 48e8 74ba 4d2c 0eb0 63b9 2a3f a4e9 91bb
00000030: 48b7 25b8 bf86 14bb c7b8 a4bb 4d5a c8bc
00000040: 7cdb a6bc 7bfd 21b6 aa13 bebb b35e 45ba
00000050: 3b43 36bb 55e0 6ebc c295 88b8 9022 b4bb
00000060: 3066 48bc 8eff a6bb 581a b2b8 09b6 c6ba
00000070: dde1 0fb7 1bcc 8d3e 1998 4fba e956 43b5
00000080: 2988 2ebc a294 a0bc 2b65 08bb 2aef 60ba
00000090: d0c6 beba 15a9 d1b3 1307 81be 0fa5 17bb
000000a0: 03ab 15ba 9251 ffb6 786f c2af f4d4 98bc
000000b0: 162b bdb8 032c 573e ff43 33ae 89e3 9aba
000000c0: ccae 76a8 d2aa 37bc 8c0f 67b8 55bf c2bc
000000d0: 4559 98ba fde0 44b6 ce1f 1bba 3042 2bb6
000000e0: 63e7 5eb9 9035 dab7 b852 f9bc a16f abbe
000000f0: 4ab2 08bd 3a76 9eae f3c7 bcbb 8368 adbc
00000100: cc6e a6ba b065 82ba 720d 68bc 1a89 fbb5
00000110: ee90 4eb6 c322 e5bb 24b8 d0ba 7220 4bbc
00000120: 0bcf 113f 2dae 9fbc e82e d43e 4584 01b9
00000130: 947e efbc ffd2 aabc 6fd9 52bd d781 2ab3
00000140: 47a8 0cbc a5b9 0fbc 1c56 73b9 591c b7bb
00000150: 7157 963c fd71 65bb a94a 59bc 3c63 46ba
00000160: 7c02 29bb 7aec 32b4 da9f d8b7 e49c e7bc
00000170: 5567 c53e 2470 23b5 270b 43be e5e5 abb9
00000180: 869d 36bb 2626 1bba 55a4 5ebc c58f 31b6
00000190: 5992 ddb4 1ae7 363f 29ac 03b5 54a4 7cba
000001a0: bbf1 2a3f c327 59ba 8877 8aba 7f72 1f3f
000001b0: 8675 cebb a5b1 10b8 be76 adb5 726e 05bb
000001c0: 9f25 923e 0dfd ebbc 8b15 09bc 9b2b c8b8
000001d0: c15a b0be 8026 dfbc 53e3 0ab9 8624 b0bc
000001e0: cce1 c5bb 8479 89bc 6585 9ab5 64c0 84b4
000001f0: 2a28 9cbe 252a 2eb9 6593 15bb dd41 82b2
-0.019498535 -0.013745729 -4.7278403e-09 -2.8047161e-05 -0.02038802 -0.0126660345 -4.143841e-09 -0.0040877606
-0.0009342474 -5.1722254e-10 0.6668913 -0.004452901 -3.950976e-05 -0.0022663323 -0.00502691 -0.024457121
-0.02036833 -2.4138415e-06 -0.005800684 -0.0007529065 -0.0027811069 -0.014579852 -6.51288e-05 -0.0054972842
-0.012231395 -0.0050963825 -8.492608e-05 -0.0015160452 -8.576052e-06 0.27694783 -0.00079190877 -7.276963e-07
-0.01065258 -0.019602124 -0.0020812254 -0.000858056 -0.00145551 -9.763077e-08 -0.2520071 -0.0023139154
-0.00057093817 -7.6090882e-06 -3.5367598e-10 -0.018656231 -9.020248e-05 0.21012883 -4.076028e-11 -0.0011817078
-1.3693646e-14 -0.01121016 -5.508917e-05 -0.023772875 -0.0011623284 -2.9337236e-06 -0.000591752 -2.5519512e-06
-0.00021257768 -2.6012567e-05 -0.030434951 -0.33483604 -0.033373155 -7.2060094e-11 -0.0057611405 -0.021168
-0.0012697815 -0.0009948518 -0.014163362 -1.8740859e-06 -3.0780752e-06 -0.0069926693 -0.0015924019 -0.012397872
0.5695655 -0.019492233 0.41442037 -0.00012351673 -0.029235162 -0.020852564 -0.051476892 -3.9699298e-08
-0.008585042 -0.008772288 -0.00023206364 -0.005588096 0.018352242 -0.003501057 -0.013262429 -0.00075678877
-0.0025788834 -1.6663572e-07 -2.5823643e-05 -0.028273053 0.385554 -6.088542e-07 -0.19047223 -0.00032786946
-0.0027864887 -0.00059184653 -0.0135889845 -2.645874e-06 -4.127094e-07 0.71446383 -4.905183e-07 -0.0009637524
0.667751 -0.0008283818 -0.0010564188 0.6228408 -0.006300631 -3.449772e-05 -1.2924063e-06 -0.002036002
0.28544328 -0.028807187 -0.008366953 -9.544865e-05 -0.3444424 -0.027240038 -0.0001324539 -0.02150179
-0.00603888 -0.016781576 -1.1512717e-06 -2.4726899e-07 -0.30499393 -0.00016609633 -0.002282345 -1.5163943e-08

fc4.weight f4 [1, 128]
00000000: 1d85 d3b8 4f55 c73a 980b bc2f 259b 7933
00000010: 1905 943a 0c56 b23a 5ec8 862e 9355 9fba
00000020: b7fb 59b9 e374 652d dc25 fd3e 4101 d4b8
00000030: a328 8d34 d0ea dcb7 af0f cf39 94da 2ebc
00000040: d03f 1c3b 32dc f332 7b02 3cbb 2874 48b6
00000050: 35a9 4038 3693 8e3b cc08 3a35 5093 163b
00000060: f7d9 5a39 8ae7 9bb7 9a6f cd34 f7f4 5bb9
00000070: ee92 0d35 c3d4 de3e 24cb 1cb9 97a4 b0b2
00000080: 17f2 aebb a9ef 143c be1d 8038 a8fd 96b7
00000090: 7f02 1439 1936 8730 3088 cfbe 6abd a1ba
000000a0: 334d 0736 d1e2 bc33 06c4 be2d da77 a53b
000000b0: 3c87 95b7 d283 bc3e b426 37ab 2dc3 3537
000000c0: 6687 f124 051b 353b 25bb 24b6 47e2 223c
000000d0: 4eff 29ba 8c58 3533 5fdb 4bb9 e04c 27b5
000000e0: f058 01b7 22ad 2432 523e 633b 4adc 03bf
000000f0: 2b68 7bbb cc81 e12d 11b4 d439 cf87 823b
00000100: 01ab a337 8dff 48b8 cb0c a5ba 0cd6 a330
00000110: 7991 a932 add3 06bc 59ed 47b9 663e 9aba
00000120: 14c8 343e 7e34 74bc fbd5 cc3e b9ff e235
00000130: dc93 73bc 5e73 883b 1a40 153d 8116 f22f
00000140: e56b 86b9 3982 9ab8 b2b8 aab4 03df 69ba
00000150: 95ad f2be ee28 4eb9 f93a 8fba c621 9238
00000160: 86ed 863a 417f 1e31 34cb 1834 4d4f 9dbc
00000170: a93f 163f da69 15b0 cef8 803e df7b 2936
00000180: 1cb3 3d3a 209c c838 3aac 883b 6d82 0c34
00000190: b651 9731 54e2 ff3e 928e be31 162b b3b8
000001a0: 06fa c43e 5ba7 d0b9 f796 1eb9 8d11 023f
000001b0: 3dd5 e638 b9fd 9a34 76dc a032 9a94 96b8
000001c0: 5291 163f 26a4 7abb 0a7d 0e3a 540a e7b6
000001d0: 0496 e4be 94ab b2b9 6cdd 5235 6b4b b03a
000001e0: 4a82 59bb c9d5 1fbc 0892 7f31 9d50 4831
000001f0: f03f d2be c549 a437 9152 c5ba e3ad a031
-0.00010086058 0.0015207919 3.420524e-10 5.8115933e-08 0.0011293023 0.0013605966 6.129207e-11 -0.001215624
-0.00020788504 1.3043097e-11 0.49442947 -0.00010109181 2.6292864e-07 -2.6335387e-05 0.00039493802 -0.01067223
0.0023841746 2.8389056e-08 -0.0028688002 -2.9869934e-06 4.5933954e-05 0.004351045 6.93032e-07 0.0022975989
0.00020871298 -1.8585259e-05 3.8265426e-07 -0.00020976724 5.2740404e-07 0.435217 -0.00014952995 -2.0563943e-08
-0.005338918 0.009090343 6.1090555e-05 -1.7999511e-05 0.0001411531 9.837918e-10 -0.4053359 -0.0012339775
2.0161503e-06 8.79569e-08 2.1687551e-11 0.005049688 -1.7825158e-05 0.3681932 -6.506837e-13 1.0833884e-05
1.0474646e-16 0.0027634513 -2.4546837e-06 0.009941644 -0.0006484882 4.222288e-08 -0.0001944131 -6.2324216e-07
-7.709707e-06 9.585422e-09 0.0034674597 -0.5150801 -0.003836165 2.563718e-11 0.0004056995 0.003983475
1.9510744e-05 -4.7921716e-05 -0.0012592314 1.1920647e-09 1.9740343e-08 -0.008229178 -0.00019066538 -0.0011767864
0.17654449 -0.014905093 0.40007004 1.6912737e-06 -0.014866795 0.0041641435 0.036438085 4.4035534e-10
-0.0002563886 -7.367548e-05 -3.179935e-07 -0.0008921476 -0.47398058 -0.00019660938 -0.0010927609 6.968113e-05
0.0010294176 2.3064362e-09 1.4230028e-07 -0.019202853 0.5869089 -5.435631e-10 0.25189823 2.5255065e-06
0.0007236467 9.565824e-05 0.0041709216 1.3085965e-07 4.403968e-09 0.49977362 5.545936e-09 -8.5434105e-05
0.38472003 -0.0003979754 -0.00015124293 0.5080803 0.00011006973 2.8869343e-07 1.8726706e-08 -7.1802366e-05
0.5881549 -0.0038244813 0.00054355024 -6.885539e-06 -0.44645703 -0.0003407864 7.855331e-07 0.0013450211
-0.003318923 -0.00975556 3.7190393e-09 2.9149654e-09 -0.41064405 1.9584675e-05 -0.0015054514 4.6763815e-09
