DQN/checkpoint_qn_local.pth (torch, 44447 bytes, 4 tensors)

fc1.weight f4 [256, 37]
0	0xbd16b6f3	-0.036795568
1	0xbc163fea	-0.009170512
2	0xbe71457b	-0.23561661
3	0xbe4c2ee7	-0.19939767
4	0xbd40c4ff	-0.04706287
5	0xbed4da34	-0.41572726
6	0xbc481e7f	-0.012214302
7	0xbdd3073c	-0.10304114
8	0x3d320ac0	0.043467283
9	0x3e9cd08a	0.30627853
10	0x3d27755a	0.0408834
11	0xbd23f464	-0.04002799
12	0xbe445d6a	-0.1917626
13	0xbd554321	-0.052065972
14	0x3dd795e1	0.10526634
15	0x3ddc8b0d	0.10768709
16	0xbebc45f1	-0.3677211
17	0xbe44b633	-0.19210128
18	0xbe578a62	-0.21048883
19	0xba3d6d53	-0.00072260684
20	0xbea48726	-0.3213436
21	0x3e24b19f	0.16083382
22	0xbe7aa3be	-0.24476525
23	0x3d1652fc	0.036700234
24	0xba947dea	-0.0011329029
25	0xbe32c76f	-0.1745889
26	0x3df9a906	0.12190442
27	0xbd08f911	-0.033440653
28	0xbe27e6be	-0.16396615
29	0x3c9c17f1	0.019054385
30	0xbe6cada5	-0.23113115
31	0xbea1b7c5	-0.31585518
32	0x3d5acefe	0.05342006
33	0x3e710a8c	0.2353918
34	0xbe4d22b4	-0.2003277
35	0x3cf98f0c	0.030463718
36	0xbc50ac0c	-0.012736332
37	0x3d598520	0.053105474
38	0x3c9e5311	0.019326719
39	0x3d2f1013	0.04273994
40	0x3daa2546	0.083078906
41	0x3b38eaed	0.0028216199
42	0x3ea0c47a	0.313999
43	0x3de2ccd9	0.11074228
44	0x3d047b33	0.032344054
45	0x3d38e968	0.04514447
46	0xbd9a6dc4	-0.075404674
47	0x3c57b1cb	0.013164948
48	0x3dade4ad	0.08490882
49	0x3dcf7692	0.10130037
50	0x3c9cdd7a	0.019148577
51	0x3cfbdb4d	0.03074422
52	0x3e1251db	0.14289038
53	0x3bd18bf6	0.0063948585
54	0xbd7eb939	-0.06218836
55	0xbe1862fb	-0.14881508
56	0xbe1e95fc	-0.15486902
57	0x3e9537f1	0.29144242
58	0x3c23d29b	0.009998943
59	0xbdb1391b	-0.0865347
60	0xbe112705	-0.14175041
61	0xbeddda58	-0.43330646
62	0x3e895907	0.26825735
63	0xbe2be04c	-0.16784781
64	0xbe51dda5	-0.20494707
65	0xbd342f19	-0.04399023
66	0xbeba3ed2	-0.36376053
67	0x3e477744	0.1947909
68	0x3afa0f58	0.0019078059
69	0x3da0803a	0.07836957
70	0xbb7326c7	-0.003710197
71	0xbe3b8b74	-0.18314916
72	0xbb336709	-0.0027374646
73	0x3b7af5ec	0.0038293554
74	0x3e6501b2	0.22363928
75	0x3d947cf4	0.072503954
76	0x3df39c8a	0.11895092
77	0xbde02f7f	-0.10946559
78	0x3d8dcc95	0.069237866
79	0x3cf67981	0.030087234
80	0x3df0ae54	0.117520005
81	0x3d2df04a	0.042465486
82	0x3a847197	0.0010104653
83	0xbe8df822	-0.27728373
84	0xbe158fee	-0.14605686
85	0x3e708c29	0.23490967
86	0x3a4138ee	0.0007370849
87	0x3d4f3b38	0.050593585
88	0x3e61ce96	0.22051463
89	0x3e46cb93	0.19413595
90	0xbdc6c5a4	-0.09705666
91	0xbcfa6aab	-0.030568441
92	0x3e774d9e	0.24150702
93	0x3a15f702	0.0005720706
94	0x3dd7715a	0.10519667
95	0xbddec567	-0.10877495
96	0x3dad1cc5	0.08452753
97	0x3dde6b77	0.10860341
98	0x3da1e763	0.07905462
99	0x3e2d5bf9	0.16929616
100	0xbd243980	-0.0400939
101	0x3e5b3a3c	0.21408933
102	0xbddb716f	-0.10714995
103	0xbc1b7c2c	-0.009490054
104	0x3e13be92	0.14428166
105	0xbd0c6f09	-0.03428558
106	0x3e181bc8	0.14854348
107	0x3e33b575	0.17549689
108	0xbe16851d	-0.14699216
109	0x3da74005	0.08166508
110	0x3c01ad29	0.00791482
111	0x3de24896	0.11049001
112	0x3c6ae095	0.014335771
113	0x3b5cdda6	0.0033701449
114	0x3c956016	0.018234294
115	0xbe0cabcf	-0.13737415
116	0xbe5e06fd	-0.21682353
117	0x3c75e852	0.015009003
118	0xbd29e836	-0.04148122
119	0x3ded20a4	0.11578491
120	0xbe1bd11b	-0.15216486
121	0xbd4f5e86	-0.050627254
122	0xbd0b7b0d	-0.034052897
123	0x3e5b4fd4	0.21417171
124	0x3dab6b65	0.08370093
125	0xbe91f89e	-0.28509992
126	0x3e03f7f9	0.12887563
127	0xbe34ab2e	-0.17643425
128	0xbe29618b	-0.16541116
129	0x3b99958d	0.0046870173
130	0xbcc2d9a8	-0.023785427
131	0xbd0c3906	-0.03423407
132	0x3e53914d	0.20660897
133	0x3d7e9a92	0.06215913
134	0x3cbc6b93	0.023000514
135	0x3d8fcbac	0.07021269
136	0xbddc589f	-0.10759091
137	0xbd805693	-0.06266513
138	0x3dae0105	0.08496288
139	0xbe0dd9c1	-0.13852598
140	0xbe2fe5af	-0.17177461
141	0x3e07211f	0.13196228
142	0xbe2f883a	-0.1714181
143	0x3dc046ad	0.0938848
144	0x3c971ffa	0.018447865
145	0xbeac1a9a	-0.33614045
146	0xbdfd0f2b	-0.12356409
147	0xbc888249	-0.016663687
148	0x3dfd1f13	0.123594426
149	0x3de913be	0.11380719
150	0xbe150a8f	-0.14554809
151	0x3e5ce7e3	0.21572833
152	0xbc00ad73	-0.0078538535
153	0x3e287bde	0.16453502
154	0x3d8e6b66	0.069540784
155	0x3d92fe48	0.071774065
156	0x3da2cd6b	0.079493366
157	0x3cfb99f9	0.030713068
158	0xbd52cc07	-0.051464107
159	0x3ddbe70f	0.1073743
160	0x3d940f56	0.072294876
161	0xbc64eb97	-0.013972185
162	0xbc54a78f	-0.012979402
163	0xbddba2fd	-0.10724447
164	0x3e683934	0.22678071
165	0x3dba3b2d	0.09093318
166	0x3e2309c9	0.15921701
167	0x3e045bce	0.12925646
168	0xbd769174	-0.06019731
169	0x3d85ea87	0.06538873
170	0xbdb5fcba	-0.088860944
171	0x3e4c1309	0.19929136
172	0xbc9d7eef	-0.019225566
173	0x3e3c2d9d	0.18376775
174	0xbc3b7914	-0.0114424415
175	0xbd0425d0	-0.032262623
176	0xbd2a798a	-0.041619815
177	0xba5e391c	-0.0008477138
178	0xbda64d22	-0.08120181
179	0x3b0f81b2	0.0021897373
180	0x3d0d4cc7	0.03449705
181	0xbd52d160	-0.051469207
182	0xbe819238	-0.2530687
183	0x3e59ff76	0.21288857
184	0x3e2718ad	0.16318007
185	0x3c1abfab	0.009445111
186	0xbe06807a	-0.13134947
187	0x3da7ca7f	0.0819292
188	0x3c4764b1	0.012170003
189	0xbc2caba7	-0.010538972
190	0xbcdbea17	-0.026845021
191	0xbd9785f6	-0.07398598
192	0xbd67efb6	-0.05662509
193	0xbd6bccd4	-0.057568386
194	0x3dcc601c	0.09979269
195	0x3e42643c	0.18983549
196	0xbdca19f6	-0.09868233
197	0xbe685f59	-0.22692622
198	0xbc8757d9	-0.016521381
199	0x3e14ae91	0.14519717
200	0xbe0fceac	-0.14043683
201	0x3e119820	0.14218187
202	0x3db71cf9	0.08941073
203	0xbe60ddbd	-0.21959586
204	0x3d817862	0.06321789
205	0x3d42b14a	0.047532357
206	0xbdb8c65b	-0.09022208
207	0x3db07b5f	0.08617281
208	0xbcd3b498	-0.02584295
209	0x3e368ff8	0.17828357
210	0xbe565331	-0.20930173
211	0x3e56c21a	0.20972481
212	0xbd92c5f6	-0.07166664
213	0xbe004058	-0.12524545
214	0x3d9f49e0	0.077777624
215	0x3aae0618	0.0013276963
216	0xbb034f51	-0.002003629
217	0x3ca794b1	0.020456644
218	0x3e07c0e2	0.13257173
219	0x3d20fd7c	0.03930424
220	0xbd792cb4	-0.060833648
221	0xbdee7d74	-0.11645022
222	0x3d1377cb	0.036002915
223	0xbe77979e	-0.24178931
224	0xbddb3c19	-0.10704822
225	0x3dfc5db9	0.12322564
226	0x3da6e0c2	0.08148338
227	0xbd583b5e	-0.052790992
228	0xbd7c8e95	-0.061659414
229	0x3e3b7b26	0.18308696
230	0x3dceb4a2	0.10093047
231	0xbd12f78d	-0.035880614
232	0x3d2c0539	0.04199717
233	0xbbc282b0	-0.0059359893
234	0x3d92e34c	0.0717226
235	0x3e368b4d	0.17826577
236	0xbe53f94a	-0.20700565
237	0x3e56ce6c	0.20977181
238	0xbb90b485	-0.004416051
239	0x3dbc86e4	0.09205416
240	0x3db1d546	0.08683257
241	0xbe24e537	-0.16103064
242	0x3dd625d5	0.10456435
243	0x3d578547	0.052617338
244	0x3e620713	0.22073011
245	0x3e04b9ca	0.12961498
246	0xbdd04c56	-0.1017081
247	0x3e3a129a	0.18171158
248	0x3e31a501	0.173481
249	0xbe728265	-0.23682554
250	0x3e230680	0.15920448
251	0x3d614069	0.054993067
252	0x3e720b4f	0.23637126
253	0x3dfcd2eb	0.12344917
254	0x3bed5aa7	0.0072434726
255	0x3d220f02	0.039565094

fc1.bias f4 [256]
0	0xbe337ac4	-0.175273
1	0x3e027ed0	0.12743688
2	0x3e82fb42	0.2558232
3	0xbd6f7b85	-0.058467407
4	0xbc67a9f6	-0.014139643
5	0xbdd2a069	-0.10284502
6	0x3e22ccf6	0.15898499
7	0xbb139091	-0.0022516588
8	0xbe014a4a	-0.12625995
9	0xbe10d4ce	-0.14143679
10	0xbe13bace	-0.14426729
11	0x3d956b33	0.07295837
12	0xbd8fc2b1	-0.07019556
13	0x3ca40a62	0.020024482
14	0x3da9c6da	0.08289881
15	0x3e2c3354	0.16816455
16	0xbe166bb3	-0.14689521
17	0x3e1f4f7b	0.15557663
18	0x3e6847d7	0.22683655
19	0x3e8849c0	0.26618767
20	0x3d8d3905	0.06895641
21	0x3cc48374	0.023988463
22	0xbe1d6c64	-0.15373379
23	0xbd92bd59	-0.071650214
24	0xbdd3240f	-0.10309612
25	0xbd4eb044	-0.05046107
26	0x3dee2d49	0.11629731
27	0x3e874614	0.26420653
28	0x3dd73547	0.10508209
29	0xbd14823f	-0.036257025
30	0xbcb2620b	-0.021775266
31	0xbd682611	-0.056676928
32	0xbc25a0d6	-0.010109147
33	0xbcf620f5	-0.030045012
34	0xbbdb6538	-0.006695416
35	0xbd22c197	-0.039735403
36	0x3e01dd91	0.12682177
37	0x3d65e331	0.05612487
38	0x3e3bbae2	0.18333009
39	0x3d24cf1b	0.040236574
40	0xbe15cde4	-0.14629322
41	0xbc0a8151	-0.008453683
42	0x3dabf93e	0.083971485
43	0xbe473504	-0.19453818
44	0x3c3ce92b	0.011530201
45	0x3e3719e1	0.17880966
46	0xbc25239b	-0.01007929
47	0x3dd79cd6	0.10527961
48	0xbe0bdcf0	-0.136585
49	0x3dbb089f	0.09132504
50	0x3da70a2c	0.08156237
51	0x3d230e2b	0.039808434
52	0xbe0f3852	-0.13986328
53	0x3d3f2668	0.046667486
54	0xbde6d3b2	-0.112708464
55	0xbe0a8c32	-0.13530043
56	0x3d818e91	0.063260205
57	0xbccd373f	-0.025050757
58	0x3d927f7d	0.07153223
59	0x3d644067	0.05572548
60	0x3e816636	0.25273293
61	0xbe092c9a	-0.1339592
62	0x3de591c7	0.112094454
63	0x3e0a0822	0.13479665
64	0x3d3b52a0	0.045733094
65	0xbd4cdaa7	-0.05001321
66	0x3ddac629	0.10682327
67	0x3dccb633	0.09995689
68	0x3acd6e9c	0.0015673223
69	0xbd117832	-0.035515018
70	0xbd235046	-0.039871477
71	0x3e3c0c00	0.18363953
72	0x3d2643da	0.040592052
73	0xbc606493	-0.013695854
74	0x3d286c1b	0.041118722
75	0xbd893e3d	-0.06701324
76	0x3dbe44bf	0.09290456
77	0x3cbeef6c	0.023307525
78	0x3d6e1d94	0.058133677
79	0xbc091fac	-0.008369368
80	0x3c12e09f	0.008964687
81	0x3e191885	0.1495076
82	0x3d264c2b	0.040599983
83	0x3e40d817	0.18832432
84	0x3e0edb33	0.13950805
85	0x3dc9d5d7	0.0985524
86	0x3ac7a53d	0.001523174
87	0xbdbc6f59	-0.092009254
88	0x3da7e271	0.08197487
89	0x3e017236	0.12641224
90	0xbd8652dd	-0.06558774
91	0x3d8bd95a	0.06828566
92	0x3e060fae	0.13091919
93	0xbc995741	-0.018718364
94	0x3d50f0ba	0.051010825
95	0x3e0ed13d	0.13947006
96	0x3ca6e446	0.020372521
97	0xbd6d01aa	-0.057862915
98	0xbdfb1664	-0.1226013
99	0x3db391c4	0.08768037
100	0xbd05f93d	-0.032708395
101	0x3ce77b46	0.028257024
102	0xbddc8a16	-0.10768525
103	0x3b5653a1	0.0032703655
104	0xbd9cdf9c	-0.076598376
105	0xbb8b45a0	-0.0042502433
106	0xbd9a18d7	-0.07524269
107	0xbdffe1c7	-0.124942355
108	0x3d697655	0.056997616
109	0x3dd18afb	0.102315865
110	0xbdcb48c9	-0.09925992
111	0xbdc11ed9	-0.09429712
112	0x3e0c053c	0.13673872
113	0xbcc2af7f	-0.023765324
114	0x3e40be60	0.18822622
115	0xbd104bfd	-0.035228718
116	0x3c632425	0.013863598
117	0x3dbfa399	0.09357376
118	0xbe555f9f	-0.20837258
119	0x3d5491bf	0.051896807
120	0xbe09ca85	-0.13456161
121	0xbd599ad7	-0.053126182
122	0x3bdb060e	0.0066840714
123	0x3e1b49fd	0.15164943
124	0xbdd28137	-0.10278552
125	0xbb997214	-0.0046827886
126	0xbd047ce9	-0.032345686
127	0xbdf1b9fb	-0.11803051
128	0xbc8d49af	-0.01724705
129	0x3dacbe7b	0.08434769
130	0xbdaa83d5	-0.08325926
131	0xbd75a5bd	-0.059972513
132	0x3e18ba0c	0.14914721
133	0xbd51b4ac	-0.051197693
134	0xbd751995	-0.05983885
135	0x3e08e220	0.1336751
136	0xbda3feae	-0.08007561
137	0xbdba5c38	-0.090996206
138	0xbd9830e7	-0.074312024
139	0xbd9ce2e1	-0.07660461
140	0x3e17d395	0.14826806
141	0xbdba8d4f	-0.09108984
142	0xbd0dbfa0	-0.034606576
143	0x3e748e0c	0.23882312
144	0xbcecd8da	-0.028911997
145	0x3e39e046	0.1815196
146	0x3dfefeb9	0.12450928
147	0xbdaeaaa2	-0.085286394
148	0x3d7d6f5f	0.06187379
149	0xbdd310f1	-0.10305966
150	0x3def61dd	0.11688588
151	0xbdf28721	-0.1184218
152	0x3d5213ac	0.05128829
153	0xbc6bc02e	-0.014389081
154	0xbe1a92d5	-0.15095074
155	0xbdef03dd	-0.11670659
156	0x3e225648	0.15853226
157	0xbdf160c7	-0.11786037
158	0x3d9902a0	0.07471204
159	0x3de29fbd	0.11065624
160	0xbe08d526	-0.1336256
161	0x3e336a72	0.17521074
162	0x3e285536	0.16438755
163	0xbda379b8	-0.079822004
164	0x3c11d4e4	0.008900855
165	0xbcd5f03c	-0.02611553
166	0xbded1a37	-0.11577266
167	0x3df8980f	0.12138378
168	0x3c8a12ad	0.016854608
169	0x3d81ecd5	0.06344
170	0x3e9e1b85	0.3088037
171	0x3d4333bd	0.047656763
172	0x3c8d67f8	0.01726149
173	0xbddd301f	-0.10800194
174	0xbe0e6e51	-0.1390927
175	0xbdaa5dce	-0.08318673
176	0xbddab386	-0.10678773
177	0x3df64963	0.12025716
178	0xbdf48374	-0.11939135
179	0x3cb1e5f6	0.0217161
180	0x3dbc2e62	0.09188534
181	0xbd95ade4	-0.07308558
182	0xbd68ce1f	-0.056837197
183	0xbe2d00da	-0.16894856
184	0x3e0c2c99	0.13688888
185	0xbe2b28d4	-0.16714793
186	0x3e0230a3	0.12713866
187	0x3a688248	0.0008869511
188	0xbd33480c	-0.04376988
189	0xbcfbc4c2	-0.03073347
190	0xbe0e8e4a	-0.13921466
191	0xbd7f7a0e	-0.06237226
192	0x3e1ddbdf	0.15415905
193	0x3e5c0152	0.21484879
194	0x3dc1b2c9	0.09457929
195	0xbd96762c	-0.07346758
196	0xbdc28fae	-0.09500061
197	0x3d9e7a85	0.077382125
198	0xbe40ef52	-0.18841293
199	0xbdcd659e	-0.100291476
200	0xbe394a7c	-0.1809482
201	0x3e7c225f	0.24622487
202	0x3dd44540	0.10364771
203	0xbda6e70d	-0.08149538
204	0xbd84f5f8	-0.06492227
205	0x3ddd57c7	0.10807758
206	0x3db17a81	0.08665944
207	0x3c8a0457	0.016847773
208	0x3da978a9	0.08274967
209	0x3cdfa7b9	0.027301656
210	0xbd929573	-0.071574114
211	0x3b986739	0.004650977
212	0x3d8a63c9	0.06757314
213	0xbb648818	-0.0034871157
214	0x3d2e0c02	0.04249192
215	0xbe063fac	-0.13110226
216	0xbe40e87a	-0.18838683
217	0xbdb81d1e	-0.08989929
218	0x3d838c57	0.06423252
219	0xbda039e1	-0.078235395
220	0x3d448b96	0.047984682
221	0xbda2c18c	-0.079470724
222	0x3db07f2b	0.08618005
223	0xbdfe4579	-0.124155946
224	0x3e2d786f	0.16940473
225	0xbe2f7f80	-0.17138481
226	0xbc957c83	-0.018247848
227	0xbd879fdb	-0.06622287
228	0x3d74082a	0.0595781
229	0xbd527881	-0.051384453
230	0xbe03a6c4	-0.12856585
231	0xbd664d80	-0.056226254
232	0xbda579d2	-0.08079876
233	0x3e301a27	0.17197476
234	0x3debcfc9	0.11514241
235	0x3e0a31db	0.13495581
236	0xbd3b015c	-0.045655593
237	0xbd313b12	-0.043269224
238	0xbd012f13	-0.031539034
239	0xbc353adf	-0.011061399
240	0x3ba5f61e	0.00506474
241	0x3e3bd605	0.1834336
242	0xbbcf035d	-0.0063175396
243	0xbd25f525	-0.04051699
244	0x3de3b108	0.111177504
245	0x3e2175bc	0.15767568
246	0xbe0bdfc3	-0.13659577
247	0xbd210bd8	-0.039317936
248	0x3d8ad30c	0.06778535
249	0x3d3314b6	0.043720923
250	0xbda11d26	-0.07866888
251	0xbd545d28	-0.051846653
252	0x3d9ffddd	0.078120925
253	0xbe197ce0	-0.14989042
254	0x3d1da06d	0.038483072
255	0x3d5100ec	0.05102627

fc2.weight f4 [4, 256]
0	0x3ded43cb	0.11585196
1	0x3e1a6795	0.15078576
2	0x3e25423c	0.16138548
3	0x3bb2204c	0.005435979
4	0xbc23a8b7	-0.009988955
5	0xbd151da2	-0.036405213
6	0x3d67fc4b	0.05663709
7	0xbd01a09b	-0.031647306
8	0x3d553b42	0.052058466
9	0xbdff82af	-0.12476098
10	0xbcecea46	-0.028920304
11	0x3d1a0c36	0.0376093
12	0x3d561921	0.05227006
13	0x3e7c88f7	0.24661623
14	0xbda84b6d	-0.08217511
15	0xbe4e6c3f	-0.2015848
16	0x3d1d9344	0.03847052
17	0x3d1deb47	0.038554456
18	0x3e126baa	0.14298883
19	0x3dd3a6a0	0.103345156
20	0xbc1403cc	-0.009034108
21	0x3dc00ba1	0.09377218
22	0xbd675221	-0.05647481
23	0xbd92195f	-0.071337454
24	0xbcc35c51	-0.02384773
25	0x3be9b19d	0.007131769
26	0x3c583701	0.013196708
27	0x3d932f42	0.07186748
28	0x3d860266	0.06543426
29	0xbd9178c2	-0.07103111
30	0xbd25539f	-0.04036295
31	0xbd155146	-0.03645446
32	0x3dd9053b	0.10596701
33	0x3df6a7f2	0.12043752
34	0x3da0c906	0.07850842
35	0xbc54faa7	-0.012999213
36	0x3cd3050b	0.02575924
37	0xbc9da64d	-0.019244337
38	0x3bcc6930	0.0062381253
39	0x3be65f08	0.0070303716
40	0xbc7b9635	-0.015355636
41	0x3cc88625	0.024478028
42	0xbd272c86	-0.040813945
43	0xbd067bdb	-0.03283296
44	0x3d42e402	0.047580726
45	0x3c8ab95a	0.016934086
46	0x3d1b8585	0.03796913
47	0xbc80b610	-0.015711814
48	0xbb42b1b7	-0.0029707977
49	0x3da55200	0.08072281
50	0x3d214ca9	0.03937975
51	0x3d318dca	0.04334811
52	0x3cce9e2c	0.025221907
53	0xbd2ee07b	-0.04269455
54	0xbd12821b	-0.03576861
55	0xbdd5dbed	-0.10442338
56	0xbd0aa691	-0.033850256
57	0x3cda2c54	0.026632465
58	0x3d9cf2fd	0.07663534
59	0x3ba631a6	0.0050718365
60	0x3e0f8c38	0.14018333
61	0x3cc57d54	0.024107613
62	0x3d3f58fd	0.046715725
63	0x3c23626d	0.009972197
64	0x3be53c85	0.00699574
65	0x3c814ab7	0.015782697
66	0x3d829744	0.06376508
67	0x3e0b1b1d	0.13584562
68	0xbd6c89e2	-0.057748683
69	0x3d91b9b4	0.07115498
70	0xbe9362a2	-0.28786188
71	0x3d02dacd	0.031946946
72	0x3cc3d148	0.023903504
73	0x3d86a0a1	0.06573606
74	0xbc723376	-0.014782777
75	0xbd9115ba	-0.07084222
76	0x3ccb2841	0.024799468
77	0xba77eaf7	-0.0009457315
78	0x3d0fce4e	0.035108857
79	0xbaeb5650	-0.00179548
80	0x3caf10ec	0.021370374
81	0x3d918211	0.07104886
82	0xbc0eae90	-0.008708611
83	0x3d098283	0.03357173
84	0x3da3b662	0.07993771
85	0x3d94a9ab	0.07258924
86	0x3e032ea5	0.12810762
87	0x3e0c9241	0.13727666
88	0xbd834bb4	-0.064109236
89	0x3ded5362	0.1158817
90	0xbdbb7f3c	-0.091551274
91	0x3d6f0069	0.05835
92	0x3da7f615	0.08201233
93	0x3cd1f643	0.025630122
94	0x3b6d6190	0.0036221482
95	0x3ba9749a	0.0051713707
96	0x3d34dc5a	0.044155456
97	0xbcc8cb78	-0.024511084
98	0xbcd42e25	-0.02590091
99	0xbd8fc685	-0.070202865
100	0xbce2133f	-0.027597068
101	0x3c00fce7	0.007872797
102	0x3e0cc36d	0.13746424
103	0xbbdde263	-0.006771372
104	0x3c841520	0.016123354
105	0xbd5d2edd	-0.05399977
106	0xbc05d0c3	-0.008167448
107	0x3e6ba83f	0.230134
108	0x3dbf8558	0.09351605
109	0x3c3984fd	0.011323211
110	0xbc2dfcd8	-0.010619365
111	0x3d09d983	0.0336547
112	0x3d10e986	0.035378955
113	0x3d54dab9	0.051966403
114	0x3d7dc318	0.061953634
115	0x3cefde4e	0.029280808
116	0x3b731e63	0.003709697
117	0xbd155c5c	-0.036465034
118	0xbe677451	-0.22602965
119	0xbd26d95a	-0.040734626
120	0x3ccdb73f	0.025111793
121	0xbc30e171	-0.010795937
122	0xbcd7a068	-0.026321605
123	0x3e30e6ce	0.17275545
124	0x3ec1b648	0.37834382
125	0xbc6686f1	-0.0140702585
126	0xbd37f076	-0.044907056
127	0xbd02322d	-0.031786133
128	0x3c554923	0.013017925
129	0x3e344d64	0.17607647
130	0x3ea08b29	0.3135617
131	0x3f3731f1	0.7156058
132	0x3c3b3d40	0.011428177
133	0xbdafadd8	-0.0857808
134	0x3b31a7a9	0.002710799
135	0x3c66998f	0.014074697
136	0x3e659ba7	0.22422658
137	0xbcd2dd14	-0.025740184
138	0x3d91103f	0.07083177
139	0x3d9f3b60	0.07774997
140	0x3e8f863f	0.2803211
141	0xbe760174	-0.24023992
142	0x3d42c60d	0.047552157
143	0x3def5012	0.11685194
144	0xb99abc2b	-0.00029513365
145	0x3d6fff57	0.05859312
146	0x3ba22524	0.004948275
147	0xbd6ccf20	-0.057814717
148	0x3dbb2983	0.09138777
149	0xbe01928d	-0.12653561
150	0x3e96d2af	0.29457614
151	0x3d32ebc8	0.04368189
152	0x3d4e2935	0.050332267
153	0xbd6e110d	-0.05812173
154	0xbd84f42e	-0.06491886
155	0xbd88a0d1	-0.06671298
156	0x3d8a0d1c	0.06740782
157	0x3ec989d5	0.3936297
158	0x3c8a842d	0.01690873
159	0x3cf68034	0.030090429
160	0x3d849daf	0.06475388
161	0xbce0f51c	-0.027460627
162	0xbd18b34a	-0.03728036
163	0xbd620182	-0.05517722
164	0xbcf27c43	-0.029600268
165	0xbcac4106	-0.0210271
166	0xbdaa41b4	-0.08313313
167	0xbba83ebe	-0.0051344326
168	0xbd3d482c	-0.046211407
169	0xbc6ee939	-0.014581972
170	0x3dd07b2f	0.101797454
171	0x3d9a79d9	0.07542772
172	0x3eaecdaa	0.34141284
173	0x3d9943cc	0.07483634
174	0xbcd2aafe	-0.025716301
175	0x3d1dae52	0.038496323
176	0xbd928abb	-0.07155367
177	0xbe85cf45	-0.26134697
178	0x3b5aeda0	0.0033405796
179	0x3ddb81c7	0.107181124
180	0x3d0afd7f	0.03393316
181	0x3d266cf5	0.040631253
182	0xbd1aa386	-0.037753604
183	0xbbe64bbe	-0.007028072
184	0x3e14ede1	0.14543869
185	0xbda8c91f	-0.08241486
186	0x3e1a7ad9	0.15085925
187	0x3ca892dc	0.02057784
188	0xbcb1ca73	-0.02170298
189	0x3c0c8756	0.0085771885
190	0x3c2d4e21	0.010577709
191	0xbbe37771	-0.0069417288
192	0x3d517bb2	0.051143356
193	0x3d05af9b	0.032638174
194	0x3dff39f3	0.12462225
195	0xbc0bef2c	-0.00854091
196	0x3d065f4f	0.032805737
197	0x3d0ccc3c	0.03437446
198	0xbe205b46	-0.15659818
199	0x3dbe1d84	0.092829734
200	0xbae72023	-0.0017633479
201	0x3da87ea7	0.08227282
202	0x3d501217	0.0507985
203	0x3daccc57	0.08437412
204	0x3cdee0ca	0.027206797
205	0xbc84a52e	-0.016192045
206	0xbb0029ac	-0.0019556088
207	0x3dcaeabf	0.099080555
208	0x3d6442d7	0.055727806
209	0x3c6788ae	0.014131708
210	0xbde64c1b	-0.11244985
211	0xbcde0006	-0.02709962
212	0xbca89bb2	-0.020582054
213	0x3ce3f195	0.027825156
214	0xbd1322e7	-0.035921957
215	0xbd37cd41	-0.04487348
216	0xbddf284f	-0.1089636
217	0x3e21f635	0.15816577
218	0x3c7d2d23	0.015452656
219	0x3ba6d554	0.0050913487
220	0x3d159f3d	0.036528815
221	0xbd8612ae	-0.065465316
222	0x3a8891ad	0.0010419391
223	0xbecd81fd	-0.40138236
224	0x3c82813b	0.015930763
225	0x3db1400a	0.086547926
226	0xbcc0f320	-0.023553431
227	0xbca0b535	-0.019617656
228	0x3e1f6a6d	0.15567942
229	0x3bd0aff5	0.006368632
230	0x3df7fba5	0.12108544
231	0x3ce4aba5	0.027913878
232	0x3d8ba50e	0.06818591
233	0x3b3560a7	0.0027676017
234	0x3db749a1	0.089495905
235	0x3d85aaca	0.06526716
236	0x3cd805ec	0.026370011
237	0xbdbc92f4	-0.092077166
238	0x3d981216	0.074253246
239	0xbca9976b	-0.020702085
240	0xbd7bf4f3	-0.0615129
241	0xbc92b4de	-0.01790851
242	0xbe81ef73	-0.25377998
243	0xbe7f4642	-0.24929145
244	0xbcb5d1a2	-0.022194687
245	0x3d1c29a5	0.038125653
246	0xbd30e31c	-0.04318534
247	0x3d25484e	0.04035216
248	0x3ca9b83a	0.020717729
249	0x3d930825	0.07179288
250	0xbd77b36a	-0.060473837
251	0xbd339893	-0.043846678
252	0x3d322d4b	0.043500226
253	0x3d7f73c4	0.062366262
254	0xbd315acd	-0.043299485
255	0x3cb31b1b	0.02186351

fc2.bias f4 [4]
0	0x3e14d18b	0.1453306
1	0x3da352fe	0.07974814
2	0x3dd6056d	0.10450254
3	0x3e249ad4	0.16074687
