DQN/checkpoint_qn_target.pth (torch, 44447 bytes, 4 tensors)

fc1.weight f4 [256, 37]
000000 eb 07 22 bd e7 79 0b bc 04 8b 70 be 65 12 48 be
       -0.039558332 -0.0085129505 -0.2349053 -0.19538267
000010 1b 02 48 bd dc 56 d5 be 66 28 60 bc 2f b5 d2 bd
       -0.048830133 -0.4166783 -0.013681507 -0.10288464
000020 95 b0 3a 3d 94 60 9b 3e df 14 20 3d dc 88 15 bd
       0.045578558 0.3034712 0.039082404 -0.036507472
000030 98 96 46 be a0 fa 5b bd 94 63 d8 3d d2 99 da 3d
       -0.19393384 -0.05370581 0.10565868 0.1067387
000040 9d 9b bc be 51 7e 43 be ee 9d 56 be 84 4e 67 bb
       -0.36837474 -0.19091155 -0.20958683 -0.0035294602
000050 06 f9 a1 be c4 1c 20 3e 50 3b 7a be 11 e4 23 3d
       -0.31635302 0.15635973 -0.24436688 0.040012423
000060 33 71 8d bb a9 5f 32 be e6 ba f5 3d 5b 15 ff bc
       -0.004316473 -0.17419304 0.11998539 -0.031138113
000070 a7 69 2a be 63 a8 88 3c 84 82 75 be 2f 55 a1 be
       -0.16641866 0.016681856 -0.23975569 -0.31510302
000080 35 10 55 3d 24 c7 74 3e 56 c3 52 be 77 f5 e5 3c
       0.05201741 0.23904091 -0.20582327 0.028071148
000090 49 f8 37 bc 9f 74 4f 3d 94 90 9d 3c 2c 21 34 3d
       -0.011228629 0.050648328 0.01923398 0.043976948
0000a0 13 0a ae 3d e9 9b 51 3b 58 2d a0 3e d9 08 e5 3d
       0.08498015 0.0031983799 0.31284595 0.11183328
0000b0 d9 3d 06 3d 4d 08 3c 3d e4 85 9a bd 2f ac 53 3c
       0.032773826 0.045906354 -0.07545069 0.01291947
0000c0 98 af ad 3d fc 0b cf 3d fb 95 a6 3c 99 57 04 3d
       0.084807575 0.10109708 0.020335188 0.032310102
0000d0 37 3e 12 3e c1 8a 9f 3b 33 7d 79 bd f5 d9 17 be
       0.14281546 0.0048688357 -0.060910415 -0.14829238
0000e0 b0 f7 1f be 1d 38 95 3e 8c 57 16 3c 6a 08 ae bd
       -0.15621829 0.29144374 0.009176146 -0.084976986
0000f0 a9 e8 11 be d5 14 dd be f8 72 89 3e a0 23 2d be
       -0.14248909 -0.43179956 0.26845527 -0.16908121
000100 c5 a2 50 be 14 f2 34 bd 7f 44 ba be 56 b0 46 3e
       -0.20374592 -0.044176176 -0.36380383 0.19403204
000110 9d 4d 1a 3b 60 aa a3 3d 6a 3d 9f bb b7 82 3a be
       0.0023544796 0.07991481 -0.004859616 -0.18213926
000120 51 e7 58 bb 94 67 73 3b b6 0d 64 3e b7 10 94 3d
       -0.003309686 0.0037140595 0.22270855 0.072297506
000130 b2 9d f1 3d 3a 16 df bd ca 65 8d 3d b7 31 f6 3c
       0.11797656 -0.10892911 0.0690418 0.030053003
000140 07 0f f0 3d b0 21 29 3d a5 23 d7 38 a2 9c 8d be
       0.11721616 0.041291893 0.00010258638 -0.27658564
000150 d0 2c 15 be e0 f7 6f 3e de ef bd 39 5d 92 47 3d
       -0.14567876 0.234344 0.00036227604 0.048723567
000160 e2 b8 61 3e ee d7 45 3e 8f 16 c7 bd 07 81 f8 bc
       0.22043183 0.19320652 -0.097210996 -0.030334963
000170 a6 fa 75 3e 42 1c 96 3a b6 f8 d5 3d 4d 6e e0 bd
       0.24021396 0.0011452513 0.104478285 -0.10958538
000180 15 2f ae 3d 64 66 dc 3d d6 c1 a1 3d 8c 4c 2c 3e
       0.08505074 0.10761717 0.078982994 0.16826075
000190 54 e7 26 bd 15 0c 5a 3e df a0 d7 bd c6 8e 1f bc
       -0.040747955 0.21293671 -0.105287306 -0.00973863
0001a0 a6 a7 12 3e 75 d0 07 bd 04 2c 17 3e 21 8f 32 3e
       0.14321765 -0.033157784 0.14762884 0.17437412
0001b0 95 86 15 be b7 d1 a4 3d 1c 96 f1 3b a9 68 e4 3d
       -0.1460212 0.080478124 0.0073726308 0.11152775
0001c0 ac 62 60 3c 73 37 e6 b7 67 f6 b4 3c 38 d2 0e be
       0.0136954 -2.7443957e-05 0.02209015 -0.1394738
0001d0 57 cb 5d be 29 ec 2c 3c 0a e7 26 bd f3 bc f4 3d
       -0.21659599 0.010554352 -0.04074768 0.11950102
0001e0 8c 2a 1c be 15 ed 46 bd ec aa 0a bd 34 82 5b 3e
       -0.15250605 -0.048565943 -0.03385441 0.21436387
0001f0 63 1a a8 3d 7e e8 90 be 8c b2 02 3e eb 4c 39 be
       0.08208158 -0.28302377 0.12763423 -0.18095748
000200 1a cb 27 be 82 b2 1a 3c 02 9a d5 bc 46 70 09 bd
       -0.16386071 0.009441974 -0.026074413 -0.033554338
000210 35 f5 52 3e fe b3 7c 3d 02 c8 d7 3c f5 2e 91 3d
       0.20601352 0.06169509 0.026340488 0.070890345
000220 18 c7 e3 bd c9 86 87 bd c2 d6 b1 3d 00 cd 08 be
       -0.111219585 -0.06617505 0.0868354 -0.13359451
000230 a6 25 2c be f1 e6 06 3e d8 88 2e be 64 3f bf 3d
       -0.16811237 0.13174035 -0.17044389 0.09338263
000240 df 8e a8 3c 53 37 ab be 41 c7 00 be 8b 74 6a bc
       0.020575939 -0.33440647 -0.1257601 -0.014310013
000250 22 24 f9 3d 38 2b e9 3d 9b 79 17 be c5 70 5f 3e
       0.12165095 0.113851964 -0.14792483 0.21820362
000260 aa aa 04 bc 1a 41 27 3e 8f cb 8d 3d c6 2e 91 3d
       -0.00809733 0.16333428 0.06923591 0.070889995
000270 1d e7 a2 3d 4f a0 ee 3c 11 be 5b bd 52 a9 db 3d
       0.079542376 0.029129175 -0.05364806 0.10725655
000280 54 5b 95 3d bb b8 75 bc f4 68 54 bc 70 ba df bd
       0.0729281 -0.014997656 -0.012964476 -0.10924232
000290 d4 bf 68 3e 11 bf ba 3d 2e 69 21 3e 9c c5 05 3e
       0.22729427 0.09118474 0.15762779 0.13063663
0002a0 2b 5a 78 bd 53 99 84 3d 54 7b b8 bd de f2 4b 3e
       -0.060632866 0.06474557 -0.09007898 0.19916865
0002b0 37 dd 9f bc 5e 9c 3d 3e bb fe 32 bc fa bc 0e bd
       -0.019514663 0.1851668 -0.01092499 -0.03484819
0002c0 76 8e 33 bd aa 73 d0 b9 78 1c a6 bd 9c 14 c4 39
       -0.043837033 -0.00039759028 -0.08110899 0.00037399388
0002d0 53 5b 0a 3d 9e 76 50 bd 12 36 82 be bc 7c 58 3e
       0.0337785 -0.050894372 -0.25431877 0.21141332
0002e0 03 55 27 3e 18 0e 1a 3c 5a bc 06 be c6 9d a7 3d
       0.16341023 0.009402774 -0.13157788 0.0818439
0002f0 ff 28 32 3c 87 d7 28 bc 26 0a c6 bc 79 b4 99 bd
       0.010874032 -0.010305292 -0.024174761 -0.075051256
000300 cb 3b 67 bd 5a 2d 7a bd 55 78 cc 3d 42 f7 40 3e
       -0.056453507 -0.061078407 0.09983889 0.18844321
000310 ca cf cd bd 39 58 66 be f6 70 83 bc 95 a1 16 3e
       -0.10049398 -0.22494592 -0.016045075 0.14710076
000320 28 48 0f be c1 a7 11 3e 9c 2d b5 3d c8 3f 62 be
       -0.13992369 0.1422415 0.0884659 -0.22094643
000330 53 af 81 3d 21 85 44 3d e9 77 ba bd 8a b2 ae 3d
       0.063322686 0.047978524 -0.09104902 0.085301474
000340 df 98 d3 bc 04 03 37 3e 74 8c 58 be 83 a1 56 3e
       -0.02582973 0.17872244 -0.21147329 0.2096005
000350 6c cf 92 bd f5 56 fe bd 57 fd 9e 3d 40 46 c3 39
       -0.07168469 -0.124189295 0.077631645 0.0003724564
000360 9b 2c 4a bb f4 4c be 3c cc c8 04 3e ba d7 25 3d
       -0.003084934 0.023230053 0.12967223 0.040488936
000370 b6 e2 7a bd 7c 93 ee bd 37 68 12 3d d5 d4 76 be
       -0.061251365 -0.11649224 0.03574392 -0.24104626
000380 6d a0 de bd 53 af fb 3d ec 0b a6 3d c8 87 55 bd
       -0.108704425 0.122893 0.08107743 -0.052131444
000390 50 57 7b bd c6 5b 3a 3e e3 3f ca 3d a3 63 0f bd
       -0.061362565 0.18199071 0.09875467 -0.03500713
0003a0 79 72 24 3d d6 d7 8f bb 3e b4 90 3d 23 6d 36 3e
       0.040148232 -0.0043897433 0.070656285 0.1781507
0003b0 81 3c 53 be f2 d1 55 3e 2c 29 81 bb 09 b1 ba 3d
       -0.20628549 0.20880869 -0.0039416756 0.09115798
0003c0 50 92 b1 3d ae 6b 24 be d8 46 d5 3d b9 e2 55 3d
       0.08670485 -0.16056702 0.10413903 0.052218173
0003d0 9b af 61 3e c1 3e 04 3e 0c 84 cd bd 49 6f 38 3e
       0.22039644 0.12914564 -0.100349516 0.18011202
0003e0 bb 17 32 3e 45 7a 73 be 18 3a 24 3e 5e dc 63 3d
       0.17391865 -0.23777111 0.16037786 0.05563008
0003f0 12 74 71 3e 5c 9c fa 3d bf 84 df 3b 80 eb 25 3d
       0.23579434 0.122368544 0.0068212445 0.040507793

fc1.bias f4 [256]
000000 02 f9 33 be 55 8f 02 3e 65 93 82 3e a8 52 6d bd
       -0.17575458 0.1274999 0.25503078 -0.057940155
000010 5c d0 7a bc 2e fc d3 bd bf 10 22 3e f1 cb 26 bb
       -0.015308466 -0.10350834 0.158267 -0.0025451148
000020 47 25 01 be 2b 1c 11 be da 9b 12 be f1 63 94 3d
       -0.12611876 -0.14170901 -0.14317265 0.07245625
000030 3a 28 90 bd 3e f1 ab 3c f7 2a ac 3d 0f 00 2d 3e
       -0.070389226 0.020989057 0.084066324 0.16894554
000040 54 80 16 be 7f 89 1e 3e e2 c8 67 3e a1 8b 87 3e
       -0.14697391 0.15482138 0.22635224 0.26473716
000050 bc b1 8c 3d 92 44 bf 3c 30 8f 1c be 0b a1 91 bd
       0.06869838 0.023348127 -0.15288997 -0.07110795
000060 85 bb d4 bd dd cb 4d bd 4d e1 ee 3d 58 72 87 3e
       -0.10387329 -0.050243247 0.116640665 0.26454425
000070 06 df d5 3d 15 60 14 bd ca 70 b8 bc 2e 34 6a bd
       0.10442929 -0.036224443 -0.02251472 -0.05717867
000080 10 59 44 bc 58 33 f9 bc 2b 84 e9 bb 69 8f 22 bd
       -0.011984125 -0.03041999 -0.0071263514 -0.039687548
000090 46 4e 01 3e 35 a6 63 3d 18 f6 3b 3e 3d f5 20 3d
       0.12627515 0.05557843 0.18355596 0.039296377
0000a0 be 5b 15 be ef 51 08 bc ad e9 ac 3d 08 35 47 be
       -0.14585778 -0.008320316 0.084430076 -0.19453824
0000b0 ed bf 34 3c ce 18 36 3e 69 77 2c bc 90 a6 d7 3d
       0.011032087 0.177829 -0.0105265165 0.10529816
0000c0 bc 9e 0a be c1 f4 b9 3d 4d 3b a6 3d dc cd 20 3d
       -0.13537115 0.09079886 0.081167795 0.039258823
0000d0 c5 37 0e be 83 06 47 3d e1 91 e4 bd 32 ab 0a be
       -0.13888462 0.048590194 -0.11160637 -0.13541868
0000e0 ee 48 81 3d 5d 1d cd bc 36 06 93 3d b9 ee 64 3d
       0.06312738 -0.025038416 0.07178919 0.055891726
0000f0 42 c6 80 3e 77 39 09 be 8e fd e3 3d 92 e2 08 3e
       0.2515126 -0.13400827 0.11132346 0.1336768
000100 49 69 3b 3d 1d be 4e bd a7 09 d9 3d 55 5c cb 3d
       0.045754705 -0.050474275 0.10597544 0.0992972
000110 58 a9 1b 3b 45 7a 12 bd ac 7c 21 bd ab 8c 3c 3e
       0.002375206 -0.035761137 -0.039425537 0.18413036
000120 b5 34 27 3d 3f db 61 bc 13 a1 27 3d 80 45 89 bd
       0.04082175 -0.0137851825 0.040925097 -0.06702709
000130 99 71 bd 3d 9c 10 c1 3c 92 38 71 3d 1d 32 f9 bb
       0.09250183 0.02356749 0.05889184 -0.007604851
000140 8d e8 13 3c 69 d5 18 3e ec d1 29 3d 2f da 3f 3e
       0.009027612 0.1492516 0.041459963 0.18735574
000150 3b e9 0d 3e bd 08 cb 3d 23 00 ff 39 72 14 bd bd
       0.13858502 0.09913776 0.00048637492 -0.09232415
000160 73 f2 a7 3d ab ac 00 3e 37 f0 85 bd 3f 19 89 3d
       0.082005404 0.12565868 -0.06539958 0.066942684
000170 b1 5f 05 3e 85 b7 98 bc 97 1c 53 3d 72 61 0e 3e
       0.13024785 -0.018642196 0.051540937 0.1390436
000180 17 9d a5 3c 08 36 71 bd 40 e3 f8 bd 3a 3f b4 3d
       0.020216508 -0.05888942 -0.121527195 0.08801122
000190 60 9e 08 bd ab 70 e4 3c 4f 5b da bd fa 3e 55 3b
       -0.033354163 0.027885756 -0.10661947 0.0032538758
0001a0 ad d1 9b bd c6 f0 7b bb 1b ed 98 bd c0 df 00 be
       -0.07608352 -0.0038443073 -0.07467099 -0.12585354
0001b0 c6 61 66 3d 01 89 cf 3d 25 bf ca bd ea 1c c1 bd
       0.056245588 0.10133553 -0.09899739 -0.09429343
0001c0 d8 94 0c 3e d9 88 c1 bc a1 13 3f 3e 58 15 13 bd
       0.13728654 -0.023624824 0.18659832 -0.035909027
0001d0 a1 5e 49 3c 5d 11 bf 3d 05 dd 54 be 17 d0 55 3d
       0.012290628 0.09329484 -0.20787437 0.052200403
0001e0 e0 0b 0a be 88 6c 59 bd 49 92 dd 3b cb 18 1a 3e
       -0.13481092 -0.05308202 0.0067618233 0.1504852
0001f0 5f ce d1 bd 87 1d 8c bb 74 28 05 bd 74 51 f2 bd
       -0.1024444 -0.004275981 -0.032509282 -0.11831942
000200 bb 34 83 bc 44 57 ab 3d 1b f7 a8 bd e8 71 74 bd
       -0.016016355 0.08366254 -0.08250257 -0.059678942
000210 0d 47 18 3e ff 13 55 bd fc ed 73 bd 72 1a 08 3e
       0.14870854 -0.052021023 -0.05955313 0.13291338
000220 b3 01 a3 bd 41 b0 b9 bd a0 f7 97 bd 92 1d 9d bd
       -0.079593085 -0.09066821 -0.074202776 -0.07671656
000230 35 32 18 3e 44 a8 bb bd bf b6 0e bd 52 3d 72 3e
       0.14862902 -0.091629535 -0.03484225 0.23656204
000240 30 a3 e3 bc 13 04 39 3e 1c 4a ff 3d 91 f5 ae bd
       -0.027787775 0.1806796 0.12465307 -0.08542932
000250 45 c6 7c 3d 90 bf d1 bd ca e1 ee 3d 41 1d f0 bd
       0.061712522 -0.10241616 0.116641596 -0.1172433
000260 28 17 50 3d 67 e4 5c bc a0 4f 1a be 6d be ed bd
       0.050803334 -0.01348219 -0.15069437 -0.116085865
000270 b7 7e 21 3e 80 52 f2 bd 98 42 97 3d 41 69 e3 3d
       0.15770994 -0.11832142 0.073857486 0.1110406
000280 d9 46 09 be a7 3c 33 3e ba 18 29 3e c8 3a a3 bd
       -0.13405932 0.17503606 0.16513339 -0.07970196
000290 1b dc 13 3c 2b b5 da bc 42 a8 ec bd 7a e7 f9 3d
       0.009024645 -0.026697716 -0.1155553 0.12202354
0002a0 a6 17 94 3c 78 68 82 3d 13 41 9d 3e d7 4e 44 3d
       0.018077683 0.06367582 0.3071371 0.04792675
0002b0 57 1e 82 3c 4f cf dd bd bf 6b 0e be cf ef ab bd
       0.015883608 -0.108305566 -0.1390829 -0.08395349
0002c0 5f 6d d9 bd 55 db f7 3d 0b 73 f3 bd 9e 51 a9 3c
       -0.10616564 0.12102381 -0.11887177 0.0206688
0002d0 fa 9d be 3d 96 34 97 bd af be 65 bd 2b 6c 2d be
       0.093074754 -0.07383077 -0.056090053 -0.16935794
0002e0 d8 16 0c 3e b7 45 2d be 35 9e 01 3e 3e 16 08 3b
       0.13680589 -0.16921125 0.12658007 0.002076521
0002f0 f1 2a 36 bd e5 e3 fe bc 1d 06 0d be f1 6a 81 bd
       -0.044474546 -0.031114528 -0.13771863 -0.063192256
000300 d0 4c 1d 3e d1 21 5b 3e 75 4b c4 3d f2 48 96 bd
       0.15361333 0.21399619 0.09584705 -0.07338132
000310 49 a5 c0 bd 53 1e 9e 3d 26 cd 40 be 43 56 cc bd
       -0.09406526 0.07720628 -0.18828258 -0.099773906
000320 58 3c 38 be b1 f8 7a 3e 14 ec d2 3d 9c ee a6 bd
       -0.1799177 0.2450893 0.102989346 -0.0815098
000330 7d f8 83 bd ef 58 dd 3d d8 b6 b0 3d 49 19 8c 3c
       -0.0644388 0.10807978 0.08628625 0.0171019
000340 ff 32 a9 3d fc 93 d8 3c ad ed 8f bd 19 ff 9b 3b
       0.0826168 0.026437752 -0.07027755 0.0047606346
000350 79 37 8a 3d 24 d1 18 bb 8b a8 31 3d fe 4b 06 be
       0.06748862 -0.0023318017 0.043373626 -0.13114926
000360 a2 56 41 be 60 e5 b5 bd 41 64 83 3d 7a 36 a1 bd
       -0.18880704 -0.088816404 0.06415606 -0.07871719
000370 50 aa 45 3d ce 7f a1 bd 96 6f ad 3d 05 15 fe bd
       0.048258126 -0.07885705 0.08468549 -0.12406353
000380 5a db 2c 3e ff ba 2f be 57 d0 8f bc 17 43 85 bd
       0.16880551 -0.17161177 -0.017555399 -0.06506937
000390 63 3d 6c 3d 5e fa 50 bd ea bc 03 be f9 90 66 bd
       0.05767573 -0.05102002 -0.12865034 -0.0562906
0003a0 ee 1a a7 bd 86 d2 30 3e 80 83 ea 3d d7 9f 09 3e
       -0.08159433 0.17267808 0.11450863 0.1343988
0003b0 ee 4c 3b bd ec 7e 30 bd 31 48 06 bd 9f 9d 3d bc
       -0.045727663 -0.043089792 -0.03278369 -0.011573224
0003c0 78 59 9e 3b 71 7b 3b 3e 3a 60 f0 bb cb 44 21 bd
       0.004832443 0.18308808 -0.00733569 -0.039372247
0003d0 a2 15 e5 3d d8 75 21 3e 2f ac 0a be a1 5a 22 bd
       0.11185767 0.1576761 -0.13542245 -0.03963721
0003e0 71 1e 8b 3d d4 c0 31 3d a4 25 a1 bd 08 47 53 bd
       0.067929156 0.043396786 -0.078685075 -0.051581413
0003f0 02 f1 9f 3d 85 65 18 be 5a cf 1f 3d 85 38 4f 3d
       0.078096405 -0.14882477 0.039016105 0.05059101

fc2.weight f4 [4, 256]
000000 26 d6 ec 3d ba fd 18 3e 05 04 24 3e 6f 92 58 3b
       0.11564283 0.14940539 0.16017158 0.0033046266
000010 2e a7 26 bc e6 37 10 bd 03 21 65 3d b4 5e 03 bd
       -0.010171695 -0.03520956 0.055939686 -0.032072738
000020 9a dd 57 3d d8 1e 00 be 1f f5 eb bc 2f 82 17 3d
       0.05270157 -0.12511766 -0.028803406 0.036989387
000030 38 3c 54 3d f4 ba 6d 3e ec 0a a7 bd cc 19 4d be
       0.05181524 0.23215848 -0.0815638 -0.20029372
000040 c3 7f 1e 3d 7e b5 19 3d 14 51 11 3e 05 e2 d1 3d
       0.03869606 0.0375266 0.14191085 0.10248188
000050 87 05 13 bc 87 bd bd 3d fc 1a 67 bd 22 75 92 bd
       -0.008973486 0.09264665 -0.05642222 -0.071512476
000060 d3 64 c2 bc b7 0c e2 3b f8 8d 47 3c cd 10 90 3d
       -0.023729717 0.0068984884 0.012179844 0.070344545
000070 8a 48 82 3d c6 6d 91 bd b0 6d 25 bd e5 c1 1f bd
       0.06361492 -0.07101016 -0.04038781 -0.03900327
000080 5d 67 d7 3d bb 9e f4 3d 03 99 a1 3d b4 e2 52 bc
       0.10517762 0.11944338 0.07890513 -0.012871433
000090 63 8a d0 3c 95 aa 9b bc 4e 33 ca 3b dd 17 dc 3b
       0.025456613 -0.019002238 0.006170667 0.006716712
0000a0 cd 1a 66 bc a9 ac c2 3c 84 20 28 bd 14 50 06 bd
       -0.014044476 0.023763971 -0.041046634 -0.032791212
0000b0 fb 3f 42 3d 6e 8e 89 3c 19 d8 19 3d 3b 20 77 bc
       0.047424298 0.016791549 0.037559602 -0.015083368
0000c0 aa 61 42 bb 91 74 a4 3d 8a e7 20 3d 43 d3 2f 3d
       -0.0029660263 0.08030046 0.039283313 0.042926084
0000d0 c2 f3 d3 3c 88 f0 2e bd c8 de 10 bd 2e c6 d4 bd
       0.025873069 -0.042709857 -0.03536871 -0.10389362
0000e0 de 60 0a bd 99 14 d9 3c e9 40 9c 3d b5 da a0 3b
       -0.033783786 0.02649908 0.07629568 0.0049088844
0000f0 47 c3 0e 3e 68 1d b8 3c 36 58 3c 3d dc d8 18 3c
       0.1394168 0.02247496 0.045982562 0.009329047
000100 e8 46 db 3b fe d6 7f 3c 98 1d 84 3d 63 a4 09 3e
       0.0066918023 0.015615223 0.06450957 0.13441615
000110 4e 6c 72 bd f7 1b 92 3d 94 8a 92 be 7a 65 01 3d
       -0.05918532 0.0713424 -0.28621352 0.031590916
000120 62 47 c2 3c 97 dd 85 3d 9f 59 75 bc d9 25 94 bd
       0.023715679 0.065364055 -0.014974981 -0.07233781
000130 19 f4 c4 3c 06 68 5c ba 4e c0 0f 3d 9c 95 fc ba
       0.024042176 -0.00084078347 0.035095505 -0.0019270661
000140 fa 8c b9 3c 69 30 91 3d 8a ac 0c bc 23 2c 09 3d
       0.02265023 0.07089312 -0.008586058 0.033489358
000150 b9 45 a2 3d 17 51 95 3d e8 16 02 3e fe 03 0c 3e
       0.07923455 0.07290857 0.1270405 0.13673398
000160 44 15 83 bd 27 5e ec 3d fc 97 b7 bd 5f bf 6c 3d
       -0.064005405 0.11541396 -0.089645356 0.057799693
000170 d6 aa a5 3d 6b d6 c3 3c a0 6a 89 3b 3b 3a 8d 3b
       0.08089225 0.023905953 0.004193619 0.00430992
000180 24 b6 33 3d 70 0d cb bc b9 b3 da bc fc 01 90 bd
       0.043874875 -0.024786681 -0.026697027 -0.070316285
000190 54 f6 e3 bc 8b 81 00 3c 22 08 0e 3e 27 71 e1 bb
       -0.02782742 0.007843385 0.1387029 -0.006879944
0001a0 b6 91 83 3c a6 ef 5c bd 6b 9c 03 bc db 19 60 3e
       0.016060691 -0.053939484 -0.008032898 0.21884863
0001b0 62 70 bd 3d 14 52 32 3c b0 ab 30 bc fd 9c 09 3d
       0.09249951 0.010883827 -0.010783121 0.03359698
0001c0 cf bd 11 3d 78 2b 51 3d 51 7a 78 3d 31 d0 ce 3c
       0.035581406 0.051066846 0.060663525 0.025245758
0001d0 bf ba 1c 3b ff 82 1b bd bf 14 68 be bc 29 24 bd
       0.002391502 -0.037966724 -0.22664164 -0.040078864
0001e0 67 51 cc 3c 20 54 31 bc 55 04 d8 bc f4 20 30 3e
       0.02494116 -0.01082328 -0.026369253 0.1720007
0001f0 e0 1d bc 3e c4 55 5e bc 7c 6b 36 bd ff 7f 01 bd
       0.36741543 -0.013570253 -0.0445361 -0.031616207
000200 89 ca 54 3c 1f e8 33 3e c1 4c 9c 3e fb 50 36 3f
       0.012987741 0.17569016 0.3052731 0.71217316
000210 d9 52 40 3c 1f 4c ad bd 3b 77 1c 3b 73 7f 58 3c
       0.011738502 -0.084617846 0.0023874778 0.01321398
000220 c4 eb 66 3e 13 98 e1 bc 33 b8 8d 3d 82 ff 9d 3d
       0.22550875 -0.027538335 0.06919899 0.0771475
000230 c4 0a 8d 3e 79 70 76 be 32 36 40 3d ee e3 ec 3d
       0.27547276 -0.24066342 0.046926685 0.11566912
000240 65 61 d6 b9 6b 9b 6e 3d d3 98 98 3b b6 b3 69 bd
       -0.00040889825 0.058253687 0.00465689 -0.05705615
000250 a8 25 bb 3d b7 ac 01 be a8 90 96 3e 20 35 34 3d
       0.09138042 -0.12663542 0.2940724 0.043995976
000260 78 ea 52 3d 18 eb 6c bd 69 84 87 bd 07 4b 88 bd
       0.051493138 -0.05784139 -0.06617052 -0.06654935
000270 57 77 89 3d 6c 9a c2 3e d5 ed 83 3c 12 ed f5 3c
       0.067122154 0.3800844 0.016104618 0.03002027
000280 fb 12 83 3d 98 f9 de bc eb a6 1c bd 6b 33 66 bd
       0.064001046 -0.027218625 -0.038245123 -0.05620138
000290 0b 1d f3 bc 4b c6 ae bc 5a 67 a9 bd 51 85 a3 bb
       -0.029676935 -0.021334788 -0.08271666 -0.004990258
0002a0 73 d1 41 bd 24 30 6d bc 54 de ce 3d 48 60 9b 3d
       -0.047318887 -0.01447681 0.101009995 0.075867236
0002b0 b7 f2 ac 3e 97 cc 98 3d 7a 34 df bc a4 81 1a 3d
       0.33778927 0.074608974 -0.027246702 0.03772129
0002c0 c7 8a 91 bd 67 03 86 be 64 c6 06 3b c3 cb db 3d
       -0.07106548 -0.2617447 0.0020565027 0.10732224
0002d0 74 9f 0a 3d e6 70 27 3d 1b 33 18 bd 3f b1 ca bb
       0.033843473 0.040879153 -0.037158113 -0.00618568
0002e0 a3 27 14 3e 38 7a a6 bd 63 92 1a 3e 0b 87 a7 3c
       0.14468245 -0.0812878 0.15094905 0.020450136
0002f0 18 fd b2 bc 35 f9 0f 3c ea 9f 2c 3c eb 01 db bb
       -0.0218492 0.008787443 0.010536173 -0.0066835782
000300 a1 df 50 3d 9a aa 03 3d 17 d4 fa 3d a1 17 0c bc
       0.05099452 0.03214512 0.12247484 -0.008550555
000310 20 ca ff 3c 26 d5 09 3d 14 bc 20 be a5 6d be 3d
       0.03122431 0.03365054 -0.15696746 0.09298257
000320 c5 37 dc ba e6 7d a7 3d 86 df 4d 3d 33 f5 a9 3d
       -0.0016801289 0.0817831 0.050261997 0.08298721
000330 3a d7 de 3c 34 cd 87 bc ca 28 09 bb 79 13 ce 3d
       0.027202237 -0.01657734 -0.0020928853 0.10062308
000340 29 6d 66 3d 0a 95 56 3c fb 15 e3 bd c6 bb df bc
       0.056256447 0.013097057 -0.11088177 -0.027311217
000350 75 61 aa bc 52 d4 e7 3c 05 e2 13 bd d0 d4 35 bd
       -0.020798424 0.028299484 -0.03610422 -0.044392407
000360 f7 b7 df bd 11 97 1f 3e df 55 77 3c f7 6b 9a 3b
       -0.109237604 0.15584971 0.015096157 0.0047125774
000370 2d 2a 16 3d 08 8b 80 bd b5 9e 42 3a 22 84 cc be
       0.036661316 -0.06276518 0.0007424162 -0.3994456
000380 1f 80 7e 3c 33 7d ae 3d 89 bb bb bc 7c 4a 93 bc
       0.015533476 0.085199736 -0.022916572 -0.017979853
000390 d1 c5 1f 3e 9a 9e cc 3b ed aa f5 3d f0 bd e2 3c
       0.15602805 0.0062444927 0.11995492 0.02767846
0003a0 09 f2 8a 3d 6d ed 16 3b bf 49 b7 3d bb 21 85 3d
       0.06784446 0.00230297 0.08949613 0.06500574
0003b0 00 c6 d9 3c d9 e0 bb bd e1 99 93 3d 9e 5d a1 bc
       0.026583672 -0.09173746 0.072070844 -0.01969796
0003c0 5c b0 7a bd c6 5f 9a bc 20 4b 82 be 5e cf 7c be
       -0.061203346 -0.018844496 -0.2544794 -0.2468848
0003d0 44 89 b7 bc ce 9c 1a 3d 91 1d 32 bd fd a9 24 3d
       -0.02240432 0.037747197 -0.043485228 0.040201176
0003e0 18 3e a8 3c b3 4e 8f 3d f1 d6 74 bd 9c c5 33 bd
       0.020537421 0.069974326 -0.059775297 -0.043889627
0003f0 11 31 32 3d bd c3 80 3d 15 85 30 bd e5 e9 ba 3c
       0.043503825 0.06287334 -0.043095667 0.022816608

fc2.bias f4 [4]
000000 bf 7e 13 3e c5 4a a1 3d 16 aa d3 3d 0f be 23 3e
       0.14403819 0.07875589 0.10335176 0.1599047
