MADDPG/checkpoints/checkpoint_actor_0.pth (torch, 160023 bytes, 6 tensors)

fc1.weight f4 [256, 24]
000000 09 ec be 3d 8f dd 69 bc c1 44 29 be e8 3b 85 3d
       0.09322364 -0.014274015 -0.16530134 0.06505567
000010 0d ff b9 bd db 23 72 3d 76 e7 f5 3d be b7 4f be
       -0.0908185 0.059116226 0.12007038 -0.20284936
000020 a9 61 6b be 6a c9 10 bd 8e 44 69 bd a5 02 17 3e
       -0.22986473 -0.035348333 -0.056950144 0.14747103
000030 97 86 6a 3c bb 4b 81 bd 48 eb 61 bd 4f 4e 44 3e
       0.014314315 -0.063132726 -0.055156022 0.19170497
000040 e5 88 52 be 51 38 b2 3d 93 75 0c be 2b da 34 3e
       -0.20560034 0.08702148 -0.13716726 0.1766135
000050 0e 75 7e 3d 67 81 b1 be 91 38 84 3d 18 22 30 bd
       0.06212335 -0.3466904 0.06456102 -0.043001264
000060 aa 44 96 bd e0 2c bc bd 55 b9 a8 3d c9 b8 68 3e
       -0.073373154 -0.09188247 0.08238474 0.2272674
000070 a6 f7 a0 3e 68 c9 76 3e 98 d9 4e bd 6c c8 e5 3b
       0.3143894 0.24100268 -0.050500482 0.0070124175
000080 3e f5 ba bd 5f cb 0b 39 12 fb 25 3d cf 5e 94 3e
       -0.091288075 0.00013331835 0.040522642 0.28978583
000090 90 50 97 3e db 05 70 3e a8 85 4c 3e 7f 34 0b 3e
       0.29553652 0.23439734 0.19972861 0.13594244
0000a0 19 a6 d9 3d fd e6 d4 bd a8 98 1d 3e a7 9d c7 bd
       0.10627384 -0.1039562 0.15390265 -0.09746867
0000b0 cf ec 03 3e f5 1d 92 ba c9 42 d5 bc a1 36 8f bd
       0.12883304 -0.0011147844 -0.026032822 -0.069928415
0000c0 b5 86 81 bc b1 7d d9 bd 13 83 53 3d 03 52 cd 3d
       -0.015811304 -0.10619677 0.051638674 0.10025408
0000d0 e0 76 7d 3e e5 aa 4b 3e 5f 93 b9 3c c3 1a 77 bd
       0.24752378 0.1988941 0.02265328 -0.060328256
0000e0 46 51 26 bc 12 71 91 3d 67 cf ba bd ba 37 62 bd
       -0.010151213 0.071016446 -0.0912159 -0.055228926
0000f0 56 73 87 3e 3b c0 94 bd ba f9 60 3c 0e 93 8e 3d
       0.26455182 -0.072632276 0.013731414 0.06961642
000100 5a b4 d5 3d 91 5e 15 be 6d 6e 36 be da dc 56 be
       0.1043479 -0.14586855 -0.17815562 -0.20982686
000110 f6 e2 24 3f a2 25 b7 bc 00 75 b3 3c c2 83 28 3e
       0.64408815 -0.022356812 0.021906376 0.16456512
000120 84 e1 1d 3e 12 c6 cb 3d ea fc 11 bc a3 ff 2c be
       0.15418059 0.09949888 -0.008910397 -0.16894393
000130 b9 75 99 be 2f c5 c6 bd d4 ad 72 bb 27 63 4f 3d
       -0.29972628 -0.097055785 -0.003702988 0.05063167
000140 ae 48 1d be b6 53 3c be 3e 19 f9 3d 7f c4 83 bc
       -0.15359756 -0.18391308 0.12163018 -0.016084908
000150 71 9a 0d be 82 6a 50 3e c7 9a 49 3c 94 c5 00 be
       -0.13828446 0.2035313 0.012304968 -0.1257537
000160 0e 65 7f bc 56 3d 73 be 1d 9a e5 bd b4 5e b3 3d
       -0.015588058 -0.23753867 -0.112110354 0.087582976
000170 f0 64 e4 3d a8 27 0a be b3 f3 74 3d f3 b0 2b be
       0.11152065 -0.1349169 0.059802722 -0.1676672
000180 d5 5f 41 be f5 39 92 be 84 32 93 3d 8f 23 b6 3d
       -0.18884213 -0.28559843 0.071873695 0.08893501
000190 b2 4a 95 bd 00 1c 36 be 2c ce 20 bd 49 ab 27 be
       -0.072896376 -0.17784119 -0.03925912 -0.16373934
0001a0 a6 be b1 3c af e2 97 be 8b af a3 3c 02 79 66 3d
       0.021697354 -0.29665133 0.019981166 0.056267746
0001b0 3f 29 a6 bd 79 bb 84 bd 12 72 16 be 09 c0 43 be
       -0.08113336 -0.0648107 -0.14691952 -0.19116224
0001c0 2e e2 09 3d 24 12 a2 bd 01 4d 09 3d e8 5c 88 3d
       0.033662967 -0.07913616 0.033520702 0.066583455
0001d0 69 66 7e be 1a a5 94 be 09 b6 ea 3d 2e 9e 88 3d
       -0.24843754 -0.29032212 0.11460502 0.066707954
0001e0 51 18 92 bd 9c ee 28 be a4 e0 6f 3d 62 a2 98 be
       -0.07133544 -0.16497272 0.058563843 -0.29811388
0001f0 f4 3a 66 3d 58 5d 00 be e4 ca 0a bd aa 2e b9 bd
       0.056208566 -0.12535608 -0.033884898 -0.090421036
000200 43 54 41 3d 9a 2a 2a be a4 a7 a0 bd a9 b9 89 be
       0.0471995 -0.16617814 -0.07844475 -0.2689946
000210 16 85 56 3e 05 82 21 3e 68 ff c1 bc d3 68 7f bd
       0.20949206 0.15772255 -0.023681358 -0.062355828
000220 f1 bd 61 bd 28 cd a9 3d c1 1f af bd 5a 29 d8 3d
       -0.055112783 0.082910836 -0.085509785 0.10554762
000230 54 84 11 be f1 f9 c1 3e 79 b1 67 bc 00 ff 39 3c
       -0.14210635 0.37886003 -0.014141434 0.011352301
000240 c9 b2 0a be dc d2 7e bd 78 23 4b bc 09 4f a3 bd
       -0.13544764 -0.06221281 -0.012398593 -0.07974059
000250 e3 5b 33 3e 84 e4 c8 3e ee 5e da 3c 56 ce 62 3d
       0.17515521 0.39236844 0.026656594 0.05537256
000260 9b f2 b0 bc 0e 25 65 be a3 3d 32 3e e3 c6 20 3e
       -0.021600058 -0.22377416 0.17406325 0.1570087
000270 87 12 6f 3e 44 24 59 3d ed 75 49 be 84 2e 8a bc
       0.23346911 0.0530131 -0.19673891 -0.016867884
000280 b0 25 9d bc 66 63 00 be 05 48 7f bc 49 21 24 3c
       -0.01918301 -0.12537917 -0.015581136 0.010017701
000290 df 8f 89 3d 09 07 03 be ca 90 15 3e 13 aa b2 3d
       0.06716894 -0.12795652 0.14606014 0.08723845
0002a0 b1 a1 48 3e b8 38 88 3e 42 7b d1 3b f9 bc 33 be
       0.1959293 0.26605773 0.0063928673 -0.17552556
0002b0 93 3c 5b 3e ee c1 46 3a 99 19 4f be d3 58 89 3c
       0.21409826 0.00075819984 -0.20224608 0.016765988
0002c0 a6 13 5c be 9e 4b 95 3e c5 54 ac 3b 15 6b d0 bd
       -0.2149187 0.29159254 0.0052591288 -0.10176674
0002d0 ee b3 63 3e fe fc 0a 3e f2 33 1c bc ee 25 31 be
       0.22236606 0.13573071 -0.009533869 -0.17299625
0002e0 8e 1d d5 3d 78 5b 82 bc d7 9e f2 bc a9 58 10 be
       0.10406028 -0.015912756 -0.029616756 -0.14096321
0002f0 f6 c1 a2 bd be fa 5f bd 7f 1d 52 be 01 d4 a8 be
       -0.07947151 -0.054682486 -0.20519064 -0.32974246
000300 cb 47 3f be a5 5d 17 3d 26 7e 03 3d c4 e3 5c be
       -0.1867973 0.03695454 0.032102726 -0.2157126
000310 0e 1e d9 bd 6c 43 d3 3d db cf 00 bd 24 6f 20 3e
       -0.106014356 0.10315594 -0.031448226 0.15667397
000320 e5 f7 cd 3d c4 e2 6b be 26 76 31 bd fc 45 12 be
       0.10057048 -0.23035723 -0.043325566 -0.1428451
000330 ad 15 6f be 92 50 6a 3e 0a f4 5f bd 72 5e 5f bd
       -0.23348112 0.22882298 -0.054676093 -0.05453343
000340 eb 87 14 3e 1f 53 70 be 12 cf 0b be f2 54 b0 3c
       0.14504974 -0.23469208 -0.1365321 0.02152488
000350 7b 7a 8b be 9b 69 9c 3e 7f f4 6a 3d 2e b0 1a bd
       -0.27241883 0.3054932 0.057362076 -0.037765674
000360 e5 4a 5a 3d c7 57 68 bd e2 2c 3e 3d 44 f9 10 3e
       0.05329408 -0.056724336 0.046429522 0.14157587
000370 13 90 64 bd 74 34 69 be ac 33 ae ba 09 1c 87 3d
       -0.055801462 -0.22773916 -0.0013290546 0.06597144
000380 d7 dd ef 3d 4c d8 1e be 50 12 cf 3d 2b 3e 3f be
       0.117122345 -0.15512198 0.10110915 -0.18676059
000390 48 2c 4c 3e 48 39 80 be 60 64 cb 3d ad 59 22 3e
       0.19938767 -0.25043702 0.099312544 0.15854521
0003a0 22 7e 50 be 85 9b 44 bd 2c f1 72 3d ad b1 5d 3e
       -0.20360616 -0.047999877 0.05931203 0.21649809
0003b0 82 ff 87 3d 42 49 fa 3c 86 d4 78 bd 21 d9 92 3e
       0.06640531 0.03055251 -0.060749553 0.2868128
0003c0 95 a7 26 3e 95 55 2f 3e 1b 6b 1e 3e f6 e4 0a 3d
       0.16274865 0.1712249 0.15470545 0.03390976
0003d0 cb 70 03 be 78 96 e4 be a0 c0 3a 3d cf 6d d7 3c
       -0.12835996 -0.4464605 0.045593858 0.026297478
0003e0 67 4e d6 bd da 4e 3f be 74 6f af 3c c2 7b 66 bd
       -0.10464173 -0.18682423 0.02141545 -0.05627037
0003f0 00 a1 b6 3e 83 8e 06 3e ef 66 17 3d 0c 60 77 3d
       0.35669708 0.13140301 0.0369634 0.06039433

fc1.bias f4 [256]
000000 74 b9 51 3e 5d f3 1a be fd a9 5e 3d b5 5d 76 3d
       0.20480901 -0.15131898 0.054361332 0.06014796
000010 d8 89 db 3d 7f 46 62 be e0 6c 9d bc 20 a3 3a 3c
       0.10719651 -0.22097205 -0.019216955 0.011391431
000020 fc 3a c3 3d 45 69 d2 3d 95 4f 26 bd cb 7a 51 bd
       0.09532735 0.10273985 -0.04060324 -0.051142495
000030 1d 93 a4 bd ac 07 18 be 6f 0d 12 3e 4c b8 43 be
       -0.08035872 -0.14846677 0.14262937 -0.19113272
000040 b6 b0 59 be 88 13 e2 bd b1 8d e5 bd e2 66 04 be
       -0.21258816 -0.110388815 -0.11208666 -0.12929872
000050 9c de 10 be 28 90 0b 3e 29 a5 1b be ca aa 98 bd
       -0.14147419 0.1362921 -0.15199722 -0.074544504
000060 d3 c7 ae bd b7 c3 ac 3d bd 09 08 bd ee a1 fb 3d
       -0.08534207 0.08435767 -0.033212412 0.12286745
000070 fc db 2c 3c 50 e8 37 bc b0 e9 96 3d d7 c1 e4 3d
       0.010550495 -0.011224821 0.07368791 0.111697845
000080 c0 d2 6a be 43 b1 1c be e8 dd db bc d7 06 16 3c
       -0.22931957 -0.15301995 -0.026839212 0.009156904
000090 9d 8e 48 bd e1 c1 9c bd 3a 60 0a 3e a6 a9 80 3e
       -0.04896413 -0.07654167 0.1351327 0.2512943
0000a0 7a 7a ac 3d 77 95 0a be e3 ed cb 3c 52 db 30 3e
       0.08421798 -0.13533579 0.024893707 0.17271164
0000b0 0d ee a1 bd 00 5f 14 be 05 68 39 be 85 c2 d8 bd
       -0.07906733 -0.14489365 -0.18106087 -0.10583977
0000c0 4e 36 49 be 60 15 39 3d ce e3 bb bc 86 00 84 bd
       -0.19649622 0.0451864 -0.022935774 -0.06445412
0000d0 eb 95 07 3e 3f b5 39 be cb 7e 42 be 47 99 58 3e
       0.13240783 -0.18135546 -0.1899368 0.2115222
0000e0 6d 0b 75 3e 72 65 3c be 88 0b 8c 3b 47 c5 80 bd
       0.2393014 -0.18398073 0.0042738356 -0.06287628
0000f0 5b c2 b6 bb eb 47 01 3d f9 47 b9 bd c8 b7 14 be
       -0.005577368 0.031562727 -0.09046931 -0.14523232
000100 d7 4f 10 3e d8 d9 18 be 96 ef f1 3d 30 41 29 be
       0.14092956 -0.14926851 0.118132755 -0.16528773
000110 42 ed 0e be 3a e7 c1 3d ff ad d3 bd aa 37 03 be
       -0.13957694 0.09467931 -0.103359215 -0.12814203
000120 4b 19 18 3d d6 b4 f5 3d f5 bc 17 3e 1b 22 2f 3c
       0.037133496 0.11997382 0.14818175 0.010689284
000130 c3 c4 d3 bd 01 53 36 bd db 00 c9 bd c4 cd 1f be
       -0.10340264 -0.044512752 -0.09814616 -0.15605837
000140 f8 75 9f bc 51 e6 70 be dc 04 d0 bb 0d b5 c0 bb
       -0.019465432 -0.23525359 -0.0063482355 -0.005880958
000150 05 f9 1a 3e 5a 5f 5b bd 21 a1 bb 3c 38 39 5b 3e
       0.15134056 -0.05355773 0.02290398 0.21408546
000160 79 08 19 3e 5c 73 ed bc 19 76 b6 3d 83 60 5a be
       0.14944638 -0.028985672 0.08909244 -0.21325879
000170 4c 75 4b 3d bc 49 26 be 9e a3 99 be e7 3d 68 3e
       0.04967241 -0.16239065 -0.30007643 0.22679864
000180 f4 4d 56 3d 1e c5 4c 3e f6 75 69 bd 02 6c 62 be
       0.052320436 0.19997069 -0.056997262 -0.22111514
000190 f7 2b 41 be e3 68 e5 3d 73 bb 5d 3e 89 9b ff 3c
       -0.18864428 0.11201646 0.21653537 0.031202095
0001a0 78 bd da 3d 3b bd b8 bd 56 7f 36 3e 1c 13 3f 3d
       0.106806695 -0.09020468 0.17822012 0.046649083
0001b0 22 73 37 be 03 6c a0 3d b3 52 ce bd a0 99 37 3d
       -0.17915013 0.078331016 -0.100743674 0.044824243
0001c0 40 0e 3d be 82 a0 7b bd c8 9f 78 bb 7c 09 af bc
       -0.18462467 -0.06143237 -0.0037937034 -0.021366827
0001d0 89 57 9b 3c ba 3a 86 bd 5e 58 2b 3d b3 2e 8b 3d
       0.018962638 -0.0655417 0.04183232 0.067960165
0001e0 16 5a f2 3d 20 17 92 3d 50 26 4f be e7 e2 3d 3d
       0.11833589 0.07133317 -0.20229459 0.04635897
0001f0 4a 1d 9b bc f9 33 2b bc 8d 60 7e be 09 6d f3 3d
       -0.018934865 -0.010449403 -0.24841519 0.11886031
000200 75 74 1c be 71 78 8a bd 9a 9d d4 bd f6 d4 28 be
       -0.152788 -0.067612536 -0.103816226 -0.16487488
000210 98 4a 1b be ed 0e 9c 3c eb cd ac 3d 99 86 37 3e
       -0.15165174 0.019050086 0.08437713 0.17922439
000220 b6 cf 1d be 6f 94 2e be 75 f4 5c 3d d8 d4 8a bc
       -0.15411267 -0.1704881 0.05394407 -0.016947195
000230 f1 d9 70 bd ed 79 0d 3e 08 20 18 bd 3e bd f1 3d
       -0.058801595 0.13816042 -0.037139922 0.11803673
000240 53 07 49 be 56 34 b6 bc 95 f4 31 3a 9a 89 ab bd
       -0.196317 -0.022241753 0.000678846 -0.08375855
000250 44 f5 86 bc 70 ed 95 3c ca cc 57 3e 13 c6 9f bd
       -0.016474374 0.018301696 0.21074215 -0.078014515
000260 33 d6 cf bd 59 b5 5d 3e 82 d6 2f be ae 60 63 bc
       -0.10148277 0.2165121 -0.17171672 -0.013878031
000270 82 6e 7a be 90 9f 9d 3c 10 1f f7 3d 82 f2 0c 3e
       -0.24456218 0.019241124 0.120664716 0.13764384
000280 5c 66 23 bd 47 ce 92 bd 70 d1 03 3d d0 e8 9a bd
       -0.03989254 -0.071682505 0.032182157 -0.07563937
000290 b1 83 42 be 96 7f 3c be 04 9a 1b be 5f 6c 1e be
       -0.18995549 -0.18408045 -0.15195471 -0.15471028
0002a0 f6 4e f8 bd 69 90 09 be d5 66 50 be b3 9e 9a bd
       -0.121244356 -0.13433994 -0.20351727 -0.07549801
0002b0 cc 2a d5 3d 20 71 14 be 55 b4 d6 3d 6f 08 83 3d
       0.104085535 -0.14496279 0.10483614 0.06398093
0002c0 87 ce 41 be 68 53 f6 3d 3f 53 5e bc 72 33 79 3d
       -0.1892644 0.12027627 -0.013569652 0.060840078
0002d0 34 cb 2d 3c ee f6 09 3e b4 ef ce 3d 17 b1 e9 bd
       0.010607529 0.13473102 0.101043135 -0.1141073
0002e0 1b f6 16 3e 89 a3 2c be c2 da 1c be f9 c3 30 3e
       0.1474232 -0.16859259 -0.15317824 0.17262258
0002f0 c4 0f 03 be b4 ae 84 3d 3d 52 56 be 58 ae 25 3e
       -0.12798983 0.064786345 -0.20929809 0.16179788
000300 5b d5 ec bc d3 3b 12 3e 3e e3 49 bd e0 8a ec 3d
       -0.02891033 0.14280634 -0.04928898 0.11549926
000310 0a b8 21 be 77 3d e4 bd 29 13 18 be a1 a3 f2 3d
       -0.15792862 -0.11144536 -0.14851059 0.11847616
000320 41 c5 28 3e 1b 7f 3a bc 8e 05 af 3e c5 73 cc bd
       0.16481496 -0.011382843 0.34183925 -0.09983019
000330 91 e2 45 be 9c dd 2b 3c dc 6a 03 be f1 89 d5 3b
       -0.1932471 0.0104898475 -0.12833732 0.006516688
000340 9b cf 18 be 1d 61 06 3e 22 6e d8 bd cd dd 0c 3d
       -0.14922945 0.13122983 -0.10567881 0.034391213
000350 b3 ef b6 3c fe 95 02 3d 9a 19 44 be 06 16 05 be
       0.022331094 0.031881325 -0.19150391 -0.12996683
000360 0d c8 fe 3d 24 9b 5b 3e 0d d7 25 3e ec 21 06 3e
       0.124405004 0.214459 0.16195317 0.13098878
000370 13 aa ce 3d 37 b9 25 be d9 4a 08 be 6f 3c 90 3b
       0.10091033 -0.16183935 -0.13309802 0.0044017355
000380 7e f0 d6 bd ff 7f b7 bc c6 dc 1f 3e 88 db 4d be
       -0.10495089 -0.0223999 0.15611562 -0.20103276
000390 75 b4 0f 3d 9d ee 10 3e ce 7a 13 3d 57 79 df 3b
       0.035084207 0.14153524 0.036005788 0.0068198848
0003a0 cd 99 c0 bd bf ec 4f 3e 40 f5 b5 3c 80 3d 3b bc
       -0.09404335 0.20305155 0.02221167 -0.011428237
0003b0 96 b9 d8 3c 0a dd 6a bb 4f e1 b5 3d 5a d0 95 bc
       0.026455682 -0.0035837316 0.08880865 -0.018287826
0003c0 6d 16 60 3c e0 61 2d 3e cd e3 56 3d a1 48 da bb
       0.013677222 0.16931868 0.05246334 -0.00666149
0003d0 76 08 f7 3d f0 ed e9 3d 54 94 24 bd 6d 1e 85 3e
       0.12062161 0.11422336 -0.04018052 0.25999776
0003e0 27 cf 50 3e da ad 39 be 5a 8b 96 3d f6 c7 cc bd
       0.20391522 -0.18132725 0.07350798 -0.09999077
0003f0 f3 c8 95 3d c8 3d 1f be 90 79 9b 3d 8f 88 bb bd
       0.07313719 -0.15550911 0.075915456 -0.09156906

fc2.weight f4 [128, 256]
000000 47 b9 d2 bc e4 93 43 3d c9 10 1c be 15 bf 66 bd
       -0.025723113 0.04774846 -0.15240778 -0.056334574
000010 81 6c c9 3c 27 87 49 3d 85 47 f9 3c e1 46 18 3c
       0.024587872 0.049201157 0.030429611 0.009294243
000020 54 a5 20 3e 5c c3 10 be 94 7c 41 be 94 ab 15 be
       0.15688068 -0.14137024 -0.18895179 -0.14616233
000030 25 1a 30 3d a1 f2 58 bd f2 f3 ba 3d aa fe d7 3b
       0.042993683 -0.052965764 0.0912856 0.0065916376
000040 d6 f7 15 3e 23 9d eb bb 04 91 45 3d 1d 8d ea 3a
       0.14645323 -0.007190363 0.048234 0.0017894838
000050 c8 17 b4 3c 37 ce d2 3d bf 90 7e 3d 23 db 94 bd
       0.021983996 0.102932386 0.06214976 -0.072683595
000060 95 15 22 3e 6d 86 b2 bd 0d e0 1f be 77 ee 2a 3d
       0.15828545 -0.08717046 -0.15612812 0.041731324
000070 fe 91 ec 3d 40 f1 c7 3d 84 40 a8 3d 5e 82 cb bd
       0.11551283 0.09762812 0.082154304 -0.09936975
000080 2f 25 af bb 77 59 09 bd c2 5b f5 3d 8a 55 7c bd
       -0.005345009 -0.033532586 0.11980392 -0.061605014
000090 69 58 c6 bd 89 59 ec 3d f3 8c 94 3c cc d3 57 bd
       -0.09684832 0.11540515 0.018133616 -0.05269222
0000a0 26 5e 6d bc fe e5 a9 bd 42 96 8d bc 3b 2e 41 bd
       -0.014487779 -0.08295821 -0.017283563 -0.04716323
0000b0 27 48 01 be a3 70 03 3d c6 c6 d3 3d 1e 5e 07 bd
       -0.1262518 0.03208984 0.103406474 -0.03304874
0000c0 ea 2a 08 3d 26 44 4e 3c 35 b0 16 3c e9 aa de bd
       0.03324405 0.01258949 0.0091972845 -0.10872442
0000d0 65 22 0e bb 8d 21 58 3d 32 55 18 bc ad c6 3d be
       -0.0021687981 0.05276637 -0.009297656 -0.1853282
0000e0 73 eb bd bc d2 eb bd 3c 83 29 4c 3d 4f 5f 04 be
       -0.02318356 0.023183737 0.049844276 -0.12926982
0000f0 bf 9b 9e bd 95 c1 10 bb 39 a8 f1 3c ae b6 f0 3c
       -0.0774455 -0.002208804 0.02949916 0.029383983
000100 58 86 86 bc 72 d1 a9 bc 21 fe 24 3d 38 9a 6b be
       -0.016421482 -0.020729754 0.04028142 -0.23008049
000110 3b 45 01 3e c5 53 08 3d 7b 4d 43 bd e5 96 88 3c
       0.12624066 0.033283014 -0.047681313 0.016673515
000120 e1 a6 87 3c 74 ef 00 bc 24 0d 26 3d b3 e5 3e 3d
       0.016559066 -0.00786959 0.040539876 0.046605777
000130 77 18 92 be e5 ca 3c 3d 36 ae 67 3d c3 c2 9e bc
       -0.2853429 0.046091933 0.056562625 -0.019379979
000140 2c e9 c3 bd 2c 1c ec 3c 19 7c 80 3d ab d5 67 bd
       -0.095659584 0.028822027 0.0627367 -0.056600254
000150 e3 e6 35 3d 54 1b 0a 3d 4d 2e 3c 3a 0e 5b 6b 3d
       0.044409644 0.03371747 0.000717853 0.057459883
000160 c4 f3 83 bd 6b 49 55 3d 38 a3 ac 3d d3 8c 25 3e
       -0.06442979 0.05207197 0.08429569 0.16167001
000170 cf 94 7b bd 38 dc 1c bd 72 3c d1 3c 46 c2 ce bd
       -0.06142121 -0.038295954 0.025541518 -0.100956485
000180 9a 2a 5c 3d 25 f5 1d bd 96 dd 9e bc c3 2a 28 3d
       0.053751566 -0.038563866 -0.01939277 0.041056406
000190 03 b7 1d 3d 18 a2 ba bd 97 33 26 3d 3b f2 9a 3d
       0.03850461 -0.09112948 0.040576544 0.07565733
0001a0 03 87 4e bd d7 2f a8 3c e8 cc d6 bd 23 07 a6 bd
       -0.050421726 0.020530624 -0.104883015 -0.0810683
0001b0 8d f7 ab bd 2e 84 c5 be 72 6f 2b 3d 11 74 f7 3c
       -0.08396826 -0.38577408 0.04185433 0.030206712
0001c0 95 c1 9e bd 4d 1c fd 3d 2d a0 8f bd 1a 99 b8 3d
       -0.077517666 0.123589136 -0.07012973 0.09013577
0001d0 48 c5 e4 bd 61 64 20 3d e8 e5 71 3d fc f8 cd 38
       -0.11170441 0.03915823 0.059057146 9.821539e-05
0001e0 86 a8 51 bd b8 e5 23 bd 0b cb f4 3d 45 7a a5 bc
       -0.051186107 -0.040014 0.1195279 -0.020199904
0001f0 20 56 60 3d 49 37 49 3d d8 a5 1c 3d 42 75 17 be
       0.054769635 0.04912499 0.0382441 -0.14790824
000200 74 13 55 3d fd 91 37 3c 63 62 8d bb 36 03 55 bc
       0.052020505 0.01120424 -0.004314707 -0.013001254
000210 50 91 b2 3d 35 49 86 bd 51 90 84 ba 24 08 9f bd
       0.087191224 -0.06556932 -0.001011381 -0.077652246
000220 5f 60 77 3c b9 91 4b bc b5 0f c6 bd 59 69 5a 3e
       0.01509866 -0.01242488 -0.09670965 0.2132925
000230 ef f8 83 bd 4b 52 a3 bd 50 50 4f bd b3 4d ed 3d
       -0.06443965 -0.079746805 -0.0506137 0.115870856
000240 59 72 16 bd c9 98 cd 3c 98 40 a1 3d ad ad ef bb
       -0.036730144 0.025097268 0.078736484 -0.007314405
000250 f5 6b 7a 3d bb 2c 40 3d ba 13 ab 3d 62 bf 29 3d
       0.061138112 0.04691766 0.08353372 0.041442282
000260 1b fd be bc ce c2 cd 3d 35 34 2a 3e 42 a8 d9 3c
       -0.02331405 0.10046922 0.16621478 0.02656949
000270 2e a6 fa 3d 02 09 a2 bc 44 eb 92 3d 99 42 d4 3c
       0.122387275 -0.019779686 0.071737796 0.025910662
000280 0c 41 24 bd 5e 4c 72 bc d3 d9 db 3c d1 43 be bd
       -0.040101096 -0.014788715 0.026837265 -0.09290279
000290 14 c2 6a 3d f5 a1 ca 3d 31 73 6d 3d 3a 4c 76 bd
       0.057313994 0.09894172 0.057971183 -0.06013129
0002a0 6a c5 e4 3c 41 c5 3a bd f7 b1 31 3d 40 0d 7e ba
       0.027926166 -0.045598272 0.04338261 -0.00096913055
0002b0 69 45 d3 3c 8a 8f 42 bd 53 c3 31 bd 0a c1 0a bd
       0.025789933 -0.04750017 -0.043399166 -0.033875503
0002c0 aa cb bc 3c 74 50 96 bc 02 fd 9d 3d 6e 0a 40 3d
       0.023046333 -0.01834891 0.07714273 0.046884947
0002d0 66 02 4d be 71 56 83 3c 93 45 59 3c 3c f0 b3 bd
       -0.20020446 0.01603243 0.013261217 -0.087860554
0002e0 15 e6 30 3d 66 53 09 3e 9f 12 a0 bd 40 22 b8 3d
       0.043188173 0.1341072 -0.07816052 0.08990908
0002f0 7e 4a de bd 13 e6 29 bc 82 3e 15 3c 15 c8 bc 3c
       -0.10854052 -0.010369795 0.009109141 0.023044625
000300 61 9f 93 3d 75 0f bf bd 55 8e 33 3d 5c 98 c0 3d
       0.072081335 -0.0932912 0.04383691 0.0940406
000310 4c 1e 95 3d 00 33 ad bd 4d 4b 5c bd 35 56 4e 3d
       0.07281169 -0.08456993 -0.05378275 0.050375182
000320 d6 20 53 3d 0f f0 87 3c 29 de df 3d cb 0c 94 bc
       0.051544987 0.016593961 0.109310456 -0.018072506
000330 7f 4b 0f 3d 0d f1 85 bc 67 d4 14 3d ae f1 02 3e
       0.034984108 -0.016350294 0.036335375 0.12787506
000340 76 05 71 bd 2b bf 14 3e e7 c5 32 3e ab 40 98 3d
       -0.0588431 0.1452605 0.17458306 0.074342094
000350 2d 93 53 bd ef d3 45 bd 99 c0 8f 3d 34 60 0d 3e
       -0.05165403 -0.04829782 0.07019157 0.1380623
000360 dd 8f 8b 3a 66 b9 e1 3d 6c e4 b9 3d f9 4f 3c bd
       0.0010647733 0.1102169 0.09076771 -0.045974705
000370 61 86 8c 3d 0b 5d 8a bd 81 fa 90 3d 07 30 15 3d
       0.06861568 -0.06756028 0.0707903 0.036422756
000380 ca 58 03 bd 85 de 2c 3d 99 5a 07 bd 5b ca b7 3c
       -0.032067098 0.0422044 -0.033045385 0.022435358
000390 37 df 6c 3d 62 08 bc 3d 3a 27 00 3e e7 88 53 bd
       0.05783006 0.091812864 0.12514964 -0.051644232
0003a0 cb fe b2 bd 84 e5 4f 3c d6 43 03 3d 1a ae e2 bd
       -0.08740004 0.012688998 0.032047115 -0.110683635
0003b0 1d 3e c5 bc af 6f 03 3e ad a5 56 3d c5 0f db 3d
       -0.02407747 0.12835573 0.052404094 0.10696367
0003c0 f3 9d b1 bd a9 fa 71 3d 5d a2 f5 3c e6 e5 88 3d
       -0.086727045 0.05907694 0.029984647 0.06684475
0003d0 5d e2 be 3d 72 1e 3a bd c5 00 e7 3c 14 7b c8 bd
       0.09320519 -0.04543919 0.02819861 -0.097891
0003e0 cc 65 02 be 27 85 2c 3d d4 6c 82 bd fc 0f 64 bd
       -0.12734145 0.04211917 -0.063684136 -0.055679306
0003f0 5d 79 0f be f2 e3 13 bc 6b 4d 26 3c 9a 1e b4 bc
       -0.1401114 -0.009026514 0.010150294 -0.021987248

fc2.bias f4 [128]
000000 c6 99 04 bd b6 6c ec bc cd 7d 77 bc 68 b1 c9 bd
       -0.032373212 -0.028860431 -0.015105677 -0.09848291
000010 2c c8 9e 3d ec 59 2c bd fa 57 77 3d 67 11 d6 bb
       0.077530235 -0.042077944 0.060386635 -0.0065328362
000020 10 d8 93 bd a4 2f 3a 3d 9a 82 7b bd e1 b6 c6 3b
       -0.07218945 0.04545559 -0.06140385 0.0060642813
000030 fd b3 b9 3c cf 64 25 bc ff 08 10 3d 44 75 bd bc
       0.022668833 -0.010094835 0.03516483 -0.023127206
000040 a8 fc df 3d 62 b5 5a 3d 01 43 2c bd e3 15 85 b9
       0.10936862 0.053395636 -0.042056087 -0.00025384044
000050 06 dd 2b bd d3 c0 a6 3c 51 4a 46 bd 91 8b de bc
       -0.04195883 0.020355618 -0.048410717 -0.02716616
000060 e5 a6 b8 bc 5d d5 46 3d de 62 1c 3d fc 85 a4 3d
       -0.022540519 0.048543323 0.038180225 0.08033368
000070 c6 9c 9e 3d 80 67 15 bd 8b 97 c0 3d 1e 16 f9 3c
       0.07744746 -0.03647566 0.094039045 0.030406054
000080 f3 63 28 3d 49 eb 19 3d 4e 13 86 3c 57 f6 84 bd
       0.041110944 0.0375779 0.016366627 -0.06492298
000090 03 8d 33 3d 6b c6 aa 3c 74 f1 01 bd e7 b1 45 bd
       0.04383565 0.020846566 -0.03172441 -0.048265364
0000a0 95 4d a3 bc d0 6e 57 bc 7c 68 13 3d 7e c2 5c 3d
       -0.019934455 -0.013148978 0.035988316 0.05389642
0000b0 96 7e a8 38 b5 10 ed bc 63 b7 9a 3b 51 28 a9 3c
       8.034443e-05 -0.02893863 0.0047215684 0.020649107
0000c0 f4 94 0c bb 61 ca bc bb 58 89 bf bd 74 1f d4 ba
       -0.0021451088 -0.00576143 -0.09352368 -0.001618369
0000d0 52 7f 27 3d 74 30 50 3c 21 6a ae bb 0e eb f7 3c
       0.040892906 0.012706865 -0.00532271 0.03026345
0000e0 88 22 71 3d 3f be 14 bd a6 26 c8 3c 57 c5 b5 3b
       0.058870822 -0.036314245 0.024432492 0.0055472064
0000f0 81 f3 06 3c 1a 7b 68 3c 44 66 d4 3d e3 3b 6c bd
       0.008236767 0.014189506 0.10371068 -0.0576743
000100 06 8c 36 3d f9 2f 6c bd 1d 03 9a 3d 28 da 05 be
       0.04456713 -0.057662938 0.07520125 -0.13071501
000110 5c 58 86 3d 2e f5 b7 3b 6f 3a 33 bd 94 ec 3b bd
       0.06559822 0.0056139445 -0.0437569 -0.045879915
000120 68 1e 9c bc 79 7d c4 bc ee 6d 1c bd 1d d0 31 3d
       -0.019057468 -0.023985611 -0.038190775 0.043411363
000130 e7 4b 24 3d 9e 43 34 3c 55 02 0b 3d 47 da f7 bc
       0.04011145 0.011002449 0.03393777 -0.03025545
000140 d0 63 0e 3d 79 6f 4c 3b 93 1c 27 bd 4c 4b 32 3d
       0.034763157 0.0031194373 -0.040798735 0.04352884
000150 0f ca 92 3d 72 3d 5a bd c1 57 d2 3b fd 47 d3 bb
       0.07167446 -0.053281255 0.0064191525 -0.0064477907
000160 a4 52 8b bc f9 0f 7c bc 66 a2 9d 3c 22 b3 a2 3d
       -0.01700718 -0.015384668 0.019242477 0.07944323
000170 12 dd 2c 3d fa 88 1e bd 34 50 a0 bd ca de 47 3d
       0.042203017 -0.03870485 -0.078277975 0.048796453
000180 4b b7 b2 3c 2f 4e 8a 3d 5c ef 80 3d 68 e7 ff 3c
       0.021815917 0.067531936 0.06295654 0.031238273
000190 63 61 60 3d 41 c8 b9 3c b0 8a 6c bc 7d 44 3b bd
       0.054780375 0.022678496 -0.014437363 -0.045719612
0001a0 21 f3 85 3d 16 fd 0a bb 80 ae 48 bc f7 93 cf 3b
       0.06540514 -0.002120798 -0.012248635 0.0063347775
0001b0 75 dd 02 bc 2c 60 fd 3c f0 b6 3b 3d 85 3a dc 3c
       -0.00798737 0.030929647 0.04582876 0.026883373
0001c0 fc 75 8e bd 95 8e 0b 3d f6 88 ba 3c 91 2b ae bd
       -0.069560975 0.034071524 0.022770386 -0.085044034
0001d0 81 b1 f2 bc 1e 84 b3 bc 3b c9 ac 3c 02 ea e5 3c
       -0.029625656 -0.021913584 0.021092048 0.028065685
0001e0 9f e6 8b bc dc 45 5f 3d 8d 7c 25 3d 76 9b a2 bd
       -0.017077742 0.054509982 0.040401984 -0.07939808
0001f0 ae 68 3f 3c 74 c0 80 3d c3 e2 9f 3c 61 f1 5f bc
       0.011682672 0.062867075 0.019517308 -0.013668389

fc3.weight f4 [2, 128]
000000 a0 ef d8 bd 58 18 87 3c 38 56 1e 3d a4 08 70 be
       -0.1059258 0.0164911 0.038656443 -0.23440796
000010 1c 74 63 3d b3 4b 8b 3d bb ce 86 3c 8d f6 59 3c
       0.055530652 0.06801548 0.016455999 0.013303411
000020 c4 cd 17 be a7 00 e0 bd b2 8b 5d bc d8 88 a1 3c
       -0.14824587 -0.109376244 -0.0135220755 0.019718572
000030 2b 05 75 3e 96 b9 9b 3d 34 17 c2 3c 5a 25 db be
       0.23927753 0.07603757 0.023692705 -0.42801934
000040 90 b0 47 3d 2c d0 bf bd af 6a 55 3e c1 32 3d bd
       0.048752367 -0.093658775 0.20841478 -0.04619098
000050 c8 d0 7c 3d 29 43 a1 3d 75 22 59 bd 16 53 79 bd
       0.061722547 0.07874138 -0.053011376 -0.060870253
000060 f1 f3 53 be 78 af ed bd 91 7d 25 be 88 a9 22 3d
       -0.20698525 -0.11605734 -0.16161181 0.03971246
000070 e6 d2 15 3e b5 1c 16 3a 77 86 a4 3d 4e 34 42 bd
       0.14631233 0.00057263236 0.0803346 -0.047413163
000080 93 09 0a bd aa 56 cb 3c e2 5a d2 bb f2 75 0c 3d
       -0.033700537 0.024821598 -0.0064195255 0.03429217
000090 bc b0 fa 3c d0 47 6d 3d a7 98 84 bd 85 9a f0 bc
       0.030601852 0.057929814 -0.064744286 -0.029370556
0000a0 fc ba 34 be 9a cc f7 3c 1e f8 a4 bb f8 b4 ba 3c
       -0.17649454 0.030248929 -0.0050344607 0.02279137
0000b0 7c 71 53 3e bc cf 98 bd 3a 36 dc 3c df f4 4e bd
       0.2064876 -0.07461497 0.026881326 -0.050526496
0000c0 2e 77 d9 bc 73 31 41 bd a5 73 29 bc dd d9 57 bd
       -0.026546087 -0.0471663 -0.010342513 -0.052698005
0000d0 f8 1f 37 3d ca 02 25 bd 6a cb f4 3c 3a 5c 2a be
       0.044708222 -0.040285863 0.029882152 -0.16636744
0000e0 de 99 49 bd 39 49 9c bd e1 87 9f 3b 87 09 3e bd
       -0.049219005 -0.076311536 0.004868493 -0.046395805
0000f0 83 1e 75 bc d6 b8 5d bc c9 ac a2 3d aa f0 b5 bd
       -0.014960888 -0.013532838 0.079431124 -0.08883794
000100 ef 89 1d 3d 88 95 23 3e d6 64 df be d9 3f 81 be
       0.03846162 0.1597501 -0.4363162 -0.25244024
000110 00 ef d6 3c 02 57 af bb 83 37 80 bc 52 2a 30 3d
       0.026237011 -0.0053509483 -0.01565147 0.04300911
000120 e1 53 cd 3d bf 2f 74 3d 6c 7d 84 bd 46 c2 b0 3d
       0.10025764 0.059615847 -0.06469235 0.08630805
000130 e0 98 31 be 16 c4 0c bc 68 4b b5 bb 95 46 11 bd
       -0.17343473 -0.008591672 -0.0055326708 -0.035467703
000140 84 3a 3c 3d 5b 8c 17 bd 55 4b 04 3d 11 9a b9 bc
       0.045954242 -0.036999088 0.032298405 -0.022656472
000150 c8 5f 25 3e 93 3c 86 bd b0 f6 d9 bc 51 5b 47 be
       0.16149819 -0.06554522 -0.026606888 -0.19468428
000160 a7 e9 81 3c 66 db cf bc 17 58 36 3d 87 4d 09 3d
       0.015858484 -0.025373172 0.044517603 0.0335212
000170 61 c3 16 3d a8 9b 83 bd ba 05 ae 3e 0e 18 e0 3d
       0.03680742 -0.064261734 0.33988744 0.10942088
000180 18 4a 50 bd 76 26 4f 3d cb 41 d8 bb 99 63 17 bd
       -0.05085191 0.05057379 -0.00659964 -0.036960218
000190 db 4d fd 3b f9 c1 1a be 25 fd d4 bd 5e e4 71 3e
       0.0077302284 -0.15113057 -0.10399846 0.23622271
0001a0 e2 d7 c4 3c e4 1e 51 bd 47 0a 4c bd 95 cf f5 bd
       0.024028722 -0.05105485 -0.04981449 -0.12002484
0001b0 92 63 51 3d 00 2e 2c 3d bd eb b8 3c 78 56 10 bd
       0.05112035 0.042036057 0.022573346 -0.035238713
0001c0 90 9a 2c bd 0f e0 34 3b 65 57 ad 3c 3b da 02 be
       -0.04213959 0.002759937 0.021159837 -0.12778561
0001d0 34 f0 03 bd d3 70 5c bd 75 90 97 3e 0c bc 38 bd
       -0.032211497 -0.053818535 0.296024 -0.04510121
0001e0 2a e9 01 3e d3 d4 f5 3c 18 b9 c7 bc 79 b6 35 bd
       0.12686601 0.030008709 -0.024380252 -0.044363473
0001f0 9d 14 f6 3c ff 01 4a 3c c7 68 21 bd 17 f7 8f bd
       0.030039126 0.0123295775 -0.039406564 -0.070295505
000200 cc 36 ae 3d 85 e0 e6 bd 3c 7c 6d 3e 1c ef 05 3e
       0.085065454 -0.112732925 0.23191923 0.13079494
000210 24 6a 58 3d 41 10 9b be 96 5c f5 bb 4b ea 9c 3b
       0.0528356 -0.30285838 -0.0074878437 0.004788672
000220 63 48 64 be 2b b0 10 be 82 21 91 be 31 11 52 bd
       -0.22293238 -0.14129703 -0.28345877 -0.051285926
000230 f3 fd a7 3d d8 94 df bd 57 b5 87 3d a4 cf 2a be
       0.08202734 -0.109170616 0.06626385 -0.16680771
000240 f5 22 64 3d 35 24 52 be ff 51 10 be 65 1e 10 be
       0.0556974 -0.20521624 -0.14093779 -0.14074095
000250 b8 95 74 3e 5e 30 80 bd 07 78 05 3d 34 31 10 be
       0.23885238 -0.06259225 0.03258517 -0.1408127
000260 de a7 bf 3d 23 d2 0e 3e 89 b8 e4 bd 5b 9c 82 3d
       0.0935819 0.13947348 -0.1116801 0.06377479
000270 70 32 ad bd 2e 00 5d be ad a4 93 3d bd c9 28 bc
       -0.08456886 -0.215821 0.07209144 -0.010302004
000280 a9 a3 e8 bd a2 f4 a1 be 36 37 53 3d 79 63 c3 3b
       -0.11359341 -0.31631953 0.051566325 0.005962786
000290 f8 f3 9b bd ed 8c 07 bd 1a 3f 8e bd 47 a0 2a be
       -0.07614893 -0.03309338 -0.069456294 -0.16662703
0002a0 23 9f 97 3d 94 f7 84 3d cb 7a 6e 3d 74 75 9e 3d
       0.074034 0.06492534 0.058222573 0.07737246
0002b0 dd b4 ac be 34 30 25 bd 63 98 1c 3d 36 1a 23 3d
       -0.33731738 -0.040329173 0.038231265 0.03981992
0002c0 73 de 8d bd 66 8a 57 3d da 26 89 3d 85 a9 a7 bd
       -0.069271944 0.05262222 0.066968635 -0.0818663
0002d0 66 a0 ae bd 50 cd d7 bd 81 1d 3f 3d 55 91 e5 3d
       -0.08526687 -0.10537207 0.046658996 0.112093605
0002e0 b7 01 31 be f0 cd fb bc e8 f3 5d be 1e 32 5b 3d
       -0.1728581 -0.030737847 -0.21675074 0.053514592
0002f0 d8 55 a3 3d 65 e9 16 be 5c b5 1b be d8 8f 77 3d
       0.07975358 -0.1473747 -0.15205902 0.060439914
000300 97 7e 7d be 60 d8 89 be 3d ab bc bd 47 c7 02 bb
       -0.24755321 -0.26922894 -0.092123486 -0.0019955204
000310 cb 86 91 3d 32 4a a2 be a6 2f 81 be 28 db d6 3b
       0.07105788 -0.31697232 -0.25231665 0.006556887
000320 2d a6 49 be d9 e0 94 be 74 18 2f 3d ed e6 81 bd
       -0.19692297 -0.29077795 0.04274793 -0.06342874
000330 5b 68 a5 bd d2 c6 d0 3d 34 7b 52 be ed e7 6f bd
       -0.08076545 0.10194172 -0.20554811 -0.05857079
000340 ff 10 f1 bd 5a 84 6a 3d 49 2b 61 be 0e ae 1a be
       -0.1177082 0.057255127 -0.21989168 -0.15105459
000350 43 81 cf 3d 4e 86 9a bd 65 17 d7 3c 40 72 29 bd
       0.101320766 -0.07545148 0.026256273 -0.041368723
000360 00 c6 87 3d 6f c3 10 bd cd d2 0b 3d 7d 33 fa bd
       0.066295624 -0.03534263 0.034136582 -0.12216852
000370 12 ad 32 3d 5e 72 d6 bd f8 a7 24 be 67 e8 89 bc
       0.043622084 -0.104710326 -0.160797 -0.01683445
000380 e3 06 4a bd 93 a0 1a be cb 34 13 be 22 d2 6a 3d
       -0.049322974 -0.15100317 -0.14375608 0.057329305
000390 ff 82 94 be 8a a9 87 bd f4 8d 6f be 19 22 3f bd
       -0.29006192 -0.06624134 -0.23393995 -0.046663377
0003a0 9f 4b 78 3d ad 58 65 bd 29 c5 44 3d d1 47 ae 3c
       0.060618993 -0.05599277 0.04803959 0.02127448
0003b0 79 3c c9 bd f1 78 71 bc 31 21 8e 3d bb 99 33 3e
       -0.09825987 -0.014738307 0.069399245 0.17539112
0003c0 a5 04 b6 3c 85 b2 6c 3d 97 43 86 3d be 35 15 bd
       0.022219012 0.057787437 0.065558605 -0.036428206
0003d0 7a e8 78 3d e1 81 ad bd 20 95 5c 3d 3a 8c 24 bd
       0.060768582 -0.08472038 0.053853154 -0.040172793
0003e0 1b 4d ce bd 7b 3a dd bd bf a4 09 bc 1f 29 1f bd
       -0.100733005 -0.1080217 -0.008401095 -0.038857576
0003f0 5e e6 55 3d 4f 30 28 be ac c0 53 3d 4b a5 1f bd
       0.05222165 -0.16424678 0.051697418 -0.038975995

fc3.bias f4 [2]
000000 1a 4f e8 3c ea 3d 58 bc
       0.028358031 -0.013198355
