MADDPG/checkpoints/checkpoint_critic_1.pth (torch, 451791 bytes, 7 tensors)

fcs1.weight f4 [256, 48]
0	0xbdfe41b7	-0.12414878
1	0xbde14a76	-0.110005304
2	0x39bed829	0.00036400676
3	0x3e24e05f	0.16101216
4	0x3d17157c	0.036885723
5	0x3e55b977	0.2087153
6	0xbd0407cb	-0.032233994
7	0xbc4a7009	-0.012355813
8	0xbe4a34c2	-0.19746688
9	0x3e0019c7	0.12509833
10	0xbd385736	-0.045005046
11	0xbb9fbce7	-0.004874814
12	0xbe16f16c	-0.14740533
13	0xbe9da7df	-0.30792138
14	0x3ca0721f	0.019585667
15	0x3db72d08	0.08944136
16	0x3d43cd7e	0.047803394
17	0x3e175bf5	0.14781173
18	0x3dab7574	0.08372012
19	0xbe3e8de3	-0.18608813
20	0xbeb61d6d	-0.35569325
21	0xbf34bcb2	-0.70600426
22	0xbdaa6b14	-0.08321205
23	0xbd679d39	-0.056546424
24	0x3cba3b57	0.022733374
25	0xbf2c2074	-0.6723702
26	0x3d62b7a2	0.055350907
27	0x3e03c50c	0.12868136
28	0x3d73b64e	0.05950003
29	0x3e8f6f92	0.2801481
30	0xbd07743f	-0.033069845
31	0x3e2b34e6	0.16719398
32	0x3d5b1140	0.053483248
33	0xbef08665	-0.46977535
34	0x3d74b30b	0.05974106
35	0x3d7f90e7	0.06239405
36	0x3e8effba	0.2792948
37	0xbdd8549e	-0.105630144
38	0xbd56e27f	-0.052462097
39	0x3dca69fa	0.09883495
40	0xbcb481fb	-0.022034636
41	0xbf1aad9f	-0.60421175
42	0xbdbc58b2	-0.09196605
43	0x3e966981	0.29377368
44	0x3e8a35ad	0.26994076
45	0xbf2f7fda	-0.6855446
46	0xbcb59543	-0.0221659
47	0x3dcbc30c	0.099493116
48	0xbd84c3a2	-0.064826265
49	0xbe8b5369	-0.27212074
50	0x3c3f4cd9	0.011676037
51	0xbde60307	-0.11231046
52	0x3d8f6362	0.07001378
53	0xba8636e9	-0.0010239753
54	0xbd020c22	-0.031749852
55	0xbc91b746	-0.017787587
56	0x3c1f9983	0.00974119
57	0xbe197709	-0.14986815
58	0x3d519f0d	0.051177073
59	0x3d9b0e7c	0.07571122
60	0xbe00a4fa	-0.12562934
61	0x3c82415b	0.015900305
62	0x3db6131e	0.08890365
63	0x3e216731	0.1576202
64	0x3ed139d4	0.40864432
65	0xbd3d1d47	-0.0461705
66	0x3d1a4eb6	0.03767272
67	0xbe4c4031	-0.19946362
68	0xbf05d8ab	-0.52283734
69	0xbe34a878	-0.1764239
70	0x3d094abe	0.033518545
71	0xbc23fe19	-0.010009312
72	0x3dd7ecd6	0.1054322
73	0xbf497a0a	-0.7870184
74	0x3ce79b36	0.028272253
75	0x3dbaf233	0.09128227
76	0xbe819664	-0.2531005
77	0xbdd63277	-0.10458844
78	0xbdc5959b	-0.096476756
79	0xbd962967	-0.073321156
80	0x3e411250	0.18854642
81	0xbf248c01	-0.6427613
82	0xbd3a5581	-0.0454917
83	0x3dab1a41	0.08354617
84	0xbd1b6c83	-0.03794528
85	0x3d85e48f	0.06537735
86	0x3be9a961	0.0071307872
87	0x3d0e6243	0.03476168
88	0x3de9824a	0.11401804
89	0xbf1f2ba7	-0.62175983
90	0x3d0e4487	0.03473332
91	0x3ec6daf5	0.38838926
92	0x3f06ab85	0.5260547
93	0xbe96ee3f	-0.29478642
94	0xbdd75766	-0.10514717
95	0x3e6cf53e	0.23140427
96	0x3e5b5957	0.21420799
97	0x3c977151	0.01848665
98	0xbe29a9d6	-0.16568694
99	0xbea388d0	-0.31940317
100	0x3baca7bd	0.0052690194
101	0xbcf13bc9	-0.029447453
102	0x3cd5c45f	0.026094614
103	0xbe0e5e46	-0.1390315
104	0x3dd1546a	0.10221179
105	0x3e1e44cc	0.15455931
106	0xbe114866	-0.14187774
107	0xbdc56c87	-0.096398406
108	0x3dc9af69	0.0984791
109	0xbc38160f	-0.011235728
110	0xbe143dea	-0.14476743
111	0x3cde4913	0.027134454
112	0x3d80427a	0.062626794
113	0x3d85e84b	0.06538447
114	0xbdcbaf8d	-0.09945593
115	0x3ec4dd83	0.3845025
116	0x3db5e20b	0.08881005
117	0xbe4980fb	-0.19678108
118	0xba8032d7	-0.0009780776
119	0x3edde1d1	0.43336347
120	0xbd461df2	-0.0483684
121	0xbece2e6f	-0.402698
122	0xbd696198	-0.05697784
123	0xbe0aa993	-0.1354125
124	0xbd519c88	-0.05117467
125	0xbe52c15c	-0.20581573
126	0xbd48fd46	-0.049069665
127	0xbe18771c	-0.14889187
128	0xbd9af49b	-0.07566186
129	0xbf1caf8e	-0.61205375
130	0xbe00a0fd	-0.12561412
131	0x3d0c76ae	0.03429287
132	0x3d76304f	0.060104664
133	0xbe2cc721	-0.16872837
134	0x3d0a9426	0.03383269
135	0x3e17fad3	0.14841776
136	0x3e21d530	0.15803981
137	0xbf05df35	-0.5229371
138	0x3d759d46	0.05996444
139	0x3dd21c33	0.10259285
140	0xbe0778f5	-0.13229735
141	0xbdce00d7	-0.10058754
142	0x3cf37323	0.029717987
143	0x3d98e1bb	0.0746493
144	0x3d68974f	0.056784924
145	0xbe09dccd	-0.13463135
146	0xbd71b052	-0.059006043
147	0xbb8b72c3	-0.004255624
148	0xbf2212a6	-0.63309705
149	0x3d1255e9	0.03572646
150	0x3d66a586	0.0563102
151	0x3df26f7d	0.11837671
152	0xbce7cbb4	-0.028295375
153	0xbe3f00f1	-0.18652703
154	0xbdf64181	-0.12024213
155	0xbd5d6ef7	-0.054060902
156	0xbfedf546	-1.8590477
157	0x3e34bfec	0.17651337
158	0x3e008516	0.12550768
159	0xbd925f64	-0.071471006
160	0xbc98f091	-0.018669399
161	0xbe750879	-0.23929013
162	0xbd036f84	-0.03208877
163	0x3e69908c	0.22809047
164	0xc00508b4	-2.0786562
165	0xbd0bb1ef	-0.034105238
166	0x3d051a40	0.032495737
167	0x3e82aff2	0.2552486
168	0x3d74c059	0.05975375
169	0x3d5974bd	0.053089846
170	0xbdbfc31c	-0.09363386
171	0xbc3e4584	-0.0116132535
172	0x3ece4bf6	0.4029233
173	0x3dfcd80c	0.12345895
174	0x3db4a946	0.08821349
175	0xbda1db70	-0.079031825
176	0x3b254303	0.0025216944
177	0xbd7123d5	-0.058872063
178	0xbafb147a	-0.0019155883
179	0x3d57f5ea	0.052724756
180	0x3ff741ea	1.931699
181	0xbd582617	-0.0527707
182	0x3c213cdd	0.009841171
183	0x3dbfe9c9	0.09370763
184	0xbcfccdfa	-0.030859936
185	0xbe37dca6	-0.17955264
186	0xbc87fa09	-0.016598718
187	0xbdd2d434	-0.10294381
188	0x40052228	2.0802097
189	0xbdc177d7	-0.09446686
190	0x3cb89547	0.022532118
191	0x3d82e122	0.06390597
192	0x3e2108e3	0.15726046
193	0x3e66d969	0.22543873
194	0xbd188fd9	-0.03724656
195	0xbdfc18ca	-0.12309416
196	0xbeb5079b	-0.35357365
197	0xbe40a326	-0.18812236
198	0xbc456b9e	-0.012049584
199	0xbdfd3b96	-0.12364881
200	0x3e26f20d	0.16303273
201	0x3d969e1d	0.073543765
202	0xbb7020d9	-0.0036640672
203	0xbead579f	-0.33855912
204	0xbde11bd3	-0.10991635
205	0xbead7c95	-0.3388411
206	0xbd38cae5	-0.04511537
207	0xbe6f42e6	-0.23365363
208	0x3d974e7d	0.07388017
209	0x3dcbdb3d	0.09953926
210	0x3bbd3008	0.005773548
211	0xbeab79b1	-0.3349128
212	0x3e8f27d9	0.2796009
213	0xbe151517	-0.14558826
214	0xbdc72644	-0.097240955
215	0xbe3403f0	-0.17579627
216	0x3e8966cb	0.26836237
217	0x3e8427c5	0.25811592
218	0x3e0ba483	0.13636975
219	0x3e10967c	0.14119905
220	0x3e9cfe77	0.3066289
221	0xbe30b340	-0.17255878
222	0x3e243567	0.16035996
223	0xba512cbb	-0.00079793826
224	0xbce43612	-0.027857814
225	0x3e9e6db5	0.30943075
226	0xbdfe924a	-0.12430246
227	0x3c877c93	0.016538894
228	0x3c26d42f	0.010182424
229	0xbe4aa960	-0.19791174
230	0xbcb502e4	-0.022096105
231	0x3dba51c5	0.090976276
232	0xbd9ff511	-0.078104146
233	0x3ea3a0dc	0.31958663
234	0x3df8acf7	0.121423654
235	0x3e61b0d7	0.22040115
236	0xbe3feb83	-0.18742184
237	0xbe81ff61	-0.2539015
238	0xbe01a24f	-0.12659572
239	0x3e8140d0	0.2524476
240	0xbd65b5a1	-0.056081418
241	0x3e62cc57	0.22148262
242	0x3d28fbc0	0.041255713
243	0x3daa671f	0.0832045
244	0x3e7bf5dc	0.24605507
245	0xbdaa0fcb	-0.083037935
246	0xbd7472de	-0.05967986
247	0x3e8102aa	0.25197345
248	0xbdca9bb9	-0.09892983
249	0x3e842284	0.25807583
250	0xbd9c745d	-0.07639382
251	0x3dbdfa0f	0.092762105
252	0xbde72e47	-0.112881236
253	0xbde5eb57	-0.11226528
254	0x3d9ee991	0.07759393
255	0x3e76b666	0.24093017

fcs1.bias f4 [256]
0	0x3b5dc09c	0.0033836728
1	0x3ced3904	0.028957851
2	0xbe20e4a5	-0.15712221
3	0x3d3c172f	0.045920547
4	0x3d249711	0.04018313
5	0x3cb144a2	0.021639172
6	0x3e9bfa22	0.30464274
7	0x3bf12658	0.0073593073
8	0xbe3141b0	-0.17310214
9	0xbd6efbc7	-0.058345582
10	0xbd06ff01	-0.032958034
11	0x3b96ff6d	0.004608086
12	0xbd31dde6	-0.04342451
13	0xbdf150eb	-0.11783012
14	0xbdc0d32b	-0.09415277
15	0x3c505047	0.012714452
16	0x3e476d49	0.19475283
17	0xbd865d48	-0.06560761
18	0xbd2948ff	-0.04132938
19	0xbdddf8b9	-0.10838456
20	0xbe3421a5	-0.1759096
21	0xbde09d9b	-0.10967561
22	0x3d35184e	0.044212632
23	0xbeb3e910	-0.3513875
24	0x3e29bdc0	0.1657629
25	0xbe3d0adb	-0.18461172
26	0xbe774f52	-0.24151352
27	0xbe79873c	-0.24367994
28	0xbd14ded8	-0.036345333
29	0xbdee6d5e	-0.11641954
30	0xbe83247c	-0.25613773
31	0x3e622861	0.22085716
32	0xbdb3bf41	-0.08776713
33	0x3d23208a	0.039825954
34	0xbc892b1d	-0.01674419
35	0xbe8613d3	-0.26187
36	0x3e848bfb	0.25888047
37	0x3e09e870	0.13467574
38	0xbe8dc57e	-0.27689737
39	0x3d3a20bb	0.04544137
40	0xbe58866b	-0.21145026
41	0xba2feb0f	-0.00067107467
42	0xbe23612d	-0.15955038
43	0xbe4a1cd8	-0.19737566
44	0x3d94d48a	0.07267101
45	0x3e8700e8	0.2636788
46	0xbc2d8cbc	-0.010592636
47	0xbe38822a	-0.18018404
48	0xbb6fe5d0	-0.0036605485
49	0xbd6abbd6	-0.05730804
50	0x3e5c4359	0.21510066
51	0x3d7035fb	0.05864523
52	0x3e3dc04c	0.18530387
53	0xbdcafe60	-0.099117994
54	0xbe9a1bd2	-0.3009935
55	0xbd00a435	-0.0314066
56	0xbdb63e16	-0.08898561
57	0xbdd79175	-0.105257906
58	0xb97d4f6f	-0.00024157552
59	0x3cfde393	0.030992305
60	0xbe9f7402	-0.31143194
61	0xbe23df4c	-0.1600315
62	0x3c847289	0.016167896
63	0xbe0e3622	-0.13887838
64	0xbe6c44b9	-0.2307309
65	0xbe07bbf8	-0.13255298
66	0xbdcfedb2	-0.10152759
67	0x3dcdc76f	0.100478046
68	0x3db4a662	0.088207975
69	0xbe9c57d2	-0.30535752
70	0xbdb64de3	-0.089015745
71	0xbdc20e45	-0.09475378
72	0xbe5f1bbe	-0.21787927
73	0xbca18210	-0.019715339
74	0xbd57240f	-0.052524623
75	0xbec6ceb5	-0.3882958
76	0x3e1eccb1	0.15507771
77	0xbd6bfb24	-0.057612553
78	0x3e1b5f2f	0.15173028
79	0xbdfdb55f	-0.123881094
80	0x3cd4ac75	0.02596114
81	0x3ddc2c15	0.107505955
82	0x3d07ce30	0.03315562
83	0xbdee9b1e	-0.1165068
84	0xbe6adfc4	-0.22936922
85	0x3df30e17	0.11867922
86	0xbe8ae742	-0.2712956
87	0xbea4f099	-0.3221481
88	0xbe601a65	-0.21885069
89	0xbe670268	-0.22559512
90	0x3e15c540	0.14626026
91	0xbd944ef5	-0.07241622
92	0xbe96756d	-0.29386464
93	0xbc8f19f0	-0.017468423
94	0xbdfb0b2e	-0.12257992
95	0xbe82f6d4	-0.2557894
96	0xbe8c6d87	-0.27427313
97	0xbe2e660e	-0.17031118
98	0x3d024bd1	0.031810585
99	0xbe022cf3	-0.1271246
100	0x3e3e41a9	0.18579735
101	0x3c6b876d	0.01437555
102	0xbe8b4f10	-0.27208757
103	0xbd3091d4	-0.043107823
104	0xbeaae722	-0.33379465
105	0x3e3e810a	0.18603912
106	0xbec539be	-0.38520616
107	0x3dcbb021	0.09945703
108	0xbda21fad	-0.07916198
109	0xbe41fe5a	-0.18944684
110	0xbe125ad9	-0.14292468
111	0xbd450387	-0.048099067
112	0xbecbeb2e	-0.39827865
113	0xbe53cd8f	-0.20683883
114	0x3d8bb844	0.06822255
115	0xbe1515f4	-0.14559156
116	0xbe2aad77	-0.16667734
117	0xbdddd67c	-0.10831925
118	0xbc21143e	-0.009831486
119	0xbeb2983c	-0.3488177
120	0xbe3d10e0	-0.18463469
121	0xbe3c53f9	-0.18391408
122	0xbdc1426a	-0.094364956
123	0x3e3db9a2	0.18527845
124	0xbe18262f	-0.14858316
125	0x3bc0dfd3	0.005886057
126	0x3bdc4dac	0.0067231264
127	0xbdf9e386	-0.122016
128	0xbcc4160c	-0.023936294
129	0x3e719ebc	0.23595709
130	0xbdd7a022	-0.1052859
131	0xbe4791e0	-0.1948924
132	0xbda94592	-0.082652226
133	0xbdb9aa52	-0.09065689
134	0xbe420086	-0.18945512
135	0x3b48e393	0.0030653223
136	0xbe91a4b4	-0.2844597
137	0x3e0eaae4	0.13932377
138	0xbe308bca	-0.17240825
139	0xbdd769e9	-0.10518248
140	0x3ec1e39b	0.37868962
141	0xbaffa689	-0.0019504587
142	0xbe67c7a3	-0.22634749
143	0xbf053857	-0.5203909
144	0xbe4a451a	-0.19752923
145	0xbe63561e	-0.2220082
146	0xbdea628b	-0.11444577
147	0xbeb14651	-0.3462396
148	0x3e6bc4b9	0.23024262
149	0x3e21840a	0.15773025
150	0xbd9de033	-0.07708778
151	0x3dfaf11f	0.122530214
152	0xbdcec276	-0.10095684
153	0xbe24e4d4	-0.16102916
154	0x3e90b601	0.28263858
155	0xbe35a076	-0.17736992
156	0xbe55316d	-0.20819636
157	0xbed84d2e	-0.42246383
158	0xbdd97eb8	-0.10619873
159	0x3e30cb12	0.17264965
160	0x3e8de7f9	0.27716044
161	0x3d7c8bd1	0.061656777
162	0xbe22c8f8	-0.15896976
163	0xbda001f1	-0.0781287
164	0x3ec4562b	0.3834699
165	0x3cde6df2	0.027152035
166	0xbc74710a	-0.014919529
167	0xbd35dffb	-0.044403058
168	0xbe2433f6	-0.16035447
169	0xbe527499	-0.20552291
170	0x3d6c2801	0.05765534
171	0x3e1965dd	0.14980264
172	0x3e7215ce	0.2364113
173	0xbe5152f3	-0.20441799
174	0x3dd5e348	0.10443741
175	0xbd118b38	-0.03553316
176	0x3e1347c1	0.1438284
177	0xbe211e87	-0.15734302
178	0xbe73c871	-0.23806931
179	0x3ce95013	0.028480565
180	0xbeaa46da	-0.3325718
181	0xbe2a86ea	-0.16653028
182	0xbe99ceec	-0.3004068
183	0xbda56bbc	-0.08077189
184	0xbdadf3c0	-0.08493757
185	0x3d5e002a	0.054199375
186	0x3e5b1d28	0.21397841
187	0xbd03e60f	-0.032201823
188	0xbd29c2fc	-0.041445717
189	0x3df3c7db	0.11903354
190	0x3cbe21c6	0.023209464
191	0xbe612218	-0.21985662
192	0xbebc4525	-0.36771503
193	0xbe21e891	-0.15811373
194	0x3d64f115	0.055893976
195	0xbe8fcfe3	-0.28088292
196	0xbe1b7e39	-0.15184869
197	0xbb9e3f0b	-0.0048292927
198	0x3e232c94	0.15934974
199	0xbd8bb68f	-0.0682193
200	0x3e906d08	0.28208184
201	0xbe5b68ac	-0.21426648
202	0xbe68e2bb	-0.22742741
203	0xbd8cc768	-0.06873971
204	0x3e13bc70	0.14427352
205	0xbe1d4a42	-0.15360358
206	0xbe14aa59	-0.14518107
207	0xbebccea3	-0.368764
208	0xbd8a175c	-0.06742737
209	0x3e4e020f	0.20117973
210	0xbeb4b7f1	-0.35296586
211	0x3d2ab34f	0.04167491
212	0xbe757f3a	-0.23974314
213	0xbd87b163	-0.06625631
214	0xbbf41038	-0.0074482225
215	0xbdf1db9e	-0.11809467
216	0xbea0d204	-0.3141023
217	0x3e3fd26c	0.18732613
218	0x3e7cce7d	0.24688144
219	0xbe92d50e	-0.28678173
220	0x3eca8280	0.3955269
221	0xbe80e673	-0.2517582
222	0xbe04ef0b	-0.12981813
223	0xbdb183af	-0.08667695
224	0xbe669781	-0.22518732
225	0xbe5b2bb1	-0.21403386
226	0xbe047f13	-0.129391
227	0xbe659989	-0.2242185
228	0xbcd79bcd	-0.026319409
229	0x3e3a2693	0.18178777
230	0xbca50ef2	-0.020148728
231	0xbceab822	-0.028652254
232	0xbc02d744	-0.007985894
233	0x3dc1954a	0.09452303
234	0xbdf40286	-0.11914544
235	0xbd1e2f5f	-0.038619395
236	0xbe6cd6c8	-0.23128808
237	0x3d97822d	0.07397876
238	0x3d3ce17d	0.04611348
239	0x3e5847df	0.21121167
240	0xbb7eedbf	-0.0038899032
241	0xbe3edc90	-0.18638825
242	0x3e271c65	0.16319425
243	0xbdef4660	-0.11683345
244	0x3cd10f6d	0.02552005
245	0xbd10deb3	-0.035368633
246	0x3d4d2449	0.050083432
247	0xbf29e107	-0.6635899
248	0x3d83880d	0.06422434
249	0xbe4b2acc	-0.19840544
250	0xbde1d232	-0.1102642
251	0xbddb9323	-0.107214235
252	0xbed22c5f	-0.41049477
253	0xbf1af1d5	-0.60525256
254	0xbe796efb	-0.24358742
255	0xbe808494	-0.2510115

fc2.weight f4 [256, 260]
0	0x3dfbcb6d	0.1229466
1	0xbdf58ba1	-0.11989523
2	0x3d999771	0.07499588
3	0xbed05414	-0.40689147
4	0x3e43ff33	0.1914032
5	0xbdbf803e	-0.09350632
6	0x3cc4741f	0.023981152
7	0x3dea394b	0.11436709
8	0x3e18a895	0.14908059
9	0xbe631c85	-0.22178848
10	0xbe538e28	-0.20659697
11	0x3ddf41f5	0.10901252
12	0xbe565941	-0.20932485
13	0x3d8cd16b	0.06875881
14	0xbe0e04de	-0.13869044
15	0xbe6b32b5	-0.22968562
16	0xbdc0d6c3	-0.094159625
17	0xbe029b8a	-0.12754646
18	0x3cd25816	0.025676768
19	0x3d93915a	0.07205458
20	0x3c1f90a8	0.009739079
21	0x3be9cf7c	0.00713533
22	0xbd83c2ec	-0.06433663
23	0x3e830624	0.25590622
24	0x3dc15d00	0.094415665
25	0x3c455fea	0.0120467935
26	0x3d172462	0.03689993
27	0xbe905d31	-0.281961
28	0xbdc43983	-0.09581282
29	0xbc5aa748	-0.013345547
30	0x3e0927c2	0.13394073
31	0x3e77e83f	0.24209689
32	0xbc409373	-0.011753905
33	0xbdc36022	-0.0953982
34	0x3d9705f1	0.0737418
35	0xbce75bf7	-0.028242094
36	0xbe11bcbc	-0.14232153
37	0xbd829193	-0.06375422
38	0x3c93d84a	0.01804747
39	0x3b94107a	0.0045185657
40	0xbce108ec	-0.027470075
41	0xbdb2eb13	-0.08736243
42	0x3dc3ff3b	0.09570166
43	0xbe131b19	-0.14365806
44	0xbd528793	-0.051398825
45	0xbcbd14b2	-0.023081157
46	0xbdd24dcb	-0.10268744
47	0xbd583072	-0.052780576
48	0x3c8c17e4	0.017101236
49	0x3e394339	0.1809205
50	0xbe2214f8	-0.15828311
51	0xbe441d8c	-0.19151896
52	0xbe9dadad	-0.30796567
53	0x3da2aff9	0.0794372
54	0xbda9dfdb	-0.0829465
55	0xbec40b2f	-0.38289782
56	0xbdc10eab	-0.09426626
57	0x3cd535eb	0.026026687
58	0x3e24f859	0.16110362
59	0x3c1f8375	0.009735932
60	0xbd29f2e2	-0.041491397
61	0x3d747e87	0.05969098
62	0x3dba4663	0.090954565
63	0xbddb4b79	-0.10707755
64	0xbe9da10c	-0.30786932
65	0xbdd5ce1c	-0.10439703
66	0xbcb0e24c	-0.021592282
67	0x3c43ef8b	0.011958967
68	0xbe3437a8	-0.17599356
69	0xbd299880	-0.0414052
70	0xbda533bd	-0.08066509
71	0x3e101b3a	0.14072886
72	0x3dbfa026	0.09356718
73	0x3c567497	0.013089321
74	0xbd3a8a91	-0.045542303
75	0x3d5d3d60	0.05401361
76	0xbd139b76	-0.03603693
77	0x3cc6645c	0.024217777
78	0x3e01353d	0.12617965
79	0xbdf73428	-0.12070495
80	0x3dcc6222	0.09979655
81	0x3ce4b3e9	0.02791782
82	0x3d03a3ab	0.032138508
83	0xbe9e46bb	-0.30913338
84	0x3d32216d	0.04348891
85	0x3dde2dbb	0.10848566
86	0xbc500222	-0.012695821
87	0xbd050465	-0.032474894
88	0xbcb9f320	-0.022698939
89	0x3d981823	0.07426479
90	0x3e5144f2	0.20436457
91	0xbde8ea65	-0.11372832
92	0x3d6c6c89	0.057720695
93	0xbcf4095c	-0.02978962
94	0x3dbe23f4	0.09284201
95	0xbe44ea39	-0.19229974
96	0x3e94f4a9	0.2909291
97	0xbd9c8793	-0.07643046
98	0xbe1aef6f	-0.15130399
99	0x3d9d3dc1	0.07677794
100	0x3d7aa212	0.06118972
101	0xbbd1ea9f	-0.006406143
102	0xbdb66608	-0.0890618
103	0x3ded3a39	0.11583371
104	0x3d096052	0.033539124
105	0xbe2f94cd	-0.17146607
106	0x3be0021b	0.0068361885
107	0xbcbc3411	-0.022974046
108	0x3b8c62ea	0.0042842524
109	0x3da0dd64	0.07854727
110	0x3b0e703d	0.002173438
111	0x3e24fdee	0.16112491
112	0xbd924578	-0.07142156
113	0xbd5b3142	-0.053513773
114	0x3d6edb94	0.058314875
115	0x3d2ffba8	0.042964607
116	0x3bfe9d63	0.007770227
117	0x3dd98a59	0.10622091
118	0xbd9f5db8	-0.07781547
119	0xbdd02170	-0.10162628
120	0x3ddf67ed	0.10908494
121	0x3db1dcf6	0.08684723
122	0xbd490e96	-0.049086176
123	0xbdaace7a	-0.083401635
124	0xbd0c23a3	-0.034213673
125	0x3e0773ef	0.13227819
126	0xbe111e6e	-0.14171764
127	0x39a52cde	0.0003150468
128	0xbcacc3bc	-0.021089427
129	0xbc531c4d	-0.012885165
130	0xbcba16d9	-0.022715973
131	0xbd981ec5	-0.07427744
132	0xbbfd9e66	-0.00773983
133	0x3ca5af25	0.020225117
134	0x3df6ccef	0.12050807
135	0xbd5abda4	-0.05340351
136	0xbde2399e	-0.11046146
137	0x3c65ae5d	0.014018622
138	0xbdc42a99	-0.09578437
139	0x3d7dff3f	0.062011
140	0xbe4900e8	-0.19629252
141	0x3b358130	0.002769541
142	0xbde469e5	-0.1115301
143	0x3de908da	0.113786414
144	0xbe5dcf05	-0.21661003
145	0xbf081b75	-0.53166896
146	0xbd23d501	-0.03999806
147	0x3e09b783	0.1344891
148	0xbdd45385	-0.103674926
149	0xbd934c50	-0.0719229
150	0xbdb1eb1d	-0.086874224
151	0x3ca5d3fe	0.020242687
152	0x3e4c1819	0.19931068
153	0xbdbfd54c	-0.09366855
154	0xbcb2cbf6	-0.021825772
155	0xbc40f38b	-0.011776815
156	0x3dca7d17	0.0988714
157	0x3d552d69	0.05204526
158	0xbd50a4c1	-0.05093837
159	0xbe007762	-0.12545541
160	0xbe13147c	-0.14363283
161	0xbf04f0e0	-0.51930046
162	0x3d2c6332	0.042086788
163	0xbe8f01ac	-0.27930963
164	0x3c4fbc87	0.012679226
165	0x3d2c672e	0.042090587
166	0xbbf19909	-0.0073729795
167	0xbdbc9384	-0.09207824
168	0x3c8326c5	0.016009698
169	0xbe0eef4b	-0.1395847
170	0x3d734048	0.059387475
171	0x3e0ee1e6	0.13953361
172	0xbda40590	-0.080088735
173	0x3b9b7157	0.004743736
174	0x3d65af13	0.056075167
175	0x3e05d6b0	0.13070178
176	0x3c982a23	0.01857478
177	0x3e2cca53	0.16874056
178	0x3cddab4c	0.02705922
179	0x3a9e5940	0.0012081042
180	0xbd76faab	-0.06029765
181	0xbe15ecd5	-0.14641126
182	0xbd907a15	-0.07054535
183	0xbb2eef08	-0.0026692767
184	0x3ea9bffc	0.33154285
185	0xbe2770b9	-0.16351594
186	0x3e2815d4	0.16414577
187	0x3d481339	0.048846457
188	0xbe4c305f	-0.19940327
189	0xbe31db0b	-0.17368715
190	0xbe83cd25	-0.2574245
191	0x3de44873	0.11146631
192	0xbc9173f3	-0.017755484
193	0xbdb760d9	-0.08954019
194	0x3cf02fa8	0.0293196
195	0xbca86051	-0.02055374
196	0x3d8e4431	0.069466
197	0x3e4aa9b6	0.19791302
198	0x3d46da9a	0.04854832
199	0x3d85e00f	0.065368764
200	0x3e1a5848	0.15072739
201	0xbe27cb1e	-0.16386077
202	0xbdc94fcd	-0.09829674
203	0x3c9dc6ce	0.019259837
204	0xbd7bf77d	-0.06151532
205	0x3dbf0cc5	0.093286075
206	0xbc89bc9c	-0.016813569
207	0x3d0fa0c7	0.03506544
208	0x3da091f3	0.078403376
209	0x3cd5c4b1	0.026094766
210	0x3d5901f7	0.05298039
211	0xbdeaa17e	-0.114565834
212	0x3de51507	0.11185651
213	0xbd91607c	-0.07098481
214	0x3df02e12	0.11727537
215	0x3c024d9c	0.007953074
216	0xbd60576a	-0.054770865
217	0x399c14b0	0.00029770052
218	0xbe1552be	-0.14582345
219	0x3dd59a44	0.104298145
220	0xbeb37200	-0.35047913
221	0xbd752656	-0.059851013
222	0x3df632b7	0.12021392
223	0xbd9408b5	-0.07228223
224	0x3c62d39b	0.013844396
225	0x3df1fa90	0.11815369
226	0xbe3a2eed	-0.18181963
227	0x3db38e55	0.08767382
228	0xbb3ad45f	-0.002850793
229	0xbde92a05	-0.11384968
230	0xbc9aa442	-0.018877152
231	0x3e054f6d	0.1301858
232	0x3da84ce7	0.08217793
233	0xbcdd9b36	-0.02705155
234	0x3db05631	0.0861019
235	0x3d793208	0.06083873
236	0x3eb922d1	0.36159375
237	0xbdf8bd17	-0.12145441
238	0xbdda091e	-0.1064627
239	0xbd99e966	-0.0751522
240	0xbc963708	-0.018336788
241	0x3cabb41d	0.020959908
242	0x3db5f56a	0.088847
243	0xba231c91	-0.0006222213
244	0x3daa6245	0.08319525
245	0x3d38e9cf	0.045144852
246	0xbdc8f939	-0.098131604
247	0xbda00719	-0.07813854
248	0x3dfe8447	0.12427574
249	0x3e4bb995	0.19895013
250	0x3d9ec667	0.07752686
251	0x3e3f9b4e	0.18711588
252	0x3ca5649a	0.020189572
253	0x3deb753e	0.114969715
254	0x3ce761e2	0.028244916
255	0x3bdf7284	0.0068190712

fc2.bias f4 [256]
0	0xbe39a69f	-0.18129967
1	0xbd82050d	-0.063486196
2	0xbe1c4897	-0.15262066
3	0xbd79a0f2	-0.060944505
4	0xbe703047	-0.23455916
5	0xbd9a007c	-0.07519624
6	0xbe0fc168	-0.14038622
7	0xbf1265a9	-0.5718637
8	0x3d3444f5	0.044011075
9	0xbd70cb6b	-0.058787744
10	0xbdfa1963	-0.122118734
11	0x3e4fd824	0.20297295
12	0xbe1f4f05	-0.15557487
13	0xbdd9f267	-0.10641938
14	0xbe2b8d84	-0.16753203
15	0xbb1bbd12	-0.0023763818
16	0xbf04d824	-0.51892304
17	0x3cc1829c	0.02362185
18	0xbcc38760	-0.023868263
19	0xbe258567	-0.1616417
20	0xb954dd8e	-0.00020300431
21	0x3d28c726	0.041205548
22	0xbea0e618	-0.31425548
23	0xbe4ead3c	-0.20183271
24	0xbcec133f	-0.028817771
25	0xbe83e39d	-0.25759593
26	0xbd3646ba	-0.044501044
27	0xbcac3ff4	-0.021026589
28	0xbe009f11	-0.12560679
29	0xbae46fa7	-0.0017428295
30	0x3deb5953	0.114916466
31	0xbe70b96d	-0.23508234
32	0xbc8e3fc1	-0.017364385
33	0x3b85d6dc	0.004084451
34	0xbcd31b9d	-0.025770003
35	0x3d715587	0.058919456
36	0x3da441b5	0.08020345
37	0xbd3d50af	-0.046219524
38	0x3ddcbb4a	0.1077791
39	0x3c51401b	0.012771632
40	0xbcc46f5e	-0.023978885
41	0x3d34afbc	0.044112906
42	0x3d708ff8	0.05873105
43	0xbdc1084e	-0.09425412
44	0xbd838a31	-0.06422842
45	0xbded5275	-0.11587993
46	0x3ca4bf3f	0.020110724
47	0xbd0ea88d	-0.03482871
48	0xbdb957c5	-0.09049944
49	0xbe4a5e79	-0.19762601
50	0x3d00b049	0.03141812
51	0xbde8554b	-0.11344393
52	0xbe2c1399	-0.16804351
53	0xbe5b716e	-0.21429989
54	0xbe3f6425	-0.18690546
55	0xbdaa9e9d	-0.08331034
56	0xbe22af58	-0.15887201
57	0xbe1a41fc	-0.15064234
58	0x3e9b145e	0.30288976
59	0x3e1d6a9d	0.15372701
60	0x3c3c5207	0.011494166
61	0xbde0e058	-0.1098029
62	0xbde74764	-0.112929136
63	0xbcd6314f	-0.026146559
64	0xbe197f17	-0.14989887
65	0xbe441b2e	-0.19150993
66	0x3d418b87	0.047252204
67	0xbe03a943	-0.12857537
68	0xbe2730c5	-0.16327198
69	0xbc890a4f	-0.016728548
70	0xbd70930a	-0.058733977
71	0xbdf8006b	-0.12109455
72	0xbe205f8f	-0.15661453
73	0xbd9ff5ad	-0.07810531
74	0x3d0b5daa	0.034024872
75	0xbd982af0	-0.07430065
76	0x3dc5fab7	0.09666961
77	0xbe9674d9	-0.29386023
78	0xbdf4b194	-0.11947933
79	0xbddbd9c3	-0.10734894
80	0xbe9970f9	-0.29969004
81	0x3d9bcfd8	0.076080024
82	0xbdd5141d	-0.10404227
83	0xbd9631ff	-0.07333755
84	0xbdbe6601	-0.092967995
85	0x3d17eeab	0.037092846
86	0xbeb390f2	-0.35071522
87	0x3bf704e1	0.0075384234
88	0xbd8d4491	-0.06897844
89	0x3bcb68a9	0.006207545
90	0x3d6b4ef0	0.057448328
91	0x3e3bf425	0.18354852
92	0xbe4d4376	-0.20045266
93	0xbdd486bc	-0.10377261
94	0x3d23bd28	0.039975315
95	0xbe8414e9	-0.25797203
96	0xbb8d6b6f	-0.0043157856
97	0xbe46411d	-0.19360776
98	0x3d1cf997	0.038323965
99	0xbc163563	-0.009168002
100	0xbcfcb95e	-0.030850109
101	0xbe3189c9	-0.17337717
102	0xbccfea1a	-0.025380183
103	0xbe84b1fa	-0.25917035
104	0xbdd14141	-0.10217524
105	0xbe06d1ed	-0.13166018
106	0xbb733bc3	-0.0037114478
107	0xbe398714	-0.18117934
108	0xbeb0c09b	-0.34521946
109	0xbdff75fe	-0.12473677
110	0xbca25167	-0.019814206
111	0x3d86c678	0.06580824
112	0xbde06ffd	-0.1095886
113	0xbe44a3b8	-0.19203079
114	0xbcd6ba33	-0.026211834
115	0xbd26955d	-0.040669788
116	0xbe6c9dd6	-0.23107085
117	0xbe59b657	-0.21260963
118	0x3e1e6801	0.15469362
119	0xbe1c1756	-0.15243277
120	0xbce69d67	-0.028151227
121	0xbc6876c3	-0.014188471
122	0xbe06c502	-0.1316109
123	0x3b5338a5	0.0032229808
124	0x3d5073dc	0.050891742
125	0x3d928d3b	0.07155844
126	0xbdfaff18	-0.122556865
127	0x3e41f478	0.18940914
128	0xbe1923c1	-0.14955045
129	0xbd058096	-0.032593332
130	0x3e3b5de6	0.18297538
131	0x3e08f4a2	0.1337457
132	0xbded4609	-0.11585624
133	0xbdd58938	-0.10426563
134	0xbd991ac2	-0.07475807
135	0xbd72cac9	-0.059275422
136	0xbe61cd19	-0.22050895
137	0xba41705b	-0.0007379108
138	0xbe1796f1	-0.14803673
139	0xbc2672ba	-0.010159189
140	0xbd8c3e6a	-0.06847842
141	0xbdc00ae2	-0.09377076
142	0x3d3d48fd	0.046212185
143	0xbdb5c99b	-0.08876344
144	0x3d4b3f85	0.049621124
145	0xbec3d4cf	-0.38248298
146	0x3da5ba5b	0.08092185
147	0xbe2ac596	-0.16676936
148	0xbce06771	-0.027393075
149	0xbe1ee269	-0.15516056
150	0xbd9f1dca	-0.07769354
151	0x3dbf8129	0.09350807
152	0xbdf0c484	-0.117562324
153	0x3d10af0e	0.035323195
154	0xbd75451c	-0.05988036
155	0xbe15732e	-0.14594719
156	0xbe230c5b	-0.15922682
157	0x3ce317f8	0.02772139
158	0x3d580259	0.052736614
159	0xbdcc58e6	-0.099778935
160	0xbdb35dde	-0.08758138
161	0xbe844cc7	-0.25839826
162	0xbdf8a086	-0.121399924
163	0x3ccbb610	0.024867088
164	0xbdaf9349	-0.08573014
165	0x3d1a834c	0.03772287
166	0x3e66254d	0.22475167
167	0xbe64e8f4	-0.2235449
168	0xbe04e6fd	-0.1297874
169	0xbe74b957	-0.23898827
170	0xbe359326	-0.17731914
171	0xbd3dcd9c	-0.046338663
172	0xbd84bf59	-0.06481809
173	0x3d0ea2a3	0.03482307
174	0x3cc9fe61	0.02465743
175	0xbd4ac0fb	-0.049500447
176	0xbdef7f0c	-0.11694154
177	0xbeb1689b	-0.3465012
178	0xbe17bf5e	-0.14819095
179	0xbe4902c1	-0.19629957
180	0xbc7731f2	-0.0150875915
181	0xbdc11954	-0.09428659
182	0xbde9941d	-0.114052035
183	0xbcd57e17	-0.0260611
184	0x3cf7fe73	0.030272698
185	0xbdcebb99	-0.10094375
186	0xbdc89540	-0.09794092
187	0xbe4df6c0	-0.20113659
188	0xbe8d81db	-0.27638134
189	0xbd3c851d	-0.046025384
190	0x3d152a41	0.03641725
191	0xbd00554b	-0.03133134
192	0x3d508cae	0.050915413
193	0x3d84c1c2	0.06482269
194	0xbe0e8590	-0.13918138
195	0xbba717ff	-0.005099296
196	0xbde57790	-0.11204445
197	0xbc64822a	-0.013947049
198	0xbe24137b	-0.16023056
199	0xbba3b74c	-0.004996216
200	0x3da81362	0.08206822
201	0x3dd07e9b	0.10180398
202	0xbf116011	-0.5678721
203	0x3c84a049	0.016189711
204	0xbe934763	-0.287654
205	0xbe141c01	-0.14463808
206	0x3de65104	0.11245921
207	0xbc4dd4b4	-0.012562919
208	0xbd43d011	-0.04780585
209	0xbda302ad	-0.07959495
210	0xbdc53b22	-0.09630419
211	0xbac9aa5d	-0.0015385855
212	0xbd94efd0	-0.07272303
213	0xbdc26337	-0.0949158
214	0x3dff9f0f	0.1248151
215	0xbbd36bc5	-0.006452056
216	0x3d26c661	0.040716533
217	0xbe9304ad	-0.28714505
218	0xbd6d58cf	-0.057946023
219	0xbe56e30d	-0.2098505
220	0x3d32c13f	0.043641325
221	0xbde31112	-0.1108724
222	0x3d9f5f0e	0.07781802
223	0x3d1017bc	0.035178885
224	0x3dc60540	0.0966897
225	0x3dd2c4b9	0.10291428
226	0x3e4da8d6	0.20083937
227	0x3e3032c9	0.17206873
228	0xbcb60208	-0.022217765
229	0xbe0e39b7	-0.13889204
230	0xbe5ddfe8	-0.21667445
231	0x3dc7a8d5	0.09748999
232	0xbc864ee1	-0.016395034
233	0xbea75730	-0.32683706
234	0xbb99da67	-0.004695225
235	0x3d199e8f	0.03750473
236	0xbeb00635	-0.34379736
237	0x3d612ad8	0.0549725
238	0xbeccdb7e	-0.4001121
239	0xbe49ea68	-0.19718325
240	0x3d1945ca	0.03742007
241	0xbe3fbf58	-0.18725336
242	0xbe7bc8f1	-0.24588372
243	0x3cf4e2fe	0.029893395
244	0xbd943ac5	-0.07237772
245	0xbe644406	-0.22291574
246	0xbd931774	-0.07182208
247	0x3ea21f59	0.3166454
248	0xbc834270	-0.01602289
249	0xbdccdd30	-0.10003126
250	0xbd1e2583	-0.038609993
251	0x3d603523	0.054738175
252	0x3d5ce717	0.053931322
253	0xbe5dd3f8	-0.21662891
254	0xbde08fab	-0.109649025
255	0x3d6735f3	0.056447934

fc3.weight f4 [128, 256]
0	0x3dd17f57	0.10229366
1	0x3e148863	0.14505152
2	0x3c7bb5b8	0.015363149
3	0x3da8a9f1	0.08235539
4	0xbdcd23ab	-0.10016569
5	0x3db6e60e	0.08930598
6	0xbd89f1d6	-0.0673558
7	0xbd1178ff	-0.03551578
8	0x3d3b7ea0	0.045775056
9	0x3da3ff24	0.080076486
10	0x3adbb0f9	0.0016761116
11	0xbc768fca	-0.01504893
12	0x3e527b8b	0.2055494
13	0x3d7a3d02	0.061093338
14	0x3e0454a0	0.12922907
15	0x3e642ead	0.2228343
16	0x3d3aa82f	0.04557055
17	0x3e1d0194	0.15332633
18	0xbbfdce87	-0.0077455672
19	0xbb6b1911	-0.0035873095
20	0xbd85f39d	-0.06540606
21	0xbd288cb4	-0.04114981
22	0x3c40232a	0.011727134
23	0x3d130952	0.03589756
24	0x3d697042	0.056991823
25	0xbcf07ab8	-0.029355392
26	0x3e1f2d0a	0.15544525
27	0x3de29b52	0.11064781
28	0x3e13b989	0.14426245
29	0x3da0dd0e	0.07854663
30	0x3e236d32	0.15959623
31	0x3e0aa247	0.13538466
32	0x3e4ac568	0.19801867
33	0x3df03d0b	0.11730393
34	0xbcfae443	-0.030626422
35	0xbd03a987	-0.032144096
36	0xbd03820e	-0.03210645
37	0x3e3d90ec	0.18512315
38	0x3d764b68	0.060130507
39	0x3d8bc3ee	0.0682448
40	0x3c034fca	0.008014629
41	0xbe078b73	-0.1323679
42	0xbdef51ec	-0.11685547
43	0x3d2dae59	0.0424026
44	0x3b71af4a	0.0036878162
45	0x3d817c61	0.063225515
46	0x3c48ab67	0.012247897
47	0x3dd65fa5	0.104674615
48	0x3df510a8	0.119660676
49	0x3e02086e	0.12698528
50	0x3e22d8ce	0.15903017
51	0xbcdcf45c	-0.026971988
52	0x3dce0b6d	0.10060773
53	0xbcfd4061	-0.030914487
54	0x3e065c5d	0.13121171
55	0x3e010a98	0.12601697
56	0x3ddd6590	0.10810387
57	0x3de225ce	0.11042367
58	0xbe38c2f9	-0.18043126
59	0xbd5a39f3	-0.05327792
60	0x3bfe5dca	0.0077626454
61	0x39d06594	0.00039748533
62	0x3e1ed5de	0.15511271
63	0x3a67c7c8	0.00088417204
64	0x3c41e211	0.011833684
65	0x3d35a0e3	0.044342887
66	0xbc891275	-0.016732434
67	0xbdb0f93c	-0.08641288
68	0x3cafa996	0.02144317
69	0xbddb804f	-0.10717832
70	0x3db36d90	0.08761132
71	0x3db1a3bf	0.0867381
72	0x3d309e62	0.043119796
73	0xbcffc9fc	-0.031224243
74	0x3d7aacee	0.061200075
75	0x3c67c27c	0.01414549
76	0xbc9e7347	-0.019342078
77	0x3c167508	0.009183176
78	0xbcfe2efd	-0.031028265
79	0xbdaebc75	-0.08532039
80	0x3e3c2ba9	0.1837603
81	0xbcc661a9	-0.02421649
82	0x3c9a9116	0.01886801
83	0xbd82987e	-0.06376742
84	0x3e1128d7	0.14175735
85	0xbd53e6e1	-0.051733855
86	0x3d91b202	0.071140304
87	0x3e1b5b2e	0.15171501
88	0x3c570266	0.01312313
89	0xbd78bd10	-0.06072718
90	0x3d21e065	0.03952064
91	0xbd19bc42	-0.037533052
92	0x3ddf1eee	0.10894571
93	0xbc8ee00d	-0.01744082
94	0x3e054197	0.13013302
95	0xbdf149b8	-0.11781639
96	0xbd4b5404	-0.04964067
97	0x3d091f71	0.03347725
98	0x3e1ab975	0.15109809
99	0x3dd1a22c	0.1023601
100	0x3e40edee	0.18840763
101	0x3dd3e16e	0.10345732
102	0xbd1963a1	-0.03744853
103	0xbdbcd94b	-0.09221133
104	0x3d8fb260	0.07016444
105	0xbd18a3da	-0.037265636
106	0xbd94e979	-0.07271094
107	0x3e072e76	0.13201317
108	0x3e241503	0.1602364
109	0x3deeaa92	0.116536275
110	0x3c806908	0.015675083
111	0xbdee3fc5	-0.11633257
112	0x3d180a62	0.037119277
113	0xbcf9d602	-0.030497555
114	0xbdbdae07	-0.09261709
115	0xbe06ab63	-0.13151316
116	0x3d69155a	0.056905128
117	0xbd11b7b7	-0.035575595
118	0x3de49d58	0.111628234
119	0xbd3c5160	-0.045976043
120	0xbbeb167e	-0.007174312
121	0x3c5c6d93	0.013453859
122	0x3e3a1829	0.18173279
123	0xbe1f0486	-0.1552907
124	0x3d8111bc	0.06302211
125	0x3d9a7ecd	0.075437166
126	0xbdf98dfa	-0.12185283
127	0xbd7209ba	-0.059091307
128	0x3bd45dc7	0.0064809057
129	0xbd6037e5	-0.054740805
130	0xbdfbc734	-0.12293854
131	0xbe28dd3b	-0.16490643
132	0x3d57d9c3	0.052697908
133	0x3db92bd9	0.090415664
134	0xbd5ab2d7	-0.05339321
135	0x3e3b0456	0.18263373
136	0xbdc56bb9	-0.09639687
137	0x3cb5e3ac	0.022203289
138	0x3eaf0bac	0.34188592
139	0x3deec80f	0.11659252
140	0x3c97e66e	0.018542495
141	0x3dfb2f6c	0.122649044
142	0xbd5f1a57	-0.05446848
143	0x3e8a71da	0.27039987
144	0xbd26f71b	-0.040763002
145	0x3db5b3ac	0.0887216
146	0xbd52772e	-0.05138319
147	0x3d1f3e63	0.038877856
148	0x3dc7aafb	0.09749409
149	0xbaae23f3	-0.001328586
150	0x3c1ab10f	0.009441628
151	0xbd9b3a92	-0.07579531
152	0x3c8654e1	0.016397895
153	0x3e0a2cbb	0.13493626
154	0xbe446e80	-0.19182777
155	0x3d5e1717	0.05422124
156	0x3d753f2b	0.059874695
157	0xbd92f0dd	-0.07174847
158	0x3db7be54	0.08971849
159	0x3ddedb03	0.10881617
160	0x3df1b16e	0.1180142
161	0xbcfdb180	-0.030968428
162	0x3dcfdf39	0.10149998
163	0x3dbb9d5b	0.091608725
164	0x3d2282d6	0.039675556
165	0xbd85df9b	-0.0653679
166	0x3e0cc7c4	0.1374808
167	0x3e24bf71	0.16088654
168	0x3e31ce95	0.17363961
169	0xbdb4ce4c	-0.088284105
170	0x3c7635ad	0.015027446
171	0xbd7ca34b	-0.061679166
172	0xbc4b0f57	-0.012393794
173	0x3d01dfd4	0.0317076
174	0xbd081755	-0.033225376
175	0x3ddad97d	0.10686014
176	0xbdb2db68	-0.08733255
177	0x3dcb668f	0.09931671
178	0xbd62c270	-0.05536121
179	0x3e0e8207	0.13916789
180	0x3d911f88	0.07086092
181	0x3df1aae9	0.11800177
182	0x3c528b78	0.012850635
183	0x3c87cccf	0.016577153
184	0x3d3b1420	0.04567349
185	0x3db1000f	0.08642589
186	0x3e14aa51	0.14518096
187	0x3d95ccfc	0.07314488
188	0x3ca7c300	0.020478725
189	0x3d15db89	0.03658632
190	0xbd1a5ceb	-0.03768627
191	0x3d4989fb	0.049203854
192	0xbe674ac5	-0.22587116
193	0xbbddba33	-0.0067665814
194	0xbd128d52	-0.035779305
195	0x3c45e1d0	0.012077764
196	0x3d2c968c	0.04213576
197	0x3e338b96	0.17533717
198	0x3dca0b02	0.09865381
199	0x3e3c991d	0.18417783
200	0x3d564fbc	0.052322134
201	0xbd3be044	-0.045868173
202	0xbe8bdfb0	-0.27319098
203	0xbdfe3156	-0.12411754
204	0xbdb13e99	-0.08654518
205	0x3da4c34a	0.08045061
206	0x3e154e70	0.14580703
207	0x3e69f9c9	0.22849192
208	0x3d8c1bba	0.06841226
209	0x3dd4ca33	0.10390129
210	0x3e36a9e3	0.17838244
211	0x3c1a5f4c	0.009422135
212	0x3d1de8a0	0.038551927
213	0x3d3737b9	0.044730876
214	0x3d003f39	0.031310294
215	0xbc3c2179	-0.01148259
216	0x3e30ea9a	0.17276993
217	0xbc86ac24	-0.016439505
218	0x3d60a6cf	0.05484658
219	0xbd835953	-0.064135216
220	0xbcb17bab	-0.021665415
221	0x3e780217	0.24219547
222	0xbdc98c43	-0.09841206
223	0x3dfc0102	0.1230488
224	0x3d50ef34	0.051009372
225	0x3e0aa8ce	0.13540956
226	0x3dde5344	0.108557254
227	0xbd9965be	-0.07490109
228	0xbd3761d0	-0.044771016
229	0xbc1bda8f	-0.009512558
230	0x3df6c5dd	0.12049458
231	0x3dfdbc7a	0.12389465
232	0x3d641ae3	0.055689704
233	0xbcff94a7	-0.031198813
234	0x3da4524a	0.08023508
235	0xbe2e6ccf	-0.17033695
236	0x3d0b884b	0.034065526
237	0x3e03cd7f	0.1287136
238	0xbde163b4	-0.11005345
239	0x3e7e4d76	0.24834237
240	0xbad78484	-0.0016442691
241	0x3d3da9aa	0.046304382
242	0x3d76b46a	0.06023065
243	0xbe1204e4	-0.14259678
244	0x3e05925a	0.1304411
245	0x3da15e1c	0.07879278
246	0x3e764ec0	0.24053478
247	0x3c14202b	0.009040873
248	0x3d852e12	0.06502928
249	0x3c606484	0.01369584
250	0x3a28a0ce	0.0006432653
251	0xbdc178c6	-0.09446864
252	0x3e23ad4b	0.15984075
253	0x3d983a24	0.074329644
254	0x3d145919	0.036217783
255	0xbd92cd75	-0.07168094

fc3.bias f4 [128]
0	0xbe91108f	-0.28332946
1	0x3dbe1079	0.09280486
2	0xbed16552	-0.40897614
3	0xbdc0e726	-0.09419088
4	0x3e00c71a	0.12575951
5	0xbd766608	-0.0601559
6	0x3dd0861c	0.10181829
7	0xbeaa254a	-0.33231574
8	0x3f16fead	0.58982354
9	0xbe9e387b	-0.30902466
10	0xbe2ec61a	-0.17067757
11	0x3deeba4b	0.11656626
12	0xbeae5a88	-0.34053445
13	0xbe8d438d	-0.275906
14	0xbc898d21	-0.016790928
15	0xbe15d9ca	-0.14633861
16	0xbe5c5e04	-0.21520239
17	0xbcd24a02	-0.025670055
18	0xbdc821bd	-0.0977206
19	0x3e70ff79	0.23534955
20	0x3b22c205	0.0024834883
21	0xbeba19d3	-0.36347827
22	0xbe1dcbed	-0.15409823
23	0x3d120cad	0.03565662
24	0xbed7efb6	-0.42175072
25	0xbddbb5d7	-0.107280426
26	0xbeb73234	-0.3578049
27	0xbcb50dc3	-0.022101289
28	0xbd84ad2c	-0.064783424
29	0x3ef59008	0.4796145
30	0x3d9dad3c	0.076990575
31	0x3e102357	0.14075981
32	0xbe196eac	-0.14983624
33	0x3c018c62	0.007907005
34	0x3e98f0b0	0.2987113
35	0xbe9f70b2	-0.31140667
36	0x3e4fb5b9	0.20284165
37	0x3bf66daa	0.007520397
38	0x3e11bc12	0.142319
39	0xbe6a54fa	-0.22883978
40	0x3ec5ea98	0.38655543
41	0xbe1ec928	-0.15506423
42	0x3c286e48	0.010280199
43	0xbea43a4c	-0.32075727
44	0x3d3c724b	0.046007436
45	0xbc4edea1	-0.012626321
46	0xbe47bec3	-0.19506364
47	0x3e6d6c3f	0.23185824
48	0xbe964425	-0.29348865
49	0x3e26e232	0.16297224
50	0xbe75cc9d	-0.24003835
51	0xbec25915	-0.3795859
52	0xbcd27834	-0.025692083
53	0xbf2aca2c	-0.6671474
54	0xbeb1ee15	-0.34751955
55	0x3e6fd49f	0.23420952
56	0xbd92c0ad	-0.07165656
57	0xbedaab9d	-0.42709056
58	0xbe98409f	-0.29736802
59	0x3c20889b	0.009798194
60	0x3f041c54	0.51605725
61	0xbe01b2ad	-0.12665816
62	0xbd32ee13	-0.043684077
63	0xbd8df143	-0.06930783
64	0x3da7b783	0.08189299
65	0xbe4e521d	-0.20148511
66	0xbd9a4a2a	-0.07533677
67	0xbc960d38	-0.01831685
68	0xbdfaf0e1	-0.12252975
69	0xbdace14d	-0.0844141
70	0xbe318735	-0.17336734
71	0x3d97166d	0.07377324
72	0xbeb2491b	-0.348214
73	0xbe06948b	-0.13142602
74	0xba005669	-0.00048956886
75	0xbe11b071	-0.14227463
76	0x3d2866b5	0.041113574
77	0xbea5ff29	-0.32421234
78	0x3e4e6c17	0.2015842
79	0xbee1295c	-0.43976867
80	0xbc31f9ec	-0.010862809
81	0x3e986409	0.2976382
82	0xbe1c3fd3	-0.15258722
83	0x3d831315	0.06400124
84	0xbc0565de	-0.008141963
85	0xbe2f666d	-0.17128916
86	0xbe887808	-0.26654077
87	0xbebebdb9	-0.37254122
88	0xbcf4f007	-0.02989961
89	0xbd6be234	-0.05758877
90	0xbe98134b	-0.2970222
91	0xbd9a9948	-0.07548767
92	0xbe96f728	-0.2948544
93	0xbe447d09	-0.19188322
94	0xbeb84877	-0.35992786
95	0xbe9f6a62	-0.3113585
96	0xbed64875	-0.41852155
97	0x3e298441	0.16554357
98	0x3e4acb54	0.19804126
99	0x3da00f59	0.07815427
100	0x3d8fdaae	0.07024132
101	0xbe08b43d	-0.13350005
102	0xbe03e882	-0.12881663
103	0xbdeeb3cc	-0.11655387
104	0xbe43839e	-0.19093177
105	0xbe50c6e9	-0.20388378
106	0xbdcc14fb	-0.09964939
107	0xbe784f68	-0.24249041
108	0xbe15ac8b	-0.14616601
109	0xbe4e631f	-0.20154999
110	0xbece3ee6	-0.40282363
111	0xbe351377	-0.17683206
112	0xbe4b9335	-0.19880374
113	0xbed04932	-0.40680844
114	0xbec602da	-0.3867405
115	0xbe022ba3	-0.12711959
116	0xbd87b716	-0.06626718
117	0xbde397ad	-0.11112914
118	0x3f30f9e6	0.69131315
119	0x3d47f16e	0.04881423
120	0xbce39d34	-0.027784921
121	0xbe37e8da	-0.1795992
122	0xbe059bd3	-0.13047723
123	0xbe3ac96a	-0.18240896
124	0xbe406807	-0.18789683
125	0x3ddb61ba	0.10711999
126	0xbe1f77b0	-0.15573001
127	0xbeb9ce37	-0.36290142

fc4.weight f4 [1, 128]
0	0xbbdfda88	-0.006831471
1	0xbcaa57e0	-0.020793855
2	0x3ce7552a	0.028238852
3	0x3cb251ff	0.021767614
4	0xbd447e66	-0.047972105
5	0xbca52694	-0.020159997
6	0x3c118160	0.008880943
7	0xbca3ba03	-0.019986158
8	0x3c938b4b	0.018010756
9	0xbce77c50	-0.028257519
10	0xbc8f4a56	-0.0174915
11	0x3c81bee1	0.015838088
12	0xbcf1b84f	-0.02950683
13	0xbcf02cbe	-0.02931821
14	0xbc030b27	-0.007998264
15	0xbc5ae64d	-0.013360572
16	0xbc5c51ab	-0.013447206
17	0x3cc75648	0.024333134
18	0xbc2ee852	-0.010675507
19	0x3cb2b446	0.021814477
20	0xbcd6556d	-0.026163781
21	0xbb88717d	-0.0041639195
22	0xbc4e94e5	-0.012608741
23	0x3cfc0319	0.030763196
24	0xbd20c712	-0.03925235
25	0x3d295889	0.0413442
26	0x3c2b7a60	0.010466188
27	0x3cab3298	0.020898148
28	0x3cb27f17	0.021789117
29	0x3c85a421	0.016313614
30	0xbcd36a1d	-0.025807435
31	0x3cd7cad7	0.026341839
32	0xbcbf62b3	-0.023362493
33	0xbcfbea7b	-0.030751457
34	0xbc85df65	-0.016341874
35	0xbc15cb63	-0.009142729
36	0xbccc0c36	-0.024908166
37	0x3cb62f56	0.022239368
38	0x3c47e863	0.012201401
39	0xbc8a2766	-0.01686449
40	0x3c76a425	0.015053784
41	0xbcd19bca	-0.025586981
42	0x3c47ff46	0.012206858
43	0xbc551d20	-0.013007432
44	0xbc74f336	-0.014950564
45	0x3cb54b2f	0.022130577
46	0xbc4e4fca	-0.012592265
47	0x3cc4e4c2	0.024034861
48	0xbb491641	-0.003068343
49	0x3c82c8ab	0.015964827
50	0xbcc3d9c2	-0.023907546
51	0x3bf8d6b5	0.0075939544
52	0xbcab19f7	-0.020886404
53	0x3d396eb5	0.045271594
54	0xbcd045df	-0.025423942
55	0xbccb445c	-0.02481287
56	0xbc8a4dde	-0.016882833
57	0xbd53ef27	-0.051741745
58	0xbca18a6e	-0.019719329
59	0xbc7ecc1b	-0.015551592
60	0x3bce61ac	0.0062982645
61	0xbcb85461	-0.022501172
62	0xbccaf43a	-0.02477466
63	0xbc611777	-0.013738505
64	0x3cf8a1ef	0.030350653
65	0xbc03fb42	-0.00805551
66	0xbc30b3e4	-0.010785077
67	0x3d036c0a	0.032085456
68	0xbd4abd70	-0.049497068
69	0xbc69a204	-0.014259819
70	0xbc1ed764	-0.009694908
71	0x3ca50146	0.020142209
72	0x3cff2f31	0.031150432
73	0x3d79584d	0.060875226
74	0xbc75c61b	-0.015000845
75	0x3c94b85a	0.018154312
76	0x3c54c2ad	0.012985867
77	0xbd1369e6	-0.035989664
78	0x3bf05e58	0.0073354654
79	0xbcdaf1c7	-0.026726617
80	0xbc073096	-0.00825133
81	0x3c9093b4	0.017648555
82	0xbc989d93	-0.018629825
83	0x3ca7bc5a	0.020475555
84	0xbadb717a	-0.0016742193
85	0xbcb7e708	-0.022449031
86	0xbc665aba	-0.014059717
87	0xbc79c415	-0.0152445035
88	0x3cfb2c4d	0.030660773
89	0x3d20770a	0.039176024
90	0xbbe2ff68	-0.0069274195
91	0xbcba1bf1	-0.022718402
92	0xbc88a291	-0.01667908
93	0xbc9e54a3	-0.019327467
94	0xbbdb4a93	-0.0066922395
95	0xbc318c15	-0.010836621
96	0xbd5eb6c0	-0.054373503
97	0x3c1df3e8	0.009640671
98	0xbc31871e	-0.010835437
99	0xbcac1b31	-0.02100906
100	0x3caf25bb	0.021380296
101	0x3d4037ab	0.04692809
102	0x3d4857fd	0.048912037
103	0x3d0dc05e	0.034607284
104	0xbcddfbe1	-0.027097644
105	0xbd181114	-0.037125662
106	0x3ccefe15	0.02526764
107	0xbd4441c5	-0.047914285
108	0xbce8cfec	-0.028419457
109	0xbd2dbf61	-0.04241884
110	0xbcbf2505	-0.023333082
111	0xbc8226ab	-0.015887579
112	0xbc82ee59	-0.015982794
113	0xbd050095	-0.03247126
114	0xbc8f0603	-0.017458921
115	0xbce8cc98	-0.02841787
116	0xbcd2bf13	-0.025725877
117	0x3d3749f2	0.044748254
118	0x3cc9f090	0.024650842
119	0xbd321a99	-0.043482397
120	0xbc24cfc9	-0.0100593055
121	0xbc53cd48	-0.012927361
122	0xbbf8079f	-0.007569268
123	0xbceb3116	-0.02870993
124	0xbd4784c6	-0.048710607
125	0x3d06f182	0.032945164
126	0xbd138830	-0.03601855
127	0xbcaf4af3	-0.021398043
