MADDPG/checkpoints/checkpoint_critic_0.pth (torch, 451791 bytes, 7 tensors)

fcs1.weight f4 [256, 48]
00000000: f8c9 0d3d e056 4abe 875d 18bd 4def 0ebd
00000010: e022 a13e cf8d 653e 70c0 153d 87eb 83bd
00000020: a6dc 5e3e b215 9ebe 5e79 82bd 1fae c8bd
00000030: 5f05 a33e 4fec 20be ccbd 153d 1d24 cbbd
00000040: eb23 1f3d a377 b1be e52f 6fbc d5cc 37bd
00000050: 5437 63be 842c ccbe db84 0b3c 1171 6f3c
00000060: fa4e babd 1c3c d3bc 6139 d03b aa08 cb3c
00000070: d210 a1be 9020 8b3e 281d 2ebd 6afd 0cbe
00000080: ecd1 0bbe 6f89 883c 36e0 30bc 1d7b 41be
00000090: cbde 59be 08c4 bf3c 374e 153c 0d83 1bbd
000000a0: ae48 7dbe cbd8 363e 2218 0abd 9502 56bd
000000b0: 41c4 a33e ea3a bdbe b7b1 8f3c 2281 60be
000000c0: 9ab7 c8bb b523 7a3d d7dc 353d 83fe 27be
000000d0: 4445 643e 2fbc 09bd fd2f 89bd 9ad4 cebd
000000e0: 7246 c13d 1232 2a3e 5e8f 4fbd c1ab 8d3e
000000f0: cbba 6b3e e0cd f83d 0749 15bd d90d 8e3e
00000100: 0449 3a3e e75f 7c3e e97f c4bc e1c5 713e
00000110: 2787 3c3e e74b d03d 253c 5cbd ed27 5b3e
00000120: 774e 9f3e 8301 503e 816e e4bc bb8d 75bc
00000130: 9ea1 93be bf4d d2bd 7a0b cc3d f1b8 b0bd
00000140: ce00 8e3e 1f83 873e 05a6 fc3d 6627 c83d
00000150: 477e 36be a212 c9b9 85c8 5fbd 52e4 a6bc
00000160: cece ac3e 82c3 fd3b 4cbf 933d b7a8 493e
00000170: a740 07be 7546 873e b1e8 443d 6735 363e
00000180: c296 003e e1bc b4bc fffd 843d 8fa7 7a3c
00000190: a82d 403c 8fa8 8fbe 14ef d4bd 4c04 39be
000001a0: 02d0 273e d67e ec3d 0633 24bc 14cd 493d
000001b0: 6cbf 3fbe 9b9c 86be 95af 5abe 25d0 a23c
000001c0: bfdf be3d 568e 6dbd 09f5 50be 248e 623e
000001d0: 018a f6bb de31 aabe fcdd 83bb 23b7 043e
000001e0: 1aaf 063e 6968 66be 4c31 2fbe 06bb 8a3e
000001f0: 5092 af3d a3c5 d1be 3800 33bd 5ec4 dd3d
00000200: d805 3f3e 78c1 50be 6a9a 233e b587 2b3e
00000210: 65e6 0a3c 9586 d2be 4cb4 7ebd 49b4 3b3e
00000220: 1031 993e 881d b3be c140 03be 2978 043e
00000230: 3ba7 3f3e a871 b8be 5be5 0bbd e6eb ab3d
00000240: 6721 b2bd eb6e 9b3d 842c ad3d b857 423e
00000250: c23d 0b3e 2601 8c3c e747 c6bc 95ec 363d
00000260: aaa2 77bd 8351 eb3d 93ff 863d 6ef1 25bd
00000270: 9be7 1cbd 9cb1 06bf 4e07 51bc 4060 0b3e
00000280: e9ee 43be 4f24 6e3e db0c a63d 0651 1b3d
00000290: b8c1 d03d c94e 4dbf d307 1bbd 4cb0 703e
000002a0: 6d72 50bb 1f8a 683e 91d7 833c 4623 9fbd
000002b0: e069 003e e954 64bd b76e 1dbd 9d70 fb3c
000002c0: de47 b5bc 1ead c63e e74c 633d 78df bfbd
000002d0: a553 23bc 00f4 27bf 5364 d6bd e0c0 5d3d
000002e0: 3afd 3abe 19eb aa3e fb2f d43c 5ace f0bc
000002f0: 4bcc 46be d35e 5bbf 981d 6cbd 317b 7bbe
00000300: ea8a 9ebd b372 92be 2fde a13d 9a96 22bc
00000310: 1df8 c9bd 7f41 f83e 64b9 e6ba ab5d e43d
00000320: a7cd 87bb f91a 99bd 4d61 3cbd 0758 433b
00000330: 1523 763e 6a1a 18be a2b2 933d 540e ef3b
00000340: 7781 e5bd b28f 07be b66b ee3c 86b3 9fbd
00000350: f733 263f 8ce1 2ebf 20a1 463c 5e78 9d3b
00000360: 014d 1fbd 41f2 f7be 8ce4 34bd 3a86 783d
00000370: 3d19 9dbd 219e 803e c00f 5e3d 32df 3fbd
00000380: 89b8 5fbd ef6b d63d 72f3 cebc cce2 51bc
00000390: 763e a8bd 2c54 20be 4c11 bf3c f7cd e83c
000003a0: 1ed8 be3d 0631 533f 600f c7bd dd4b c7bc
000003b0: b148 09bf 3a44 15bf 1213 cd3d fee5 0dbe
000003c0: e8dc a23d 348b 3a3e 6ea1 cbbb 9c8b 6ebe
000003d0: 83e5 43be 2fb5 883c f236 c33c fa79 77be
000003e0: 4b3f f73d 56f3 603e c4b3 903d b127 0abe
000003f0: b53c 77bd 92e9 673e 9698 e5bd 14f7 f53d
0.03461644 -0.19759703 -0.03719857 -0.034896184 0.3147192 0.22417377 0.036560476 -0.06441408
0.21763858 -0.30875927 -0.06370805 -0.09798836 0.31840035 -0.15715145 0.036557958 -0.099189974
0.038852613 -0.34661588 -0.014598821 -0.044873077 -0.22189075 -0.39877713 0.008515562 0.0146143595
-0.09097095 -0.025785498 0.0063544963 0.024784405 -0.31458145 0.2717328 -0.042508274 -0.13768545
-0.13654298 0.016667096 -0.010795644 -0.1889462 -0.21276395 0.023408905 0.009112886 -0.037966777
-0.24734756 0.17856137 -0.03371442 -0.052248556 0.31985667 -0.3695901 0.017540796 -0.2192426
-0.0061254026 0.06106921 0.044400062 -0.16405682 0.22292048 -0.03362673 -0.06698606 -0.10099144
0.094372645 0.16620663 -0.050673835 0.276701 0.23020475 0.121486425 -0.036446597 0.2774494
0.18191916 0.24645959 -0.023986774 0.23610641 0.18410932 0.10170727 -0.053768296 0.21401949
0.3111455 0.20313077 -0.027884724 -0.014987404 -0.28834242 -0.10268735 0.099631265 -0.08629025
0.2773499 0.26467225 0.12336353 0.0977314 -0.17821608 -0.0003835159 -0.05463459 -0.020372543
0.3375153 0.0077442536 0.07214221 0.19693266 -0.13208257 0.26420942 0.048073474 0.17793809
0.1255751 -0.02206272 0.064937584 0.015298738 0.011729635 -0.28058288 -0.10397163 -0.18068045
0.16387942 0.115476295 -0.010021931 0.049267843 -0.18725365 -0.26291355 -0.21356042 0.019874642
0.0932002 -0.05799707 -0.20405973 0.22124535 -0.0075237756 -0.3324117 -0.0040242653 0.12960486
0.13152733 -0.22500767 -0.17108649 0.27095813 0.08572829 -0.40971097 -0.04370138 0.1082847
0.18654573 -0.20386302 0.15976873 0.16750987 0.008477782 -0.41118303 -0.062183663 0.18330492
0.29920244 -0.34983468 -0.1281767 0.12936462 0.18716137 -0.36024213 -0.034154277 0.083946034
-0.08697777 0.07589515 0.08455756 0.18978775 0.13597777 0.017090391 -0.024204208 0.044659216
-0.060457863 0.114901565 0.06591716 -0.04051345 -0.038306814 -0.5261476 -0.012758089 0.13610935
-0.19134106 0.23256038 0.08107921 0.037919067 0.10193199 -0.8019834 -0.03784926 0.23504752
-0.0031806484 0.22708939 0.016094001 -0.077704 0.12540388 -0.05574504 -0.038435664 0.030693347
-0.022128996 0.38803953 0.05549326 -0.09368795 -0.009968673 -0.6560669 -0.10468354 0.054139018
-0.18260661 0.3338249 0.025901785 -0.029395271 -0.19413869 -0.85691565 -0.05764541 -0.24558713
-0.077413395 -0.28603134 0.07903706 -0.0099236015 -0.09861777 0.4848747 -0.0017602858 0.11150678
-0.0041443887 -0.07475848 -0.04599123 0.0029807107 0.2403682 -0.14853826 0.07211806 0.007295409
-0.11206334 -0.13238409 0.029104095 -0.07797913 0.6492304 -0.6831291 0.012123376 0.0048056087
-0.038891796 -0.48427013 -0.04416327 0.060674883 -0.076708294 0.25120643 0.05421424 -0.046843715
-0.054619346 0.104698054 -0.025262568 -0.01281042 -0.082150385 -0.15657109 0.023323677 0.028418524
0.09318565 0.8249668 -0.097197294 -0.024328167 -0.53626543 -0.5830723 0.10013403 -0.13857266
0.07952291 0.18217164 -0.0062143123 -0.23295444 -0.1913052 0.016687958 0.02382991 -0.24167624
0.12072619 0.21967825 0.070655376 -0.13491704 -0.06036063 0.22647694 -0.11210744 0.12010017

fcs1.bias f4 [256]
00000000: 1ea8 493e f5fd 44be 2967 8abe e350 acbd
00000010: e519 4f3d fa0e 99be be3e a2bd d449 7a3d
00000020: 549d 75be b58f a7be dfb4 3f3e 63b9 46be
00000030: d879 4e3d 3216 eebd c6e2 60be 1f40 06be
00000040: 51ba 8bbd 753e a23c 8f1d f3bd 580e 96be
00000050: 6b8a 703d 9d84 54bd 066c 47be f275 5ebd
00000060: e58a 1cbd c8ec 54be fead cc3c 773c 6fbe
00000070: c02b 80be b311 0dbe 2798 78bd 8ff1 19be
00000080: 4e3f fabd a26a 05be a36d b6be c02f cfbd
00000090: 7904 a2bd 9670 70be 8e30 5ebe 6258 41be
000000a0: 1dd6 69bd 0f50 55be ca5c 25bd 75ce b63d
000000b0: 40f3 0a3e 85d3 15be 0992 02bf bba0 69be
000000c0: a2d9 66be 3db5 1bbe 50d7 97be 4aad 67bd
000000d0: 8006 aabd 1c59 f0bd d2bf 0e3d 2103 50be
000000e0: 65d8 c2bd cb86 82be f47b 97be 31c8 71be
000000f0: 72a7 153e e2f2 85be 2f88 83be 8916 d13d
00000100: 9f61 3cbe a447 133f 6b6a 853d 6077 22be
00000110: 6da5 debe 83a1 03be ab6e 65be 226f 0abe
00000120: 9258 8b3d 4f5d 6dbe 6892 34be f44f 05be
00000130: b0cd 0e3d 12e6 95bc 8375 79be d17b 26bd
00000140: 684c 64be c661 923d 3a19 213e ff48 00be
00000150: 229f 2ebe 7226 77bd dd96 0bbd 3107 853d
00000160: 84cd dabe 333e b23d 8b64 4f3d c89d aabe
00000170: 47fa 50be 5433 9dbc b164 4e3d f6ab 903d
00000180: 0236 dcbd 5138 cd3d 0f0e 043e f87c 03bc
00000190: 0124 83be 28eb a4bc 129d 62be ef9b acbc
000001a0: 9bda 03be bfd8 7fbe aa35 d2be 9316 8cbd
000001b0: 800e 82bd da5b 38be 6b80 c2be 2cca cb3d
000001c0: 313e f5bd 7d85 ddbc 87c5 b63d c9e0 223d
000001d0: 36ad 87be 831c 993e 51e5 22be 5fe0 043e
000001e0: 9dae 76bd b78e 57be 635d 45be 2a47 383e
000001f0: b685 a03d 0d6e 37be bc30 173d 49c6 243e
00000200: 7684 15be f811 93ba c229 9dbe 5ce5 d0bd
00000210: 7f40 a53e 8d82 6fbd 3819 72be a53c febe
00000220: 20ce 2fbe d194 de3d eee1 14bd 8172 d9bd
00000230: 292e 023d 1701 34be c4b4 9fbd f115 e7bd
00000240: 19e7 663e 77f9 9cbd 331c 5c3e b2e9 2ebd
00000250: 8d86 bebd 2783 76be 437e ffbd db34 65be
00000260: e6c3 8f3d b8e2 88be 2705 8cbe 1c5f 503d
00000270: a1d4 54bd b95e ea3d 079d 21bc 304d 3fbd
00000280: f1fe b1be 65ae 81bc 0b30 c6bc 6911 fc3c
00000290: 1fe1 6bbe bf65 aa3d 8284 d43d a5bd 9d3d
000002a0: 981e 11be 001a bbbe 0dd4 06be b289 a73d
000002b0: 6298 31be 2fe4 13bd e621 a1bd 136e 123e
000002c0: 7869 acbe 6def 24bd 3090 15bd 88eb 963d
000002d0: acd6 8f3d 905a 55bc 0672 86bd c27f 7ebe
000002e0: ca98 023e 6fd2 89bd cbe3 883d 5ec6 3dbc
000002f0: f4b6 c4bc 8101 e9bb c45b ef3d 8095 18be
00000300: aa79 513d a1b5 debd f4a8 6abd a73e 8c3d
00000310: 4c42 93bc 1181 0d3e a34f 21bf 6e3c ebbc
00000320: 61fc 70bc 7992 86be 82a5 dcbd a99b 6fbd
00000330: ac06 7ebd 0972 6cbd 87e7 d43c ccc7 0abd
00000340: b09b f33b 7d96 87be 348a eebc 4528 4abe
00000350: 8187 a33d 7fa9 afbe 12d3 f2bd 4c1f 39be
00000360: d841 ecbd 1792 5fbe 7290 ad3d b0d0 19be
00000370: 4abc 8ebc 9531 eabd ca7a 6ebd 00fc 683d
00000380: 9212 2e3e f492 193e 20c6 f23d faa9 e3be
00000390: 0607 90bd 0231 1f3c 1f9b b53d 3e8c 4a3e
000003a0: 6a91 68bd 00b7 7dbd 515a 133e c40d 58be
000003b0: 5177 3b3e d22f a2be 2778 a6bd bfa7 e5bd
000003c0: 1fcb c9bd 03fb f73c 77c1 7fbe 9e0c 20bc
000003d0: 13b9 abbd ccc9 7ebe 7c21 303d 1f32 e9bd
000003e0: 63ea 673c 17ea 313e 4272 9bbd ad24 cb3d
000003f0: ea08 fabd 40d8 20be 9fc3 ddbd 3560 a13e
0.19693038 -0.19237502 -0.2703183 -0.084138654 0.050561804 -0.2989424 -0.079221234 0.061105564
-0.23985797 -0.32726827 0.1872134 -0.19406657 0.050409168 -0.11625327 -0.21961507 -0.13110398
-0.068226464 0.019805172 -0.11870872 -0.29307818 0.058725756 -0.051884282 -0.19474801 -0.0543117
-0.038218398 -0.2079345 0.02498531 -0.2336291 -0.2503338 -0.13776283 -0.06069198 -0.15033554
-0.12219106 -0.13028958 -0.3563052 -0.101165295 -0.07911009 -0.23480448 -0.2169821 -0.18881372
-0.05708896 -0.20831321 -0.040371694 0.08926097 0.13569355 -0.1463147 -0.5100408 -0.2281522
-0.22543958 -0.15205856 -0.29656458 -0.056561746 -0.08302021 -0.11735746 0.034850903 -0.20313694
-0.0951393 -0.25493464 -0.29586756 -0.23611523 0.14614657 -0.26161867 -0.25689837 0.10209376
-0.18396614 0.5753119 0.06514438 -0.1586585 -0.43485585 -0.1285458 -0.22405498 -0.13518956
0.06804003 -0.23180126 -0.17633975 -0.13018781 0.034864128 -0.018298183 -0.24361233 -0.040645424
-0.22294772 0.07147555 0.1573228 -0.12527846 -0.17052892 -0.0603394 -0.03407942 0.06495512
-0.4273492 0.0870327 0.050632995 -0.33323503 -0.20407973 -0.019189514 0.050388996 0.07064049
-0.10752489 0.10020507 0.12895988 -0.0080254 -0.25613406 -0.020131662 -0.2213023 -0.021070449
-0.1287636 -0.24985026 -0.41056567 -0.06840243 -0.06350422 -0.18003789 -0.379886 0.099506706
-0.11974753 -0.027041191 0.08924394 0.039765153 -0.26499337 0.29904565 -0.1590779 0.12976216
-0.060225118 -0.21050535 -0.19273905 0.17995897 0.07838003 -0.17913075 0.03691171 0.16091265
-0.14601311 -0.0011220565 -0.3069592 -0.10199997 0.3227577 -0.058474112 -0.23642433 -0.49655643
-0.17168474 0.10868228 -0.036348276 -0.10617543 0.031782303 -0.1757854 -0.0779815 -0.11283482
0.22549094 -0.07664769 0.21495132 -0.042703338 -0.09303007 -0.24073468 -0.124752544 -0.22383444
0.070197865 -0.26735473 -0.2734768 0.050871953 -0.05196059 0.11443848 -0.009864098 -0.04670447
-0.34764817 -0.015830228 -0.02419283 0.03077002 -0.23035096 0.08320188 0.10376836 0.077021874
-0.14171827 -0.36543274 -0.13166828 0.0818056 -0.17343286 -0.036106285 -0.07867794 0.14299802
-0.33674216 -0.040267397 -0.03651446 0.07369143 0.07023367 -0.01302208 -0.06564717 -0.24853423
0.12753597 -0.0672959 0.06684073 -0.011582939 -0.02401302 -0.007110775 0.11687425 -0.1490078
0.05114142 -0.10874487 -0.057290033 0.068478875 -0.017975949 0.13818766 -0.6301214 -0.028715339
-0.014708609 -0.26283625 -0.107737556 -0.05849806 -0.06201808 -0.05772594 0.025989307 -0.033881947
0.007434331 -0.26482 -0.029118635 -0.19741924 0.0798483 -0.34309003 -0.11856665 -0.18078345
-0.11535996 -0.21833073 0.084748164 -0.15021014 -0.017423768 -0.11435238 -0.05822257 0.05688095
0.16999272 0.14997464 0.118541956 -0.4446562 -0.070325896 0.009716274 0.088674776 0.1978006
-0.056779303 -0.0619421 0.14389922 -0.21099001 0.18307234 -0.3167711 -0.08128386 -0.11213636
-0.098531954 0.030271059 -0.24976145 -0.009768633 -0.083849095 -0.24881667 0.043000683 -0.11386513
0.014155003 0.17374454 -0.07590152 0.09919105 -0.122087315 -0.15707493 -0.108283274 0.31518713

fc2.weight f4 [256, 260]
00000000: dc53 673d 0fd5 a03d 7aa4 18bd dca3 7bbd
00000010: 6156 84be 1e27 be3d 9924 c3bd 4f8e 003e
00000020: 78cf 353d b282 8dbe 2585 1d3e e263 3dbd
00000030: 28e5 c4bd fc11 833d 970f acbb 2de1 dd3d
00000040: d21a 413d 86fc 11bd f20d 98be 90a1 4ebe
00000050: 55b0 ec3d 4a18 043e 3276 79bd 3122 a5bd
00000060: f36c 1e3d 5bb6 e3bd 512a d73d 2f8f b4bd
00000070: 586a 0e3d b501 2cbe 6435 22bd 7e6b 0c3d
00000080: 4aaf 4cbd 2759 253e 51c7 dbbc 9705 62bb
00000090: a06b 01bf 8f58 163d ac95 253e be3a b1bd
000000a0: de8d 253c df70 4e3e e2c6 75bd b809 26be
000000b0: f680 d43d 590d 31be 7928 4cbe 48fa 913d
000000c0: 1300 a53c 15df 333e 1bf8 c03c 5d08 17bd
000000d0: 7bcd 1dbd 35b5 e7bd e8c9 43bd 281d c73d
000000e0: 6e5c 793d 1e50 a63d c5b9 cebd a175 a3bd
000000f0: 5b46 d1bc 4f00 d8bb f221 d4be e763 f13b
00000100: 7163 c23c 18b8 97be 0ccc d8be e3e9 9ebe
00000110: d56d 6ebe 24a6 39be 9426 4fbe 6f19 123e
00000120: 63e3 8a3d c073 14bd 231e c0be ff38 1cbe
00000130: e03f 29be 9fdb c9bd 0bd0 303e 1ac3 2f3c
00000140: d41d 27be 5c39 4d3c a902 313d 2d83 883e
00000150: acfd dfbc 76b1 283e a45c 883d cce8 e1bd
00000160: e8b8 923d d667 26be a900 54be 9c9c 2abd
00000170: bfd6 fabc b24a df3d 6742 8fbe 33c2 85bd
00000180: 2b3f 1d3e fd41 6b3d 96c0 d13d 13c3 493e
00000190: 4260 febc a192 093e 14ce bebe 5c8f 633b
000001a0: c063 2fbe 76a3 61be 8aee fabd eda3 b1bd
000001b0: fcdd bd3d 0c47 07be 218c 40bd 1e60 263e
000001c0: 2c34 a13c e168 e33d 9336 83bd 0298 763d
000001d0: 228a 9abe 0b3a 10be 5ec1 ff3d e4db b13d
000001e0: 798a 39be c073 de3c f061 abbc 85ce 2bbe
000001f0: 0856 02be 46c0 823c 45bd abbc c0a6 babc
00000200: 956f 47bc bb85 873d c432 02be 0c86 5a3d
00000210: a15b 37be ef97 db3c e067 e6bc e5dd 8e3c
00000220: 6dae c8bc de1b 15bc 2be2 943d 950f 2ebe
00000230: 8c91 bb3d b6d9 373d a3fc 813c 3466 1dbd
00000240: e0f1 d53d c50b eabe e8df 88be e2ab c53d
00000250: 7a1d 7cbd d757 8d3d 587c e5bd c252 143c
00000260: 3e97 0ebe 5352 4ab9 7aac 2cbe 2ab1 ac3d
00000270: dd81 f83d c581 a53e de41 c73d bb42 eb3c
00000280: 7744 bd3d 3cce 5abe 793c e4bc c9ef d6bd
00000290: 7149 ecbd 98e9 6fbe 1669 64bd f37f 84bd
000002a0: 0ea7 c43d fef2 a4be a064 643c 3ab8 9ebd
000002b0: d991 7a3d ac87 243e c5a8 553d 5c54 58bc
000002c0: 9a17 de3d fe02 ba3d c738 2ebc a672 a33d
000002d0: 2a27 5ebe 3ba6 18be 04fd cd3d 8467 ab3d
000002e0: a908 95be 0be9 423d ea26 71be 8132 313b
000002f0: bbcc 643d f9b1 9bbc 3415 09bd 1523 adbe
00000300: 0cc0 a3bd 94c8 f7bc 95f4 743b 0a78 cb3c
00000310: 9a13 41bd 5c47 ad3c 4742 acbe 375f e4bd
00000320: bddc 15bd f1fe 1e3e 80c6 c8bc 2041 4dbe
00000330: 6496 c6bd 0f8b 2abe 0ba9 b4bd 1907 60be
00000340: 9abc 623d c638 463d 0a62 2cbc 3159 10bd
00000350: 093d 0f3e 1960 f5bd afe3 213e a732 57be
00000360: 3aaa b13d e2d9 8fbd 8655 cb3d eefa aabd
00000370: d10e 6cbe 7d58 c33b e5e1 88bd d5ca 3bbe
00000380: c370 56bd 1fb9 02be 1de6 4cbd d4fa 8fbd
00000390: ea8d 483c 0e1a 6ebd 604b b8bb 8da3 ac3c
000003a0: 748a 38be 15d9 e2be e126 0fbd 1834 88bd
000003b0: 181f cfbc 2c1e f73d 6765 70be becd b9bd
000003c0: b04f 92be 34b1 ef3c 656e 4abd 2f68 01be
000003d0: 1e99 56be 3dd9 06be 9af9 f33c ea42 233d
000003e0: e98e b53d 6c9c 393c 05e1 53be fac7 613d
000003f0: 6e7c 1dbd 1b51 9d3d 9658 55bc 3461 f73d
0.05647646 0.07853138 -0.037266232 -0.061435565 -0.25847152 0.09284805 -0.09528465 0.12554286
0.04438731 -0.27638775 0.15382822 -0.046237834 -0.096140206 0.063999146 -0.005250882 0.108339645
0.04714472 -0.035641216 -0.2969814 -0.20178819 0.1155707 0.1289989 -0.060903735 -0.08063162
0.03867812 -0.11118766 0.10506118 -0.088163726 0.034769386 -0.16797526 -0.0396017 0.0342822
-0.049971856 0.1614729 -0.02682844 -0.0034488195 -0.5055485 0.03670555 0.16170377 -0.08653782
0.010104625 0.20160244 -0.060004123 -0.16214645 0.1037616 -0.17290248 -0.19937314 0.071278155
0.020141637 0.17565568 0.023555806 -0.03687321 -0.03852604 -0.113138594 -0.047799975 0.09722358
0.060879163 0.0812075 -0.100940265 -0.0798142 -0.025546243 -0.0065918337 -0.41432148 0.0073666456
0.023729058 -0.2963264 -0.42343175 -0.31037816 -0.23284085 -0.18129784 -0.2022956 0.14267515
0.06781652 -0.0362432 -0.37522992 -0.15256117 -0.16528273 -0.098563425 0.17266862 0.010727668
-0.16319972 0.012525883 0.043215428 0.2666258 -0.02734264 0.16473946 0.06658295 -0.110307306
0.07164174 -0.16250548 -0.20703377 -0.04165326 -0.030619977 0.10902919 -0.27980348 -0.06531181
0.15356128 0.05743598 0.10241811 0.19703321 -0.031051759 0.1343484 -0.372666 0.00347229
-0.17127895 -0.22035012 -0.12252529 -0.086738445 0.09270856 -0.13210696 -0.047008637 0.16247603
0.019678198 0.111039884 -0.064068936 0.06020356 -0.30183512 -0.14084642 0.12488054 0.08684519
-0.1811923 0.027154803 -0.020920724 -0.16778 -0.12728131 0.015960824 -0.020964274 -0.02278459
-0.012172599 0.06617304 -0.12714678 0.053350493 -0.17906047 0.026805846 -0.028125703 0.017439792
-0.024497235 -0.009100882 0.072697006 -0.16998132 0.0915862 0.04488536 0.015867537 -0.038427547
0.104465246 -0.45712104 -0.26733327 0.09651925 -0.06155155 0.0690152 -0.11205357 0.009052934
-0.13924882 -0.0001929489 -0.1686267 0.08432229 0.121341445 0.3232557 0.0972936 0.028718343
0.09241574 -0.21367735 -0.027860867 -0.10494954 -0.11537445 -0.23428953 -0.05576428 -0.06469717
0.09602176 -0.32216638 0.0139400065 -0.07749982 0.061174247 0.1606738 0.052162904 -0.013203707
0.108443454 0.09082602 -0.010633654 0.07980852 -0.21694627 -0.14907162 0.100580245 0.083693534
-0.2910817 0.04758553 -0.23550001 0.002703816 0.05585931 -0.019005762 -0.033467487 -0.33815828
-0.079956144 -0.03024701 0.0037377228 0.024837513 -0.047137834 0.02115219 -0.33644316 -0.11150973
-0.036587466 0.1552694 -0.024508715 -0.20044374 -0.096966535 -0.16654609 -0.08821305 -0.21877708
0.055355646 0.048393987 -0.010521421 -0.03524131 0.13988127 -0.1198122 0.1580951 -0.21015416
0.08675046 -0.0702398 0.09928422 -0.08348642 -0.23052527 0.0059614764 -0.06683711 -0.18339093
-0.05235363 -0.1276593 -0.05002414 -0.070302635 0.012240866 -0.058130316 -0.00562422 0.02107408
-0.18021566 -0.44306245 -0.034949187 -0.06650561 -0.025283381 0.12066302 -0.23476182 -0.09072445
-0.28576422 0.029259302 -0.049421687 -0.12637399 -0.20956847 -0.13168807 0.029782105 0.039858736
0.088651486 0.011328798 -0.20691307 0.055122353 -0.038448744 0.07681485 -0.013021609 0.12079087

fc2.bias f4 [256]
00000000: 32aa 49bd b9fc 2cbe 94c0 22be 1b5c d33d
00000010: 5c0c 1bbd 8405 8fbe 72fd 9e3d 9732 e83d
00000020: 982a d8bd 03c7 2bbd f9b7 9cbd 6c91 a83d
00000030: 942f 09be c9d4 40be 2a22 9dbe 3869 913d
00000040: fd56 493a 5017 783b b630 15bd 9b2e 8c3d
00000050: c49b 69be d50d 1e3d 81c1 82ba 9e7a 223d
00000060: dcab bebc 0d77 0e3c b51d 1bbd 9fe5 b83c
00000070: b01a da3c 91cc 57be 58c3 07bd 19d0 913d
00000080: 1139 8c3c 6fc4 cfbc c6ba a8bd ca8e 3abc
00000090: 6e0e a2bd 829a 833d 5ebf 773d 8a03 dabd
000000a0: 4779 5b3c 2363 6bbe a274 4cbd eeaf 18be
000000b0: 73ba 393d 2535 99bd a6ae c3be 55cb 97bc
000000c0: ffc7 e2bd dd04 a13d 1844 3e3d 73eb 70be
000000d0: 54a5 00bd 6fcf a2bd 2b96 1abe 2ed1 1abe
000000e0: dc4a 7bbd 9503 95bc c5bc f5bd 679c 05be
000000f0: da87 a0be 938d ecbe 4d33 17be a2cd de3d
00000100: 2b92 483d 019f 293d c628 eabd c784 933c
00000110: ea96 b03d ac51 9cbe 726e ebbd 615d 833d
00000120: 0015 d6bd 4931 f6bd 84cb d6bd 5161 f43d
00000130: d70a 1bbe 7c5b 01be f1f4 863d 1630 813a
00000140: 753d 9b3d 4144 bf3d 46d2 a9ba da99 8d3d
00000150: 3d0c e7bd 6355 2fbe d4b9 3bbd f0c4 4abe
00000160: 28c8 043e f92e a3bc e8b0 db3d 3608 4bbe
00000170: b01c a5bd f761 58bd c64b 1abe 1e5f 853e
00000180: e1c6 6cbd df2a 61be 271e 01be 8945 bbbd
00000190: 8157 34bc 347d 873b 0562 04bf e8c1 3abd
000001a0: fb16 0f3d 5866 a0bd 8aa3 f1bd 7f0d 1abe
000001b0: e1b9 583e 2519 36be afab a53c c958 b2bd
000001c0: 0eb1 b1be c8ae e9bc 8c91 66be 6583 23bd
000001d0: 53ff 2cbe 93d3 84be d7fa 803d faa1 24be
000001e0: 01e4 0abd dfee bcbd 6bd9 1fbe 1da5 7e3d
000001f0: 52bb dabd 0083 83bd 92c7 6a3c da24 053d
00000200: 097e 55be 9593 1abe 278d c2bd 09d4 aa3d
00000210: e79f 0ebe 94f1 f7ba 8002 793d c914 10bd
00000220: 23f9 e83d 695f 6abe b9e2 19bf b1ff 26be
00000230: 5abd cbbd 50b0 123e e48b 283e 021e 12be
00000240: d870 d9bd 8f83 2ebf 7809 08be 4b2b e3bd
00000250: c28c ef3d 95cd 15bc b2d7 35be 7bf7 163d
00000260: 73b6 b9bd 6bdb 013c dea5 143e 5bec aebd
00000270: 1dac 10be bd34 ebbc e877 4b3d f3d9 f33c
00000280: e58f 873d f017 cdbd c116 52bd c407 7fbd
00000290: d7f9 1fbe 30c0 883d 2eab e13d cf9d 22bc
000002a0: 96b2 5cbe 972a 8a3b 9b3b d53d 0c11 24ba
000002b0: 903e abbc dcb8 cbbd 3934 4bbc 1eaf aa3a
000002c0: 2f8c 78bc 997f 343c 56e6 d1bd bed5 86be
000002d0: e801 d13c b6f6 0dbc ad20 703d 3153 3abe
000002e0: 715f 22bd 4b06 023e 0648 863d c4cd 053d
000002f0: c884 debd 3dbf 8f3c 056f 013c 264a e1bd
00000300: f025 7c3d c916 0bbe ff49 42bc 5378 d6bd
00000310: 6a27 07bd 69ca 80bd 0dd9 653d 29b2 a5be
00000320: 9788 ebbd eccf ccbc 2ead 673d 8daa 1cbe
00000330: e1ae 36bd c6dc 14be 487a dcbb b184 0fbe
00000340: 9540 0ebd 0555 1a3d abc4 08be 4b23 1e3d
00000350: 52ef fabc d653 08bd a5fb 853d 5bb1 b3bd
00000360: a7df adbd c852 3dbc 9cab a9be 211f ffbd
00000370: f19e a4be 4936 9f3d c0bc c1bc 3217 86bd
00000380: 9ed9 a8bd 24c1 cebe 4629 13bc bb2c a9bd
00000390: dcc5 223d f855 b83c a406 2ebc 07dc 5cbe
000003a0: a8e0 3ebe ccf1 4abc 39cc 44be 0784 a7bd
000003b0: fd03 88be 28e8 4ebe 381b 313d 3c3a 0dbe
000003c0: 227f 3abc 49d6 d6be 1cf0 033f f176 1dbe
000003d0: 1672 dcbd 63cb 253e 3140 6fbe 4b08 3dbd
000003e0: 4c40 e7bc 806d 923c 52e5 b2be 3369 da3c
000003f0: 2842 fcbb 5620 d4bd ab10 8abd f944 b93c
-0.049234577 -0.16893281 -0.15893775 0.10320302 -0.037853584 -0.27933896 0.077631846 0.11337774
-0.10554999 -0.04193784 -0.076522775 0.08230862 -0.13397056 -0.18831171 -0.30690128 0.07100147
0.0007680504 0.0037855692 -0.036423407 0.06844827 -0.22813326 0.03858741 -0.0009975882 0.039667718
-0.023275308 0.008695376 -0.037870128 0.02257043 0.026624054 -0.2107413 -0.03314528 0.071197696
0.017117055 -0.025362222 -0.08238749 -0.011386583 -0.079129085 0.064259544 0.060485236 -0.10645206
0.013395614 -0.22987036 -0.049915917 -0.14910862 0.045343827 -0.0748084 -0.38219184 -0.018529573
-0.110733025 0.07862256 0.046451658 -0.23527317 -0.03140767 -0.07949721 -0.15096347 -0.15118858
-0.06135069 -0.018190185 -0.119988956 -0.13047944 -0.31353647 -0.46201763 -0.14765663 0.10879065
0.04896752 0.041411404 -0.11433558 0.01800765 0.086225346 -0.3053106 -0.11495675 0.06414295
-0.10453224 -0.12021119 -0.10488036 0.11932624 -0.15140854 -0.12632555 0.065896876 0.000985625
0.075800814 0.0933919 -0.0012956343 0.069141105 -0.11281631 -0.17122416 -0.045831516 -0.19801688
0.12966979 -0.01991986 0.107271016 -0.19827351 -0.08062112 -0.0528278 -0.15067968 0.2604913
-0.057806853 -0.2198901 -0.12609158 -0.09144122 -0.011007191 0.0041347984 -0.51712066 -0.04559508
0.034934025 -0.078320205 -0.11798771 -0.15044211 0.21164657 -0.1778303 0.020223467 -0.08708341
-0.34705395 -0.028525725 -0.22516459 -0.03992023 -0.16894273 -0.25942668 0.06297844 -0.16077414
-0.033908848 -0.092252485 -0.15610282 0.062169183 -0.1068026 -0.06421471 0.014329808 0.032505848
-0.2084886 -0.1509536 -0.09499579 0.08341224 -0.13928185 -0.00189166 0.0607934 -0.035176072
0.11375644 -0.22887959 -0.60111576 -0.16308476 -0.09948225 0.1432507 0.16459614 -0.1426926
-0.10617226 -0.6816949 -0.13284862 -0.11092242 0.11696769 -0.009143253 -0.17758062 0.03685711
-0.090680026 0.0079258485 0.14516398 -0.08541175 -0.14128156 -0.028711671 0.0496749 0.029767012
0.066192426 -0.10014331 -0.05129123 -0.062263265 -0.1562265 0.06677282 0.11018978 -0.00992532
-0.215525 0.004216503 0.104117595 -0.00062586437 -0.020903856 -0.099473685 -0.012402588 0.001302216
-0.015170141 0.01101675 -0.10249011 -0.26334947 0.025513604 -0.0086647775 0.058624912 -0.18195798
-0.0396418 0.12697713 0.06556706 0.032666937 -0.1086517 0.017547244 0.007900004 -0.11000471
0.061559618 -0.1358291 -0.011858462 -0.10472169 -0.032996573 -0.06288607 0.0561152 -0.32362488
-0.11500662 -0.025001489 0.05656164 -0.15299435 -0.04460037 -0.14537343 -0.0067284442 -0.14015462
-0.03472956 0.037678737 -0.13356273 0.038607877 -0.030631695 -0.033283077 0.06542138 -0.08774062
-0.08489924 -0.011555381 -0.3313874 -0.12457109 -0.32152513 0.07774026 -0.023649573 -0.06547393
-0.08244632 -0.4038173 -0.008982008 -0.08260485 0.039739475 0.02250193 -0.0106217 -0.21568309
-0.18640387 -0.01238675 -0.1921853 -0.08179479 -0.26565543 -0.20205748 0.04323885 -0.13791746
-0.01138285 -0.41960362 0.5153825 -0.15377404 -0.10763948 0.16190867 -0.23364331 -0.046150487
-0.028228901 0.01787448 -0.34940583 0.026661491 -0.007698316 -0.1035773 -0.067414604 0.022615897

fc3.weight f4 [128, 256]
00000000: e289 873c 93c2 c9bd aa63 f03b 7c9d 28be
00000010: f47c 00be 6f43 433d 03af a43a 965a 383d
00000020: c6b3 bdbc 9370 f8bc e2e8 213e 9c08 73bd
00000030: 2867 f23d d69a dc3c 7d8e 0fbe 6794 073e
00000040: 5c92 6f3c f53d debd 4c9b 5ebe dfad 8fbd
00000050: fe16 fcbd b8bd 25be a4c3 9dbe a513 40bd
00000060: 24e3 2a3e 4d57 6d3d b32d d9bd a2eb 213c
00000070: b500 8f3e 4ed1 243e 75bb 62be 38d9 e03d
00000080: bae2 bebd 5cd9 44be c3f5 edbd 0e32 103e
00000090: 277f 343d 8783 093d ad5a 22be 29ee 45be
000000a0: 3c5e 5bbe 6858 dc3d a819 20be 1f34 45bd
000000b0: 6adc 7ebe 06bb fabd ec6f 2abd a634 323e
000000c0: 4bd6 bebc cd9a a8be d848 01bd da33 febd
000000d0: c29e d4bc c7f4 49be 3b70 9b3d f217 46be
000000e0: 15e6 683d 0e78 2d3d d345 a03d 4921 523d
000000f0: 1e62 17be 4f01 a2be b64a e83d eaf8 1abe
00000100: b9a1 11be 28ca 323e 5561 553c 8dfa adbd
00000110: 052d bc3b 5149 cebd 052c 9dbe 9d43 863d
00000120: 8a0f c4bd 0849 e13d 683f 0a3e 951d 9cbd
00000130: 011a 48be 7aa8 7bbd c679 c9bc e0de 6f3e
00000140: f022 653d acae a9be bef4 353d 8671 9d3d
00000150: bb63 c43d 4cb5 15bd f3ba 583c 7216 45be
00000160: 2c6e 04be c0e6 543d 08a4 28be 7790 79be
00000170: ca50 30be b1d0 043e 0c7f c03d 12f7 85bc
00000180: 809e 2a3d f55f 03be 193e a0bd 353d ad3d
00000190: 1bf1 d33d 369f 00be b7b2 653d 5890 d23c
000001a0: 4538 f53c 25fe 7c3d 715a df3d 6ed4 80bc
000001b0: 650d a9bb d011 8d3d 1fea 1d3d 2df7 97be
000001c0: cb42 b8bd 76a5 3a3d 9152 57bd 54d5 ba3d
000001d0: 8d05 6fbd ede0 553e beff 0dbe 5b30 e03d
000001e0: 7153 0d3e 3786 003e 5b2b 96bd 844b 1c3e
000001f0: c316 06be 54cb 2f3c c670 553d 0e89 fd3d
00000200: b6c9 453d 75fd 453d 4990 093d ecad 773d
00000210: 7c3d 383e 6f83 4c3d fb92 bebd 01c5 2e3d
00000220: ee98 0abe 20f1 ba3d 5d94 193e f4a1 d73c
00000230: c0b1 343e faad c8bb 431a 85bd 1dc5 56be
00000240: 633d 763d ec6a 8dbd 8b90 9f3d b69b 403c
00000250: 85ca 193e 1127 133e 4d31 cdbc 5a34 e63d
00000260: a05d 4a3e b714 c0bc 0188 1bbd a9a8 8a3d
00000270: 1723 99bd b761 c7bd 7e6b 6b3d 7658 26be
00000280: 3b0d aabb 8e01 dcbd 678b 41be c05f afbd
00000290: 6f52 f0bc 7955 1a3b 0a23 c83c 2e57 b9bc
000002a0: 7e9c 04be 13d0 bcbc ccbd 83bd 0262 05be
000002b0: 2b07 9d3e fc60 f73d c6af e53c b5b6 d33d
000002c0: bcdd bebd 180f 113d 1dcf 653d d357 8dbc
000002d0: 4a95 91bd 985c 1c3e d8ae 1dbe 5f4a b3be
000002e0: a857 a63d 0308 343d 5f44 84bd 447d 4a3e
000002f0: f953 f0bd 7eae 433d 12e7 dbbd 70b2 f0bd
00000300: 27ef 0ebe e7d9 163e 8a15 8e3d c3f3 53bd
00000310: 0bc6 263d 122b 203e 986a 21bd cf02 a3be
00000320: 924e 6fbd b530 173e 3ecf 4c3d 33a2 8a3d
00000330: 3e49 cdbd d51d da3d 7c06 81bb 7309 f63d
00000340: 33f8 9fbc 50ce 5c3d cdb1 53bd 0650 9ebd
00000350: d4e5 08be 541f 123e a0c8 a93c dc5c d13d
00000360: e1ee 4b3d ff0f 38be 3d6d e43c 826e 033d
00000370: 1622 18bd 139b 83be f4fc 6ebc c9b8 183d
00000380: 00e0 0d3e 0d45 eabd d120 19be 7444 edba
00000390: b2e9 33be 49cb f43d 466d 38bd 16e3 093e
000003a0: 5756 5b3e 86ed 93bd 2812 17be 5c3d 60bc
000003b0: b641 15be c66b 5cbe 8509 4a3d fc0c 02bc
000003c0: 2934 50bd 6aa0 3abe 11ae ee3c 2370 2e3e
000003d0: a924 02be b979 93be fd06 92be e3d5 933e
000003e0: 40de ddbd 9a9d 8abd b455 89be 4a45 cebc
000003f0: 432f 42be 399e a33d 6a74 90bd 7d27 273c
0.01654524 -0.09851565 0.0073360996 -0.16466326 -0.12547666 0.04767173 0.0012564365 0.045008264
-0.023157012 -0.030327117 0.15811494 -0.059334382 0.11836082 0.0269293 -0.14019199 0.13240205
0.014622297 -0.10851661 -0.21738929 -0.07015585 -0.12309073 -0.16185653 -0.30813324 -0.046893734
0.1668821 0.057944585 -0.106044196 0.009882839 0.27930227 0.16095468 -0.22141822 0.10978931
-0.093205884 -0.19223541 -0.11619141 0.14081594 0.044066574 0.0335727 -0.15854903 -0.19329132
-0.21422666 0.1075905 -0.15634787 -0.04814541 -0.24888769 -0.12242703 -0.041610643 0.17402896
-0.023295542 -0.32930604 -0.03156361 -0.12412234 -0.025954608 -0.19722281 0.07589766 -0.19345072
0.05686005 0.04235082 0.07825818 0.051301274 -0.14783522 -0.31641623 0.11342375 -0.15134016
-0.14221849 0.17459929 0.013023694 -0.084950544 0.0057426714 -0.10072578 -0.30697647 0.06555865
-0.09573276 0.11000258 0.1350075 -0.0762283 -0.1954117 -0.06143997 -0.024594199 0.23424864
0.055941522 -0.33141077 0.044422857 0.076876685 0.095893346 -0.03654985 0.013228166 -0.19246843
-0.12932652 0.051977873 -0.16468823 -0.24371515 -0.17218319 0.12970234 0.09399232 -0.016353164
0.041655064 -0.12829573 -0.07824344 0.0845894 0.103487216 -0.12560734 0.05607864 0.025703594
0.029934058 0.06176581 0.10905922 -0.015726294 -0.0051590675 0.06888163 0.038553353 -0.29680768
-0.08997115 0.045567952 -0.052568976 0.0912272 -0.058354903 0.20886584 -0.13867089 0.10946723
0.13801362 0.12551199 -0.07332488 0.15263182 -0.1309462 0.01072963 0.052109502 0.12379657
0.04828807 0.04833742 0.033584867 0.0604686 0.17992204 0.049930032 -0.09305378 0.042668346
-0.135349 0.09128022 0.14998002 0.026322342 0.17645931 -0.0061242552 -0.0649915 -0.2097363
0.060117137 -0.06905159 0.07791241 0.011755874 0.15018661 0.14370371 -0.025047923 0.11240454
0.19762278 -0.023447378 -0.0379715 0.067704506 -0.07477396 -0.097354345 0.05747556 -0.16244683
-0.0051895655 -0.10742484 -0.18900834 -0.08563185 -0.029336182 0.002354948 0.02443077 -0.022624578
-0.12950322 -0.023048436 -0.06432685 -0.13025668 0.3066953 0.12079045 0.028037917 0.10337583
-0.09319636 0.035414785 0.05610572 -0.017253792 -0.07108553 0.15269697 -0.15398729 -0.35017678
0.08122188 0.043952953 -0.06458353 0.19774348 -0.117347665 0.04777383 -0.107374325 -0.11752784
-0.13958417 0.1473156 0.06937702 -0.05174614 0.040716212 0.1564143 -0.039408296 -0.3183808
-0.05842454 0.14764674 0.05000233 0.06769218 -0.100237355 0.10650221 -0.0039375406 0.12013521
-0.01952753 0.053907692 -0.051683236 -0.07730107 -0.13368922 0.14269763 0.020725548 0.1022279
0.04978836 -0.17974852 0.02788412 0.03208781 -0.037141882 -0.2570425 -0.014586676 0.0372856
0.1385498 -0.11438952 -0.14953925 -0.0018102066 -0.17569616 0.11952836 -0.045026086 0.13465533
0.21419655 -0.072230384 -0.1475302 -0.013686504 -0.14575848 -0.21525487 0.049325485 -0.007937666
-0.050830994 -0.18225256 0.029135736 0.17034964 -0.12709297 -0.28803805 -0.28520957 0.2887412
-0.108334064 -0.06768341 -0.268232 -0.025179524 -0.18963341 0.07989163 -0.07053454 0.010202286

fc3.bias f4 [128]
00000000: 69ba e83c cf03 e0bc e730 8ebe 761a 10be
00000010: 8a12 82be 7873 083d 9ec3 edbe 4a2e 3a3e
00000020: 2955 1ebd 748b 88be 835b e03b a6af a3be
00000030: 15aa 72be 10a6 fb3e 176d b83d 1ca5 cdbd
00000040: 2c96 1abe 488c 20bd 9654 14be 9052 5abe
00000050: 7107 80be 695b cabd 1f72 a23e 8bdd 9ebe
00000060: 8f62 973e 9ee6 49be 5fca adbe 0053 84be
00000070: e6e8 e2bd 40c0 b0bd 3276 463f 2651 c3be
00000080: 793e 83bd bfb5 d8bd 41ff 87be ef8c d6bc
00000090: 754a b5bd 09b7 31bd cc6b 9dbe 7ded 5bbe
000000a0: 230a 19be 1a70 77be 7a91 62bd 4977 17be
000000b0: 83c9 e6bd 68b3 113c d96b cb3e 14b8 91bd
000000c0: ad6f 12be 6187 d63d e2aa 3abc 9929 b1be
000000d0: 3a04 583c 82bd 9abd f4a3 ccbe 16f9 b9be
000000e0: ee47 1bbe 5678 82be 09ec 2b3b ceb6 e3bd
000000f0: e902 adbe a8a0 9fbe 0c54 dfbd 29c7 84bd
00000100: a01a 0c3e 9b66 ebbd fb5d 5b3d cf41 d13e
00000110: 91f0 76bd 2800 bb3e 296a cf3d 84fd 1ebe
00000120: 199f 10be c54a d2be d617 b4be 0dfa 95be
00000130: 20de 59bc 90b0 c1bd 48f0 a8be 8ca1 8cbe
00000140: f3e3 433c 988a 943d 3380 12be 9eb1 1bbe
00000150: 7e51 dbbd c2c9 ea3d 79a0 18bd e816 573c
00000160: 786d 283d 7017 9b3c 4e84 c2be 02bf aebe
00000170: 50ca 23be 7f73 57be cd62 89be 86fc 5dbd
00000180: d525 a3be 392c 95be 0206 9d3d ec8d aabe
00000190: 7476 1e3b 49e9 d4bd b44b 863e d6ed c63b
000001a0: d2b2 493c fd74 9fbe 3a3e 90be d209 b0bc
000001b0: 1f5e 6c3d 2148 d83c 082e 54be 4f87 753e
000001c0: 6929 a9be fff0 083e 6ed2 843e 415d 09be
000001d0: 53a0 6cbd 6536 c4be 6934 17be 5eff 053d
000001e0: cb10 92be a0a1 2fbd 8832 fabd b175 223f
000001f0: 9357 a6be 2082 35bd 9eaf 9dbd 2a1f 8e3e
0.0284092 -0.027345566 -0.27771685 -0.14072594 -0.2540477 0.033313245 -0.46438307 0.1818172
-0.038655434 -0.26668894 0.0068468465 -0.31969947 -0.23697694 0.49150133 0.09005182 -0.10041258
-0.15096349 -0.039196283 -0.14485392 -0.21320558 -0.25005677 -0.09880716 0.31727692 -0.310284
0.29567382 -0.1971688 -0.3394346 -0.25844574 -0.11079578 -0.08630419 0.775241 -0.3814785
-0.064084 -0.1058154 -0.2656193 -0.02619025 -0.08852092 -0.043387447 -0.30746305 -0.21477313
-0.14945273 -0.24163857 -0.05531452 -0.14791597 -0.11268904 0.008892871 0.3973072 -0.07115188
-0.14300413 0.1047504 -0.011393281 -0.3460205 0.013184601 -0.07555677 -0.39968836 -0.3632285
-0.15164158 -0.25482434 0.0026233217 -0.111188516 -0.33791283 -0.31177258 -0.109047025 -0.06483299
0.13682032 -0.1149418 0.053556424 0.4087052 -0.060288016 0.36523557 0.1012767 -0.15526396
-0.14123191 -0.4107267 -0.35174435 -0.29292336 -0.013297588 -0.09457505 -0.3299582 -0.27467
0.011956203 0.07252997 -0.14306717 -0.15204474 -0.10708903 0.114642635 -0.037262414 0.01312802
0.041120023 0.018932074 -0.37991565 -0.34130102 -0.15995145 -0.21040152 -0.26833192 -0.054195903
-0.318648 -0.29135302 0.076671615 -0.33311403 0.002417949 -0.10396058 0.26229632 0.0060708327
0.0123107005 -0.31143942 -0.28172475 -0.021489058 0.05770695 0.026401581 -0.20720685 0.23977397
-0.33039406 0.13373183 0.25941795 -0.1341448 -0.057770085 -0.3832275 -0.14766087 0.03271424
-0.28528437 -0.042878747 -0.12216669 0.6346083 -0.3248869 -0.04431355 -0.07699512 0.2775815

fc4.weight f4 [1, 128]
00000000: 9bde 193d a0ad d2bc c930 94bc 2670 e03c
00000010: 1dbb 06bc cfae 0cbd 3d2e 963c 40bc 5f3c
00000020: c5e6 c2bc 4dc8 61bc 81cc 013d ed9b a0bc
00000030: 660a 2ebd e9fa e53c 9f10 87bc e3d1 5abc
00000040: 9b13 02bd e20d 93bc bc24 0cbd 8abd a5bc
00000050: 0b93 bcbc 29e4 35bc 59d7 263c 340c 9ebc
00000060: 432c 21bc 1b79 7ebc 9f45 a8bd 5a39 a1bc
00000070: a5d6 bfbc d9d6 953c 016f eb3c f25f 04bd
00000080: b3ef 8cbc 2a1d 353c 8f0c 31bc 4c4e ebbc
00000090: ae7b babc 573b bcbc d57d e5bc 1b83 a33c
000000a0: 560b c4bc 72a1 22bc 1397 cabc 5b79 c6bc
000000b0: 58c4 a4bc 2d71 d6bc 9c1c 173c 17b3 fb3c
000000c0: f434 7fbc cebf 923c 9113 a7bc 6a81 9a3b
000000d0: ea6a 47bd 59d5 073d c53d 69bd 5d59 89bd
000000e0: 3016 59bc c050 35bc f2cd a43c c2c9 9d3d
000000f0: 7d25 3bbd 92ae c4bc ef72 fb3c 1b2f c5bc
00000100: 77e5 99bc 6fcf 45bc 1a45 98bc e069 9a3c
00000110: f815 f1bc 0dd0 61bc 99cd 8a3c 09f5 2fbd
00000120: 9f40 ba3d b3f7 9abd 5310 4ebd f3e0 513a
00000130: ba12 c43c 3481 a63c b996 f1bc 86fe 0bbc
00000140: d7d5 a43c f71b 71bc 16a0 f6bc 8281 babb
00000150: 0b68 02bc 681b 053d 2cde b1bc e941 133d
00000160: 7142 263c 7ce6 3e3d 5cb4 76bd 84e4 49ba
00000170: 2511 01bd 22b5 e4bc 61f7 e53c 7e69 8a3c
00000180: 4f95 6cbc 3f65 46bc f79c 3ebd c50f 97bb
00000190: 6ac5 a7bc b87a b6bc ad43 20bd 1caa 733c
000001a0: 2a13 a43c b554 04bd c8d8 ffbb 6269 0f3c
000001b0: 2580 ca3c 979b 993c b8bd 4bbc 61e8 653c
000001c0: 4c33 f6bc ec9b 643c 6694 05bd aff8 60bc
000001d0: 6ffa 23bd bb7e 88bd b085 173d 3f57 043d
000001e0: 8e0f 86bc 20d1 9b3c 99df 9cbb 4130 6d3c
000001f0: ad71 36bd 9f5e 9ebc 5cd8 c9bc b8e4 bb3c
0.03756581 -0.025717556 -0.018089669 0.027397227 -0.008223322 -0.034346398 0.018332595 0.013655722
-0.02379168 -0.013780666 0.03168917 -0.019605601 -0.042490385 0.028073745 -0.016487418 -0.013355705
-0.03175698 -0.017950956 -0.03421472 -0.02023198 -0.023019334 -0.011101761 0.010183179 -0.019292928
-0.009837213 -0.0155318035 -0.08216404 -0.019680668 -0.02341778 0.018290924 0.028739454 -0.032318063
-0.017204141 0.011054317 -0.010806217 -0.028723858 -0.022764053 -0.022977514 -0.028014103 0.019959977
-0.023931187 -0.009926187 -0.02473024 -0.024227789 -0.020113155 -0.026177013 0.00922313 0.030725045
-0.01557659 0.017913725 -0.020395072 0.0047151344 -0.048685946 0.03316245 -0.056943674 -0.06706498
-0.013249919 -0.011066616 0.020117734 0.07704498 -0.04569005 -0.024009023 0.030694453 -0.024070313
-0.018786175 -0.012073382 -0.018587638 0.018849313 -0.02942942 -0.013782513 0.01694374 -0.042958293
0.09094357 -0.07566776 -0.050308537 0.00080062373 0.02393471 0.02032528 -0.029490815 -0.00854457
0.020121498 -0.01471614 -0.030105632 -0.005691708 -0.007959376 0.03249684 -0.021712385 0.03595153
0.010147677 0.046606526 -0.060230598 -0.0007701593 -0.03151049 -0.027918402 0.028072061 0.016896006
-0.014439895 -0.0121091 -0.046536412 -0.004610034 -0.020479877 -0.022275314 -0.03912704 0.0148721
0.02002867 -0.032307345 -0.0078078248 0.008753153 0.024719307 0.018750949 -0.012435369 0.014032454
-0.030053757 0.01395319 -0.032612227 -0.013731166 -0.040033754 -0.06664797 0.03699273 0.032309767
-0.016364839 0.019020617 -0.004787397 0.014476837 -0.044542003 -0.019332228 -0.024639301 0.02293621
