MADDPG/checkpoints/checkpoint_actor_1.pth (torch, 160023 bytes, 6 tensors)

fc1.weight f4 [256, 24]
00000000: feaa f6bd 946f 7d3e f143 e5bd 7a60 04bb
00000010: 2300 723e 4b3c b33d cdd7 e93d c8ec ec3d
00000020: 8db3 11be 88cd 7b3e ff65 5abe ed82 a83d
00000030: b2b9 b73e b33c b63d bdb2 273e a0c0 36be
00000040: 0293 ba3d d2a1 5b3e f429 25bd db07 93be
00000050: 4c54 aa3e 7d8a 653e 98c2 adbd 1609 93be
00000060: 6729 f03d 4468 cc3e e201 353d 1646 b53c
00000070: b5cb 95ba 75c9 0bbe ff6a 4dbe 6ba4 e53d
00000080: cb3a 6e3e 1b5f 183d 3e9c 8dbd bf59 08be
00000090: f42e 1bbe 50b5 2fbe 303d 1bbe 013a 363e
000000a0: b87b 863e 0483 7d3e 5fcb 623c 17ab de3e
000000b0: 3a51 123e 28c1 633d c113 ec3d 15e7 c23d
000000c0: e397 803e 5623 dabc bee2 973d fad8 10be
000000d0: 3739 7dbe 359d 8a3c c748 2a3d 7152 04bd
000000e0: b989 633e e9a5 a1be e149 3a3e 4964 c93d
000000f0: 00e9 84be 14e2 7e3d 8969 27be 8b6d e9bd
00000100: f9c5 0f3e 2e8f 83be ce00 b0bd e671 4d3e
00000110: 5d03 84bd ffd0 6d3e 49c7 20be b5db f3bd
00000120: 9ade 2f3e 0dc5 043e e162 f93d 9b43 f03b
00000130: f0cf 103e 93c1 833d 8fb5 60bd c76c 8f3d
00000140: 2031 823e 32b8 29be 8c48 143e 5ed5 393c
00000150: 3db6 c0bd 4000 813e ca8b d6bd 7d0e 2e3e
00000160: 1629 a2bd 7c2c 98be 49d3 483e 90e5 923e
00000170: d03e 563e f78c ec3e ce59 b0bd 85b9 e03d
00000180: 02f6 8cbc 7754 b7be d585 dc3d b22e 40be
00000190: ee7f 193e adab b73d dc46 cb3c 802b d9bd
000001a0: b30f 193c fe66 63be 3fec 20bd edc9 793e
000001b0: d220 d7bd 9ea8 d1bd af2c a83d 0d0d 333e
000001c0: 4eee dbbc 0c8e b3bd 3b04 043b 150e c73e
000001d0: b597 f53b 8a97 e2bc 6fdd 1fbe 651b be3e
000001e0: fd7c 423e 630f 703e bfa1 333d 576d 803e
000001f0: b4c1 d53d b9d0 313e e462 b6bb 2fc4 9f3e
00000200: 6dad 8e3a 7cea 5dbd bf56 f2bd 67ce b3b9
00000210: c21d 093e 8df0 b9bd 5886 7fbd 4c60 a43e
00000220: 4ca0 723d e5da 513e bf02 11be b7b9 68bc
00000230: bbfa 24bd 2472 bebe afc8 71be 1325 ea3d
00000240: 2ea1 a8bd 8802 30be b180 a2bd 718f d1bd
00000250: 7a50 5fbe 8390 ec3d 2a77 40bd dbba ea3d
00000260: 739d 383e b98e 0d3d ee72 503e 9ec6 82bc
00000270: 1c75 9abe 0442 e23d 7836 05be c63d bfbd
00000280: 126a 44bd 38b8 13bd 873b c63d 14db 4fbe
00000290: 28d1 94bd 907f f9bd 0295 ff3d 364d 35be
000002a0: 7fa7 313e d032 64bd de5f 29be b762 2a3d
000002b0: 1858 8c3e 1233 19bd 1d3e 5fbd 883b 41be
000002c0: 805b 2d3d a034 44be 12ca cc3d d0b7 93bd
000002d0: 4bfc f13c 497b 143e 328e e4bd 9386 12bd
000002e0: 562d 54be 39d7 9abd a06c 083d de02 00be
000002f0: e7ca 093e 148b 00bd 9a4e d4bb c919 6dbd
00000300: 0c36 da3d 01b8 f3bc baf3 b73d 08f9 77bd
00000310: 61b2 c63d 33c9 18be a407 0d3d 5f91 5c3e
00000320: f64a 4f3d b34a 16be 2217 023e c7f7 c8ba
00000330: a8f1 0b3e 1133 07bd 43d5 a5bc 0076 aebd
00000340: 084f 19be 1580 a2be 0d09 a13d 4aff 673e
00000350: ea89 aebd 95a0 3c3e ba48 ae3c 8894 2a3e
00000360: 815f 9cbd b143 dd3d baea 5ebd 86d3 e9bd
00000370: 840d a8bd 1cec 26be 60f2 20be 9b19 17be
00000380: 3c20 03be 8830 7c3e 0698 79bd 5e5f 82be
00000390: 3486 f5bd 7345 b1be 0944 253e 165c 6fbe
000003a0: 53d1 6e3d 38ac 213e 54fd 8f3d c6de 78be
000003b0: 9008 8d3e 9129 96be 7b00 593d ce2b 28be
000003c0: c0d3 af3c da32 9abe 4219 c03d fe55 30be
000003d0: ff71 5c3e 681e 24be 7eca 1f3d 6c8d 83bc
000003e0: a31d a43d 91c3 35be 75a8 e93c f4a6 c03b
000003f0: 9203 fd3d c84f a7be d262 47bc 6b1b de3c
-0.12044333 0.24749595 -0.111945994 -0.0020199106 0.23632865 0.08751734 0.11418114 0.115686
-0.1422865 0.24590123 -0.21327971 0.08228097 0.35883862 0.08898296 0.16376777 -0.17846918
0.09110071 0.21448448 -0.040323213 -0.2871693 0.33267438 0.2241611 -0.084843814 -0.2871787
0.11726647 0.39923298 0.04419125 0.022128146 -0.0011428507 -0.13651069 -0.20060347 0.11213001
0.23264615 0.037200075 -0.069145665 -0.13315485 -0.1515463 -0.17159009 -0.1516006 0.17795564
0.26266265 0.2475701 0.013842433 0.43489906 0.14288798 0.05560413 0.11527205 0.09516732
0.2511588 -0.026628178 0.074162945 -0.1414527 -0.24728857 0.016920665 0.041573312 -0.032305185
0.22220506 -0.31571892 0.18192245 0.09833581 -0.25959015 0.062227324 -0.16348852 -0.11397847
0.14040364 -0.25695175 -0.085939035 0.2006298 -0.06445954 0.23224257 -0.15701021 -0.1190714
0.1717476 0.12965794 0.12177063 0.007332278 0.14141822 0.06433406 -0.054860648 0.070031695
0.25428104 -0.16574171 0.144808 0.011342375 -0.09409759 0.25195503 -0.104758814 0.16997714
-0.07917993 -0.2972144 0.19611849 0.28690767 0.20922399 0.46201298 -0.08610879 0.10972885
-0.01720715 -0.3580663 0.10767714 -0.18767813 0.14990208 0.089682914 0.024814062 -0.10604
0.009342122 -0.22207257 -0.0392878 0.24393435 -0.10504307 -0.10237239 0.08211648 0.17485447
-0.026847031 -0.08767328 0.0020144123 0.3887793 0.0074948915 -0.02766015 -0.15611814 0.37130275
0.18992992 0.2344337 0.043855425 0.2508342 0.104373366 0.17364778 -0.005565988 0.31204364
0.0010885425 -0.0541787 -0.11832952 -0.00034295322 0.13390258 -0.090790845 -0.06238398 0.3210472
0.059234902 0.20493658 -0.14161204 -0.014204434 -0.040278178 -0.37196457 -0.23611711 0.114328526
-0.082338676 -0.17188466 -0.07934702 -0.102324374 -0.21808043 0.11551001 -0.046988644 0.11461421
0.18028812 0.03455994 0.20356342 -0.015963849 -0.30167472 0.11047748 -0.1300906 -0.09337954
-0.04795272 -0.036064357 0.09679323 -0.20298415 -0.07266456 -0.12182534 0.12479593 -0.17705235
0.17349051 -0.05571252 -0.16540477 0.041598048 0.2741096 -0.03740222 -0.054502595 -0.18870366
0.04232359 -0.191607 0.09999479 -0.07212794 0.029539248 0.14500155 -0.11159934 -0.03577287
-0.2072042 -0.07560582 0.033306718 -0.12501094 0.13456307 -0.031382635 -0.0064790966 -0.05788592
0.1065484 -0.029750826 0.08982034 -0.06054023 0.09701992 -0.14920501 0.034431115 0.2153983
0.050608598 -0.14676933 0.12704137 -0.0015332632 0.13666403 -0.033007685 -0.020243293 -0.085186005
-0.14971554 -0.31738344 0.078630544 0.22655979 -0.08522399 0.18420632 0.021274913 0.16658223
-0.076354034 0.10803927 -0.05442307 -0.11417298 -0.08205703 -0.16301006 -0.15717459 -0.14755861
-0.12805265 0.24627888 -0.060935996 -0.25463384 -0.11988488 -0.34623298 0.16139235 -0.23374972
0.058305096 0.15788352 0.070307404 -0.24303731 0.27545595 -0.29328588 0.052978974 -0.1642296
0.021463275 -0.30116922 0.093798175 -0.17220303 0.21527861 -0.16027224 0.03901147 -0.016058646
0.08013465 -0.17750384 0.02852271 0.0058792774 0.123541966 -0.32678056 -0.012169557 0.027112683

fc1.bias f4 [256]
00000000: 35f0 313e 9704 0a3e b991 1abd 154d 02be
00000010: 6aef fabc 2453 fc3b 8339 80be c68c 24be
00000020: 1f04 e23d 3c61 223d 6742 1e3e d878 fd3c
00000030: 5934 743e 8cc5 1f3e 6380 543d dd84 38be
00000040: 4cdc a53c b8f1 ab3e fd98 c73d 0090 1c3e
00000050: 61de bebd b9d1 40bd 5f42 04be 086d 1ebe
00000060: a264 f9bd daf2 873e b864 46be 10fc 973d
00000070: cfc1 8a3d 7018 cc3d 42f2 01be f429 59be
00000080: 47e7 583e fed4 863d a5c5 57be c643 49bb
00000090: f70c 9cbe 1ac9 3c3d d8ad 11be 4e62 61bd
000000a0: ddc3 5e3e 1ff3 13bd 9c37 6c3e d33f 55be
000000b0: 17a5 6e3e ec83 303e ab41 423e 7b90 113e
000000c0: ea1a 1f3e 94fe 263e 2d3e 023e ac0e 183c
000000d0: 9832 823e 812c 393e 32b7 283e c051 15be
000000e0: 7ac6 32be 3066 ecbd 0777 cbbc 8160 b7bd
000000f0: 6a25 0fbe 89ed 9e3d 4f4c 3a3e 0d83 f93d
00000100: a3e7 b43e 51fd eebd d939 0ebe ff9a e03d
00000110: 0db2 883e b063 233d 094d 4a3e 1e6f 75bc
00000120: 5893 9cbd f7ff b63d 1a5a a33d 52cc 653d
00000130: f8e1 bdbd 9f89 3b3e 088e a93e 1806 913e
00000140: 961f 8c3c 1c22 fb3d a898 5e3e 1fb5 773e
00000150: 172e 4c3d f0d7 21be 3a73 61be caa7 eabb
00000160: 75b6 c23b 84ef 723a a81a eb3d dfd0 e6bd
00000170: 63ad e4bc 9845 193e 9bed 0f3d f354 2abd
00000180: 48db acbd d227 efbd d1a3 5dbc 6aa6 b63e
00000190: 48ec 8abd 94be 783e df11 ea3d 9361 a33d
000001a0: 20c4 973d 6b9e 81be 39b8 3fbe 3a6c 36be
000001b0: 1ef3 683d 92e6 883d a2b7 8f3d d1ce 263e
000001c0: a389 98bd b537 75be cb2d b6bd 49ec c4bd
000001d0: 0e1b dc3d 6d4d 143e 7e94 963d e4b6 36be
000001e0: 6b84 72bd 7619 9f3d 3370 36bd 2842 12be
000001f0: 8217 f33d 3583 ebbd c72e 33be 0182 53bd
00000200: 5906 febd 78d1 27bd 32cf 28bd 3a26 e6bb
00000210: 8309 c43d 9893 483d a149 6abb bc1b b33b
00000220: 2522 1a3e 02ec ee3d 9c8f 103c 0001 5d3d
00000230: b80a 19be 9e04 563e 846e 663c f110 2ebe
00000240: b111 5e3e d1a0 1fbe 06a6 703d 8b71 173d
00000250: 20c2 823c 7a93 823d c964 a13d fd03 383e
00000260: fd78 11bd 73b9 7e3e bfbc 0a3e f7c9 203e
00000270: 03c4 bc3e 71d8 f6bd 2655 9b3c 5e5c 0a3d
00000280: 80d9 e03d ca41 ffbd 1318 973d 07b7 63be
00000290: 417e bd3d 9ce6 39be 0c90 b63d 6450 d1bd
000002a0: 21f7 0dbc 70a0 ee3b 8cc1 ba3d f16a 9f3d
000002b0: 933d 303e 90fe 633d 5386 143d 9fc1 3cbd
000002c0: cc10 97bd b6ae bdbd 8f3e d0bd d5d2 113d
000002d0: 795d 8b3d 2374 db3d 8cdf 59be 2614 d83d
000002e0: e4e5 bd3c cd17 51bd debd c53c a3dc 46bd
000002f0: d173 383e 294f 8a3d ce98 a03e 1173 203d
00000300: 8b4a af3d d3b0 1a3e 72f4 383e e216 d63d
00000310: a4d4 17bd 5839 56be 20c9 023e af7a 263e
00000320: 8db9 4cbe 5f15 8bbd f4ed acbd a15f 033e
00000330: 0195 9b3c ce9e e33d 7ad2 433e 897f 13be
00000340: f0ec 9cbc 981e 033c bf54 ca3a 93d9 7d3d
00000350: 5e8a 123e b42b 8abe da52 48be 4945 263d
00000360: e0da 153d 70b5 673e 4faf a5be 7c62 1d3e
00000370: 11e3 073e 698e 4dbb 9b34 933e c679 e63d
00000380: db9d 8bbd 4d75 cfbd 87f8 4dbe 786d 5e3d
00000390: 05c7 e83d 50fd d93d 350d 5ebd 5281 20bd
000003a0: 376d 38be 4a6e 0b3e c175 e1bd c2d4 b2bd
000003b0: ffe2 89bd 937e c33d d154 fb3d 6ae0 0abd
000003c0: d8e8 e63d e902 033e 4f18 47be 3c67 07be
000003d0: 46d8 e23d d47c eebd 9a95 0bbe 0a9a d5bc
000003e0: eaeb debd 3c20 98bc 7b26 b63b ddfb 953e
000003f0: 5c74 083d 5155 9d3d a827 59bd d412 a43d
0.17376788 0.13478313 -0.03773663 -0.12724717 -0.03063174 0.007700341 -0.25043878 -0.16069326
0.11035942 0.03964351 0.15455018 0.030941412 0.23848094 0.15602702 0.05188025 -0.18019433
0.020246647 0.33582854 0.09745977 0.15289307 -0.09319759 -0.047075007 -0.12915944 -0.1547128
-0.12177397 0.2655247 -0.19374359 0.07421124 0.06775247 0.099655986 -0.1269007 -0.2120741
0.21181975 0.06583594 -0.21071489 -0.0030710562 -0.3047864 0.046090223 -0.14226472 -0.05502539
0.21754403 -0.03612053 0.23068088 -0.20825128 0.23305164 0.17237824 0.18970363 0.14215271
0.1553761 0.16308051 0.1271903 0.009280842 0.25429225 0.18083383 0.16476133 -0.14581966
-0.17458525 -0.11542928 -0.02483703 -0.089539535 -0.13979116 0.0776015 0.18193172 0.12183199
0.35332975 -0.1166941 -0.13889255 0.10967063 0.26698342 0.03988999 0.19755949 -0.014980106
-0.07645291 0.0893554 0.0797617 0.05610306 -0.09271616 0.18314217 0.33116174 0.28324962
0.017104905 0.12262365 0.21737921 0.24190186 0.049848642 -0.1580503 -0.22016612 -0.0071611153
0.0059421607 0.0009267258 0.11479694 -0.11270308 -0.027914708 0.14967954 0.035138708 -0.04158492
-0.08440262 -0.11677517 -0.013527826 0.3567384 -0.06783348 0.2429145 0.1142919 0.07977595
0.07410455 -0.25316176 -0.18722619 -0.17814723 0.05687248 0.06684603 0.07017447 0.16289832
-0.07448127 -0.23947032 -0.08895453 -0.0961538 0.10747348 0.1448266 0.073525414 -0.17843205
-0.059208315 0.07768528 -0.044540595 -0.14283049 0.11869718 -0.11499635 -0.17498313 -0.051637653
-0.124035545 -0.04097125 -0.04121322 -0.0070236 0.09572127 0.04896888 -0.0035749453 0.0054659527
0.15052088 0.11666109 0.008823302 0.05395603 -0.14945495 0.20900199 0.014064435 -0.1699865
0.21686436 -0.1558869 0.058752082 0.036973517 0.015961707 0.06375785 0.07880551 0.17970271
-0.035515774 0.24875431 0.13548563 0.15702043 0.36868295 -0.12053002 0.0189615 0.033779494
0.10978985 -0.1246372 0.07377639 -0.22237788 0.09252597 -0.18154377 0.089141935 -0.102204114
-0.008664877 0.0072823092 0.091189474 0.07784069 0.17210989 0.05566269 0.036260914 -0.04608309
-0.073762506 -0.09261839 -0.10168182 0.035601456 0.06804938 0.10715511 -0.21276683 0.10550718
0.02318091 -0.05104809 0.024138387 -0.04855026 0.1801293 0.0675338 0.3136658 0.039172236
0.0855914 0.15106516 0.18061998 0.10453583 -0.037068024 -0.20920312 0.12772036 0.16257738
-0.19992657 -0.067911856 -0.084438235 0.12829448 0.018991949 0.11114274 0.19123259 -0.1440412
-0.01915595 0.0080029 0.0015436633 0.061975073 0.14310595 -0.26986468 -0.19562855 0.04059342
0.03658569 0.22627807 -0.32360312 0.153696 0.13270213 -0.00313654 0.28751072 0.11253695
-0.06817218 -0.10129795 -0.20114337 0.054303616 0.11366085 0.10644019 -0.054211814 -0.03918583
-0.18010412 0.1361629 -0.11008788 -0.087319866 -0.06732749 0.095456265 0.12272037 -0.033905424
0.1127488 0.12794079 -0.19442867 -0.13222975 0.11076407 -0.11644903 -0.13631287 -0.026074428
-0.10884841 -0.018570058 0.0055587864 0.2929372 0.033314094 0.076822884 -0.053016335 0.08011404

fc2.weight f4 [128, 256]
00000000: 906a 80bd f0ed 41bd 50a1 113d 8955 55be
00000010: b142 823c 8e34 38b9 81e5 c43c 34ae 673d
00000020: 90c2 36be ea4e 65bd 636d b2bd 3fce bb3b
00000030: d69f 6fbd 989f 6fbd 2764 03be d4bf b13c
00000040: beb5 52ba a57d 92bd 072b 1abd 9996 243e
00000050: cc56 8d3d 5632 073e 757b 863d d812 a53d
00000060: 3f9e 743c e95b 263c 2484 333d 44ee 0e3d
00000070: 9343 79bc 2f14 f93b 2e60 dcbb 4e63 953d
00000080: a164 733d 8d3d 10be 9f61 283d 2fef fc3b
00000090: b4bc c33c 73de bfbc d135 173d ff78 23bd
000000a0: 559c 1fbe e325 08bc f3bc 2cbe 1c7a a8bb
000000b0: 218e 07be d33c 0b3e b57c 443d 88b3 11be
000000c0: 4a46 45bd c826 07bd bdd9 403c e9db f4bd
000000d0: bed1 e3bd 5684 dd3c 7e2c 6dbb c53a 063b
000000e0: 62aa efbd f53d 1e3d 1465 cb3c 04fb f9bc
000000f0: 6a16 1ebc a0d1 203d 71bf 81be 4c55 56bd
00000100: 305b 8bbd 27c7 86bd 2369 d73c 18a3 f83c
00000110: 1913 41bd 6a7c 8f3c 4096 4f3d 8c0f be3d
00000120: 9e54 6d3d cc86 973d cea8 253d acd4 2cbd
00000130: 4fb7 9d3d fa12 98bd 18ac acbd 1714 973b
00000140: 4c1a 36be 4c3e 41bd e7e1 edbc 97d9 043e
00000150: eb77 b63c 1e32 d7bb 48d6 ef3b 1063 093d
00000160: c9de 763d 426f 803d 513e d9bd 4476 893d
00000170: aee5 7b3c 7410 d03b e9ff 053e 0d1b 22bd
00000180: 55ae 933d 9a15 d6bc 3949 a2bd 8b15 aabd
00000190: e6c5 8a3d cc39 a3bc 41a7 55be ef8f 563d
000001a0: 6836 1bbe 57f6 003b 7bd9 ad3b ede1 303e
000001b0: aff3 4bbd 693d 64bd 75e1 a1bc 263b 03be
000001c0: 5c0d 763d e39b 903d 5e79 9f3c 2933 fbbc
000001d0: 1680 70bd 74aa a7bc 9411 df3c 0b23 893d
000001e0: 741a a0bd 6846 82bc 00fd fd3c d575 9f3b
000001f0: 789d 4f3d c003 193c 41fa 933d d211 edbd
00000200: 2cd5 9a3d eeb3 3bbd a16e b2bd fa0f 43bd
00000210: d55c 973d 61e4 4a3d 8c0d c23d 1d4f 0ebe
00000220: c008 713b 1a6d 3dbd 1c35 953d 82d0 003d
00000230: 9ef9 01be 1732 8cbd 85a5 50bd f00f 0f3e
00000240: e424 d73c 23ab 053d 09a2 a33d 61b8 613d
00000250: 7cdd 7ebd 3d05 60bd bd64 ba3d 38ff 06bf
00000260: ded5 e4bc 9c8c 213d 9fd7 de3d 3980 93bb
00000270: f8fb 7abd a7a6 e2bc e1e1 b93d 62ed 873d
00000280: bcc6 ac3b ef62 e63c 0e3c 0fbc 596a 90bc
00000290: c672 983c b8e9 143d a73c a7bd 14e0 6fbd
000002a0: c3c0 8b3a 54dc 953d 2778 84bc 9a57 db3e
000002b0: 61a7 003e e701 a2bd a137 bf3d 88c5 32bd
000002c0: 2f0a febc 29d3 13bd e534 293b e50e 1fbe
000002d0: 12ea 6d3c 2d25 f0bd 4472 363d 5e3b 21bd
000002e0: f5ed 69bc 7f78 fd3d 1527 43bd a5f0 363e
000002f0: 6361 3f3d ebe1 95bd b2bc a7bd b9cb 27bd
00000300: bae1 843b 5e73 83bd 6257 21bd 676b 0d3d
00000310: c0e5 67be b291 8fbb 0cdf c23d e886 073d
00000320: 8cff 8f3d 7867 203d 6f98 9d3d 5a47 86be
00000330: dc16 053e 2f03 863d eab7 113c b7a7 a23d
00000340: a05f b63c 0ad9 dd3c e7dd d7bc 16b9 36be
00000350: c789 bdbd 0fc7 98bc 295b 0f3d cbf6 5a3c
00000360: 696f eabc ff73 923c 0fd9 e03d 58e1 123d
00000370: d2ff debc aed1 c7bd 0da4 42bd 2325 91bd
00000380: 2500 ba3c 0905 ab3d 4db4 6c3d b976 b5bc
00000390: e551 92bc 8f06 16be 0583 003d e3b2 e1bc
000003a0: 1254 943d 795b 9a3d 2620 bc3d a366 1f3d
000003b0: adba 9cbd 5338 b63d 9e30 09bc db46 703d
000003c0: d3a2 cbbd 402d cebc 8c38 0dbd dfad 003e
000003d0: aad1 913d d300 413a b83b 023d d7e1 52bd
000003e0: f5b2 a23d f429 be3d 7975 55bd f2ce 033d
000003f0: b0f2 4f3d f955 02bc 4874 95bb 5289 07bd
-0.06270325 -0.047346056 0.03555423 -0.2083341 0.015900942 -0.00017567186 0.024035217 0.056562617
-0.17847657 -0.05598346 -0.0871227 0.0057313736 -0.05850204 -0.05850181 -0.12831174 0.021697916
-0.0008037946 -0.07152871 -0.03763869 0.16073073 0.06901321 0.13202795 0.06566516 0.08060235
0.014930307 0.010153749 0.04382719 0.034895197 -0.015213865 0.007601283 -0.0067253327 0.072943315
0.05942214 -0.1408598 0.041108724 0.0077189426 0.023893692 -0.023421502 0.036916558 -0.039910313
-0.1558698 -0.008309814 -0.16868953 -0.0051415097 -0.13237812 0.13597421 0.047970492 -0.14228642
-0.048162736 -0.03299597 0.011770663 -0.11956007 -0.111239895 0.027040642 -0.003618985 0.0020481807
-0.1170242 0.038633306 0.024828471 -0.030515201 -0.009648899 0.039262414 -0.2534137 -0.05232744
-0.06804502 -0.06580954 0.02629525 0.030351207 -0.047137354 0.01751538 0.0506804 0.09280309
0.057942025 0.07398757 0.040444188 -0.042195007 0.07700979 -0.074254945 -0.08431262 0.004610549
-0.17783469 -0.04717855 -0.029038383 0.12973629 0.022273978 -0.0065672537 0.0073192455 0.03354174
0.06027106 0.06271221 -0.10607589 0.067120105 0.015374584 0.0063496176 0.13085903 -0.03957658
0.072109856 -0.026133347 -0.07924122 -0.0830489 0.067760274 -0.01992502 -0.20864584 0.05238336
-0.15157473 0.001967808 0.0053054667 0.17273684 -0.04979294 -0.055722628 -0.019760827 -0.12815532
0.060071334 0.07060983 0.019467052 -0.030664044 -0.058715902 -0.02046702 0.027230062 0.06696137
-0.078175455 -0.015902713 0.031004429 0.0048663416 0.050687283 0.009339273 0.072254665 -0.115756646
0.075601906 -0.04582589 -0.08712507 -0.04762266 0.07390753 0.049534205 0.0947524 -0.13897367
0.0036778897 -0.046246625 0.072855204 0.03144885 -0.12692878 -0.068454914 -0.0509391 0.13970923
0.026262708 0.03263391 0.0798989 0.055107478 -0.062222943 -0.054692496 0.091012456 -0.5273318
-0.027934011 0.039440736 0.1088097 -0.0045013693 -0.061275452 -0.027667357 0.09076286 0.06637074
0.0052727144 0.028123347 -0.0087423455 -0.017628836 0.018609416 0.036355704 -0.081658654 -0.058563307
0.0010662306 0.07317415 -0.016170574 0.42840272 0.1256385 -0.07910519 0.09336782 -0.04364541
-0.031010715 -0.03609005 0.002581888 -0.15533026 0.014521139 -0.11725841 0.044542566 -0.039363258
-0.014277925 0.123764984 -0.047644693 0.17865236 0.046723735 -0.07318481 -0.08190288 -0.04096577
0.004055229 -0.06418489 -0.039389975 0.034526255 -0.22646236 -0.004381382 0.09515199 0.03308764
0.070311636 0.039161175 0.0769509 -0.26226312 0.12997001 0.06543576 0.008893946 0.07942145
0.022262394 0.027081031 -0.026350928 -0.17844042 -0.092547946 -0.018649606 0.034999046 0.013364504
-0.028617578 0.017877577 0.10978901 0.035859436 -0.027221594 -0.0975679 -0.047519732 -0.070871614
0.022705147 0.0835057 0.057789136 -0.022151338 -0.017861316 -0.1465094 0.03137495 -0.02755112
0.07242598 0.07536978 0.09185819 0.03891624 -0.07652793 0.08897462 -0.008373408 0.058661323
-0.09943166 -0.025168061 -0.034477755 0.12566327 0.07120068 0.00073624885 0.031795233 -0.05148491
0.079442896 0.09285346 -0.052113984 0.03217978 0.050768554 -0.007955068 -0.004560981 -0.033089943

fc2.bias f4 [128]
00000000: 1cd8 a13c 29e7 953c f89f 87bd 2fa5 10bc
00000010: 2da2 5f3d a686 953d 69c3 11bd 8317 073d
00000020: d9fb 5dbd 2931 fa3c 94c4 4d3d fd68 f8bc
00000030: bd1d b73c e059 acbd d95a fa3c 6020 71bd
00000040: 9db5 4fbd 4640 06be 3bcb e63b 19c2 18bd
00000050: 70fb 90bd 22d8 a4bd b23d af3c 6a99 3fbd
00000060: 3d49 9fbc 7e21 c1bd 1024 b8bc 403e 2d3e
00000070: 271f 023e fe07 1ebc 4fbb 42bd 1fd7 d33c
00000080: 60c6 8d3c 51ba 0c3e 8f1f e4bc ff46 3d3d
00000090: 8b2f b3bd bbdc cd3c 5ef0 aa3c 77cb dabc
000000a0: c6f5 c7bd ce49 933c 9f28 993d 551b 7d3d
000000b0: 128b bebd 72cc 443d 5026 1fbd cb15 a6bd
000000c0: be62 a13d d851 f7bc 3095 fbbd eecb 093c
000000d0: 5044 03bd 4a8e 933c 9d9f 953d 8fa2 ca3c
000000e0: 5d41 46bd 8dda 8c3c 57fe 383d f76c d0bc
000000f0: 61fe 0d3d 9c1d 4cbd 7b7f 443d 93e7 3ebd
00000100: 8c3e a5bd 3d42 aabc af5b 5f3d 5c8f ddbc
00000110: 4410 27bd d2ba a4bd 757b a1bc a734 04bd
00000120: a89b aa3d c624 483d 832a 92bd a0ac 173c
00000130: 5a60 113b 46c5 66bd bf94 0b3c 1dac 923d
00000140: 52a7 50bd 527a fabb 660e a63c 4464 edbd
00000150: 93fa 47bb 6490 6ebc 40e4 e53d 57ad dd3d
00000160: 5355 65bd 96af e5bd b19e a1bc af3b 1fbd
00000170: e946 a7bd a4b6 a93d 6ea4 e8bd b623 bdbd
00000180: e9cc 36bd 171b dfbd 161a 863c 5454 a8bc
00000190: 346e 873d f5dd 12bd 9042 31bc 004c 993d
000001a0: b9e3 c0bd eb18 95bd d143 843d 2ca3 41bb
000001b0: 54b7 cf3d 0c24 60bd d44d 913d 725b 6dbd
000001c0: b8a3 acbd cf32 1cbc ae05 71bd b021 3cbc
000001d0: c356 273d 5ad7 fbbc 9e20 b33d 128a 7e3d
000001e0: 6feb 983d 64a4 0a3d 5d4c 073d 3a38 443d
000001f0: 9e4f babd a0cd 3dbd 585d 44bd 2871 ae3d
0.01975637 0.018298702 -0.066223085 -0.008828445 0.054598022 0.07301073 -0.03558675 0.032981407
-0.05419526 0.03054102 0.0502363 -0.0303235 0.022353048 -0.0841558 0.030560898 -0.058868766
-0.05071031 -0.13110456 0.00704327 -0.03729448 -0.07079208 -0.080490366 0.021391723 -0.046777166
-0.019444102 -0.09430216 -0.022478133 0.16918278 0.12707196 -0.00964546 -0.047541913 0.025859414
0.017306507 0.13742949 -0.02784708 0.046210285 -0.087493025 0.025129667 0.02086657 -0.026708348
-0.097636744 0.017979529 0.07478451 0.061793644 -0.09303869 0.048046537 -0.038854897 -0.081096254
0.07880162 -0.030190393 -0.12284315 0.008410437 -0.03204757 0.018012185 0.073058344 0.024735717
-0.04840218 0.017194057 0.045164432 -0.025442583 0.034666423 -0.049832925 0.047973137 -0.046607565
-0.080685705 -0.020783538 0.054530796 -0.027045898 -0.040786996 -0.08043446 -0.01971219 -0.032276776
0.0833047 0.048863195 -0.07137015 0.009257466 0.0022182674 -0.05634048 0.008519351 0.07161734
-0.05094082 -0.0076439762 0.020270538 -0.1159139 -0.0030514344 -0.014560793 0.11225176 0.108240776
-0.055989575 -0.11215131 -0.01972899 -0.038875278 -0.08167822 0.08286789 -0.113594875 -0.09235327
-0.04462901 -0.10893839 0.01636986 -0.020548023 0.066128165 -0.035856206 -0.010819092 0.07485199
-0.09418435 -0.07280143 0.064582475 -0.002954672 0.10142389 -0.054721877 0.07094923 -0.057948537
-0.084296644 -0.009533598 -0.058843307 -0.011482641 0.040854227 -0.030742336 0.087464556 0.062143393
0.074667804 0.03384818 0.03303181 0.047905184 -0.09097217 -0.046338677 -0.047940582 0.085176766

fc3.weight f4 [2, 128]
00000000: b7a0 5cbe f8e3 b1bc f45f 7bbd df4f 1a3e
00000010: c13e 8c3d 99cd 99be c5e0 7bbc c715 f83c
00000020: 0c8b 9b3d 1e4e 22bd c847 7b3d 95c3 1dbd
00000030: c6cb 1cbd 80c0 18bd ef82 3c3d e0f4 80bd
00000040: ca97 26bd f1e7 76bd ff03 c9bc e4ca f13c
00000050: 1e3a 02bd a633 e6bc 1d27 ab3d d6c7 9ebc
00000060: eb4c 16bd 4aee 06bd 0a67 23bd 32f9 823c
00000070: f14e 93be 476a d73d 248e 95be 18f1 863d
00000080: 1261 2e3e b79b 953d acdf c03c ae71 133d
00000090: 77eb 97bc 312b 92bd 93a5 863d ab1d 48bd
000000a0: e5e3 47bd d543 d63d 0b45 313d c51e 2c3d
000000b0: 6ec0 e7bd f478 a43a 0b51 2bbe c9c2 e4bc
000000c0: 0b8b 043e e5ab d5bc 9337 cbbd 5e8f de3c
000000d0: bdf6 42bd 710d 19bc 5b3c 2f3d 5748 babc
000000e0: 0296 b33d 5468 833d 3472 acbd b41b 163d
000000f0: fed8 793d d1dc 84bc b96a e83c beef 4abd
00000100: 42f8 9bbd 50e8 84bc 2161 ab3d 8ded 893d
00000110: 94ef 3fbd 220b 3fbd fdf9 e63d bbda 223d
00000120: ae99 2f3d 4ccf 173d 7004 e9bd 493f 70bd
00000130: 8299 e8bd a719 a93d 8449 4dbd 2f78 953d
00000140: c2a7 ccbd ec46 883d 7de2 a43c a97f 4abd
00000150: 0e1e 14bd cacd 823e 77e3 a23d 84ff e33c
00000160: 06e0 0fbe 1a52 76bd 1779 ebbd 89b6 33bd
00000170: a003 c8bd e38c 223d 47ba fe3e 5da2 5dbd
00000180: e945 a73c ff0c e1bc d933 733d 35c3 1bbe
00000190: db00 8b3d d07b 303d c1c6 8cbd f341 1e3d
000001a0: 92e6 58bd d7c5 63bd eb20 933d 182c f43c
000001b0: 4203 1a3d 75d4 813c 320c c53d 7d43 05bd
000001c0: dbf7 98bd 685d 05bd 92e3 9a3c 051a d1bd
000001d0: d864 a23c 45cd d8bd f468 803d 2b15 0b3d
000001e0: d83e 743c cb1d b8bd 4f74 90bc c68f 8c3d
000001f0: 6467 5bbd 3699 13bd 2833 7cbd df55 fc3c
00000200: 67f2 923e 9735 55bc 5950 6c3d 8d34 913e
00000210: d181 a13e d4cc 9d3e 6d1c 823d 36c6 6a3d
00000220: 47c1 1bbd 6c02 d4bc 7a68 9e3e ce8d b03c
00000230: b393 88bd d7c4 1d3c 030d 05be 751c d43d
00000240: bb07 8d3e c80f a33d cb0d 53ba 7d29 663e
00000250: 2475 683d d5a6 7e3b 248c 9cbd b918 1f3d
00000260: 99fa 1f3d fcbc c1bc 6b99 523c 2c02 4e3d
00000270: 33a2 c73e 8ba9 863e 1a8c 36be 5087 573e
00000280: 3827 f3bd 4d7e 8fbc 5549 22be e0c6 0cbc
00000290: 6602 c93c 4e8f 84bd c38c c8bd 563f 43be
000002a0: ed27 f03b 8c9f 9ebc 7c0e 0f3d c6f3 47bc
000002b0: 3337 94bd 8010 21bb c8c4 433e 03db 3dbb
000002c0: 1bd6 1fbd 83db a53c 6b0d 35be 10c3 993d
000002d0: eaa4 1d3d 8f16 1ebe 0385 703d 9007 0ebd
000002e0: 9d2e 31bc 853f aabd 42ed d43c 9907 18be
000002f0: b863 d1bc 9148 e3bc 0e95 363d cb4c 593d
00000300: d354 04be b910 b03d c04a e1bd 1693 f0bd
00000310: b5d5 4d3c 81e5 323d 2672 3fbe 731c 05be
00000320: cd29 9c3c 0f57 eb3c f002 8b3e 8cad c43c
00000330: 77c7 f1bd fdaa 3e3e 5f37 023c 430b 843c
00000340: 0f8f ecbc acc0 28bd 2613 9f3d 7bc9 53be
00000350: bb64 9c3b d0d8 713e fba3 4e3d 08ed 483c
00000360: 1cb6 853d b4f3 903d 9d08 73bd 2b3b 17bd
00000370: cee3 0b3d 345c 8c3d fba6 cf3d 3ac2 053d
00000380: 68db bd3e 4895 713d 0f5c d73b 947c 3f3e
00000390: fb2d 983e d705 39be 2727 52bd f596 bc3d
000003a0: 87ef f93c be7e 4fbe ca23 8d3d d45a ed3c
000003b0: 4f55 663d 5613 17be 4c38 d0bd 1be5 a7bb
000003c0: 8b55 dbbd 56c9 c2bb 527b edbd 6f16 6a3d
000003d0: d516 073d 550d f53c 1c6e 82bc 2597 37be
000003e0: e01c 7f3e 87f0 52bd e98d 8cbe d5a6 c9bd
000003f0: 41a7 5bbc cbf7 21bd 2c41 a73c 48a0 773d
-0.21545683 -0.02171515 -0.061370805 0.15069531 0.06847907 -0.3003967 -0.015373413 0.030283822
0.075948805 -0.03962528 0.061347753 -0.0385166 -0.03828027 -0.037292957 0.046023306 -0.06296706
-0.0406721 -0.06027979 -0.024538038 0.029515691 -0.031793706 -0.0281008 0.0835707 -0.019382399
-0.03669445 -0.032942094 -0.039893188 0.015987966 -0.28771165 0.10518318 -0.29210007 0.06588954
0.17029217 0.07305091 0.023544155 0.035997085 -0.018544896 -0.07137144 0.065745495 -0.04885642
-0.04880132 0.10462157 0.043278735 0.04202153 -0.11316 0.0012548254 -0.16730134 -0.027924912
0.12943666 -0.026082942 -0.09922709 0.027167972 -0.04759859 -0.009341584 0.04278217 -0.022739572
0.08768846 0.064163834 -0.0842022 0.036647514 0.060997956 -0.016218575 0.028371202 -0.049545042
-0.07615711 -0.016224056 0.08368135 0.06734762 -0.04685934 -0.046641476 0.1127815 0.03975938
0.04287117 0.037062928 -0.113777995 -0.058654103 -0.11357404 0.08256846 -0.050118938 0.07298314
-0.09992935 0.06654152 0.02012753 -0.049438152 -0.036161475 0.2554763 0.07953542 0.0278318
-0.14050302 -0.060136892 -0.114977054 -0.04387525 -0.097663164 0.03968514 0.49751493 -0.05410992
0.020419078 -0.027472017 0.059375618 -0.15211184 0.067872725 0.043086827 -0.06873847 0.038637113
-0.052954264 -0.055608597 0.07184013 0.029806182 0.037600763 0.015848378 0.09621467 -0.032535065
-0.0746915 -0.032559782 0.018907342 -0.10210041 0.019823477 -0.10586027 0.06270018 0.033955734
0.014907561 -0.089900576 -0.017633585 0.0686336 -0.053565398 -0.036034785 -0.061572224 0.030802665
0.28700563 -0.013013265 0.057693813 0.28360406 0.31544355 0.30820334 0.06353078 0.057317935
-0.03802612 -0.025880061 0.30939084 0.021551993 -0.066687964 0.00962945 -0.12993245 0.1035699
0.2754496 0.079619944 -0.00080510665 0.22476764 0.05675234 0.0038856764 -0.07643917 0.038841937
0.039057348 -0.023649685 0.0128539605 0.05029504 0.38990936 0.26301226 -0.17826882 0.21047711
-0.11872715 -0.01751628 -0.15848286 -0.008592337 0.024537276 -0.06472646 -0.09792473 -0.1906713
0.0073289783 -0.019363187 0.034925923 -0.012204116 -0.07237091 -0.0024576485 0.19118035 -0.0028969652
-0.039022546 0.020246273 -0.176809 0.07507908 0.038487352 -0.15438293 0.0587206 -0.03467518
-0.010814336 -0.08312897 0.02599204 -0.14846648 -0.025560245 -0.027744563 0.044575743 0.05305175
-0.12922983 0.085969396 -0.110005856 -0.117468044 0.012563159 0.043675903 -0.18695888 -0.12999134
0.0190629 0.028728036 0.2715068 0.024008535 -0.11805623 0.18619914 0.007947772 0.016118651
-0.02887681 -0.04119937 0.07767324 -0.20682327 0.00477275 0.23617864 0.050449353 0.012263544
0.06528875 0.07077733 -0.059334386 -0.03692166 0.0341528 0.06853524 0.10139271 0.032655932
0.37081456 0.058980256 0.0065722535 0.18699867 0.2972258 -0.18068634 -0.05130687 0.0920848
0.030509723 -0.20263192 0.06891592 0.028973974 0.0562337 -0.1475347 -0.10166988 -0.005123747
-0.107096754 -0.0059444113 -0.11595787 0.0571503 0.03298076 0.029913584 -0.015921645 -0.17928751
0.24913359 -0.051498916 -0.2745202 -0.09846274 -0.013406576 -0.039542954 0.020416819 0.06045559

fc3.bias f4 [2]
00000000: 8502 a03d 5199 663d
0.078129806 0.056298558
