MADDPG/checkpoints/checkpoint_td3_critic_1.pth (torch, 451791 bytes, 7 tensors)

fcs1.weight f4 [256, 48]
000000 c2 86 d6 3e 76 6f 06 bc ef bf b4 3d 22 7f 2f be
       0.41899687 -0.008205285 0.08825671 -0.17138341
000010 10 d0 21 bd b2 37 02 3d 51 88 e7 bd 06 42 44 be
       -0.039505064 0.031791396 -0.11305297 -0.19165811
000020 1c c5 82 3e 08 d9 d6 bd 84 0d 8a bb 41 a5 ef 3d
       0.25541008 -0.10490614 -0.004213037 0.117014416
000030 59 36 0c 3d de fc 3b bd fe c4 e0 bd 45 95 28 3e
       0.034231517 -0.04589545 -0.10975073 0.16463192
000040 f8 17 de 3e bf 35 10 bd 22 4d 3b be 75 ad 37 bd
       0.43377662 -0.035207506 -0.18291143 -0.044843156
000050 cc 87 24 3e 7f 21 a6 be 2d 9a a7 bc 3d a7 c4 bd
       0.16067427 -0.3244743 -0.020459259 -0.09602211
000060 23 76 1b 3d af c9 2d be d8 cf f0 3c ba 1c 93 3b
       0.03795446 -0.16971467 0.029395983 0.0044895085
000070 44 ff 2f 3e d6 a9 bf bd f5 73 c9 3d 1c e5 47 bd
       0.1718722 -0.093585655 0.0983657 -0.04880248
000080 3f 31 00 3d d0 25 b4 bd 7d a7 ff bd 0d 0e 22 3e
       0.031296965 -0.08796275 -0.12483118 0.15825672
000090 7f d0 2b 3e b6 ac 04 3d 89 31 38 bd 8e 2c 0b bd
       0.16778754 0.032391272 -0.044969115 -0.033978038
0000a0 31 26 13 3e 42 9a c6 bc 78 ae 3f 3d 38 a6 90 3e
       0.14370038 -0.024243478 0.046797246 0.28251815
0000b0 10 70 44 be 9b de ca be c9 a2 29 3e 9d eb 3b 3e
       -0.19183373 -0.3962296 0.16566004 0.18351598
0000c0 9c 9a 35 3d 60 01 a1 3d ec eb 01 be 0c 04 aa 3e
       0.0443369 0.078615904 -0.12687653 0.33206213
0000d0 a4 25 36 bd 24 65 22 be 1f c9 82 3c 4a 6f 2d 3e
       -0.04446949 -0.15858895 0.015965043 0.16936985
0000e0 08 9d 4c 3e d2 29 0e 3e f4 22 4c 3d bf 5b 06 3e
       0.19981778 0.1388314 0.04983802 0.13120936
0000f0 9f 5a 40 3e 9b fa d0 bd 09 ac 9d bd 0a b7 ef bc
       0.18784569 -0.10204049 -0.07698829 -0.029262085
000100 1a a8 8f 3e 04 69 50 3d 8f f9 90 3d ef 50 9b 3e
       0.2805794 0.0508814 0.070788495 0.30335185
000110 ae 22 39 3e dd f5 a4 3b b8 53 9d bc 6d ec 9f 3e
       0.18079636 0.005034192 -0.01920496 0.31235066
000120 bb db 0b 3d 91 b9 1b 3e c5 63 98 3c dd a5 58 3e
       0.0341451 0.15207507 0.018602261 0.21157022
000130 8e 4b 65 be 72 fb 42 be f1 35 d6 bd cf f3 75 3e
       -0.22392103 -0.19041231 -0.10459507 0.24018787
000140 b1 37 1a 3e 07 c0 4f 3e 43 a6 56 3d 7b c7 41 3d
       0.15060307 0.20288096 0.052404653 0.04730938
000150 5e 32 fc bd 35 a0 3a be 80 89 01 bd 67 be ad 3c
       -0.12314294 -0.18225177 -0.03162527 0.021208955
000160 37 ca 0b 3e 8c c4 c9 ba 71 a5 32 bd 50 3c 53 3e
       0.13651358 -0.0015393659 -0.04361481 0.20628476
000170 84 f2 90 be 10 1a 00 3e 79 e3 b6 3d 94 14 de 3d
       -0.28310025 0.12509942 0.08930106 0.10843769
000180 ac c7 b7 3d 6b a3 3a 3e 7b 02 03 bd 84 d4 8a bd
       0.08973631 0.18226402 -0.031984787 -0.067788154
000190 00 a1 93 3c a9 9b 9f 3e 40 86 0b 3d d4 02 3e bc
       0.018021107 0.31173447 0.034063578 -0.011597354
0001a0 81 c4 ac bd fc f9 80 3e 7c fc ed 3d b6 84 85 3d
       -0.08435918 0.25190723 0.11620423 0.06519453
0001b0 5e 91 99 be 66 83 e4 3d a4 48 b1 bd b7 8f c5 3c
       -0.2999372 0.11157875 -0.08656433 0.02411638
0001c0 4e 63 ef 3d f1 dd 81 3e 97 39 2e ba 13 48 c8 3d
       0.11688863 0.2536464 -0.0006646155 0.09779372
0001d0 3f bf 18 bf b4 9d 91 bc 4d 85 e8 bb 57 e6 38 3e
       -0.5966682 -0.017775394 -0.007095969 0.18056618
0001e0 2e 0e 95 3d 97 3c ea bd 4e 68 ae 3d a5 cc 5b be
       0.07278095 -0.11437338 0.08515988 -0.21464784
0001f0 95 93 ef bc cf 22 89 3e 4a b5 8d bd 7b 3a 6f bd
       -0.029245177 0.2678437 -0.06919344 -0.05840538
000200 b0 a4 ad 3e 4b 44 94 bd 2d d5 a3 bd 74 9b c8 be
       0.3391471 -0.07239588 -0.079996444 -0.391811
000210 94 ac 17 3e 67 58 08 3c bf 76 83 3d d6 d7 21 bf
       0.14811927 0.008321858 0.064191334 -0.63219965
000220 c3 09 7b 3e 75 11 c7 be d5 83 c4 bd 6c 4f ef be
       0.24515443 -0.38880506 -0.095954575 -0.46740282
000230 c1 0a 0c 3f 99 bb 1d be 05 68 86 bd 04 1e e3 be
       0.5470391 -0.15403594 -0.06562809 -0.44358838
000240 6d 5c c0 3d 42 94 8b bd 45 35 11 bd da 4b 7a 3e
       0.09392629 -0.06815387 -0.035451192 0.24442998
000250 05 11 ae bd 50 2e d9 3d e6 ad 6f ba 0a 40 69 3e
       -0.0849934 0.106045365 -0.00091430394 0.22778335
000260 93 6d ed 3d 9f 4a eb bc 81 83 3a bc 28 b2 0f 3e
       0.11593165 -0.028722106 -0.011383892 0.14032805
000270 9b d9 a6 bc 33 2b b4 bd 43 db 6b 3d 12 35 54 3d
       -0.020367434 -0.08797302 0.05758215 0.051808424
000280 8c 8f d4 3e 06 d9 02 be f1 f5 d2 3d 84 81 02 be
       0.41515768 -0.127781 0.10300816 -0.12744719
000290 32 73 64 be 1e 48 d4 be b5 28 e1 3d ab c0 3b be
       -0.22309569 -0.4146127 0.109940924 -0.18335216
0002a0 88 5a e7 bd e3 e3 02 3f c3 79 a2 bd 27 8b b1 bc
       -0.11296564 0.5112898 -0.079333805 -0.021672798
0002b0 67 30 97 3e ec 43 79 3d 11 41 c6 3d 79 32 8d be
       0.29529116 0.06085579 0.09680379 -0.2757757
0002c0 b6 39 31 bd 6f bf 05 3f 73 11 3c bd 94 3c 25 3e
       -0.043267928 0.5224523 -0.04591508 0.1613639
0002d0 bc e3 f6 3d 93 b4 bc bd 78 14 d7 3c 97 62 b9 3d
       0.12055156 -0.09214129 0.026254877 0.09052008
0002e0 ca 53 b3 bd cd 5b 1f 3f f2 e8 93 bd e7 c9 2e be
       -0.08756216 0.6224945 -0.07222165 -0.17069207
0002f0 d6 a4 e0 3d 79 6c 16 bf 04 88 1a 3d 85 de 56 be
       0.1096894 -0.58759266 0.03772737 -0.20983322
000300 9d 91 0c bd cf 9e b5 bd c3 da 10 bd 43 5c 32 bd
       -0.034318555 -0.08868181 -0.035364877 -0.04354502
000310 ff 73 bb be 38 7c f0 3a e9 e2 de bc e2 f0 ae bd
       -0.36611935 0.0018347567 -0.027207809 -0.085420385
000320 e9 01 72 bc cf 32 47 be 5f 19 d7 3d 00 26 5d 3b
       -0.014770963 -0.19452976 0.10502886 0.0033744574
000330 98 30 7d bf 94 11 9f bd 34 6a 00 3e 95 fc 0a 3d
       -0.98902273 -0.07767025 0.12540513 0.033932287
000340 0a a4 da bd 71 18 70 be 5e 75 fd 3b 97 c0 4e 3e
       -0.10675819 -0.23446824 0.0077349385 0.20190655
000350 dd ea 31 bf 9f 37 b0 bd 0a d2 06 bc e9 e9 8c 3e
       -0.69499 -0.08604359 -0.008228788 0.2752221
000360 56 8b 20 3e db a1 5f be df 31 c0 bd 36 9d 48 3e
       0.15678152 -0.21839087 -0.09384512 0.19591221
000370 53 ac dc 3e ea 74 91 3d ac a1 23 3b 86 ea 2d 3e
       0.43100223 0.07102378 0.002496819 0.16983995
000380 84 c0 3d 3e a7 2b 85 be 39 55 b5 bc 4c 01 e0 3d
       0.1853047 -0.26009867 -0.022135364 0.10937747
000390 9d 4f 4f 3f 9c d1 de bd ac 8b 78 3d ca 6a 9d bd
       0.80980855 -0.108798236 0.060680076 -0.07686384
0003a0 75 6e 73 3d cb 30 b7 bd 30 b2 20 bd 41 22 c6 3d
       0.059431512 -0.089448534 -0.039232433 0.09674502
0003b0 57 d4 37 3f 21 ec 9e 3d 4c 72 1e bd b5 37 d0 3d
       0.7180838 0.07759882 -0.03868322 0.10166875
0003c0 0b 39 0d 3e 08 59 26 3e 1b 1a c5 bd e0 5e 25 bc
       0.13791291 0.162449 -0.0962412 -0.010093421
0003d0 19 9a 62 bd 66 47 a2 be cd 05 0a 3d 5e 90 05 bd
       -0.05532274 -0.31695098 0.03369694 -0.032608382
0003e0 95 c1 e0 3c cf 0c a5 3d f6 16 bc 3d 66 3b 5d be
       0.027436057 0.08059084 0.09184067 -0.2160469
0003f0 33 f5 4e 3e ee 60 f2 3d 06 bf e2 bd da 43 09 be
       0.20210724 0.11834894 -0.11071591 -0.1340479

fcs1.bias f4 [256]
000000 e6 64 6b be e0 de a0 be db 26 a7 be 3c 98 a5 3d
       -0.22987708 -0.3142004 -0.32646832 0.08085677
000010 1c 8c e1 bd c9 ad b2 be d5 0d 7e bb f4 1f cf 3b
       -0.11013052 -0.34898213 -0.0038765569 0.006320948
000020 5d 31 da bd 1e 64 77 be 11 0e 77 bd 50 55 43 3e
       -0.106539465 -0.24159285 -0.06031615 0.19075513
000030 aa e3 72 bd ed 88 37 3e a7 6e 12 3e 86 c0 11 be
       -0.05929915 0.17923327 0.14300023 -0.14233598
000040 81 37 4d be a8 87 78 be b5 f3 79 be 1e 50 f8 bd
       -0.20040704 -0.24270499 -0.24409373 -0.12124656
000050 f7 33 8d bc 69 27 89 bd 72 d1 0b bc 86 df e1 3d
       -0.017236693 -0.0669697 -0.008533822 0.11028962
000060 ff fc f9 3c 13 5b 06 3d 9b 62 02 be a6 8e 17 be
       0.030516146 0.0328017 -0.12732928 -0.1480051
000070 95 73 32 bb c5 26 27 be e2 9b ae bd 63 70 9c 3d
       -0.0027229537 -0.16323383 -0.08525826 0.076386236
000080 35 f1 37 be 3b 82 c9 be fa 00 47 bd a7 2e 55 be
       -0.17963107 -0.3935717 -0.048584916 -0.20818578
000090 c0 3b 4c bd 9e 82 0d be 8d 5d 10 bd 16 54 6f be
       -0.04986167 -0.13819358 -0.035245467 -0.2337192
0000a0 45 fa 96 bc 0f 72 35 3d 7b 81 ff 3c 73 3c 31 be
       -0.018429885 0.044298228 0.03118967 -0.17308216
0000b0 3e 03 f5 bd 42 04 02 be 12 4d 26 3e ee 2e 85 be
       -0.11963509 -0.12696937 0.16240337 -0.26012367
0000c0 70 49 16 be 80 f9 98 be ad 3a af be 02 cf b4 bb
       -0.14676452 -0.29877853 -0.34224454 -0.0055178413
0000d0 c2 35 84 be ca 08 ea be 1e a0 51 be 9f d0 d5 3d
       -0.25822264 -0.4570983 -0.20471236 0.10440182
0000e0 0c d3 b3 be ea 39 b8 3d 31 b2 ce be e7 bf 52 be
       -0.35121953 0.08995421 -0.40370324 -0.20581017
0000f0 ea f1 12 3e b9 5a f5 3d f5 c3 0a 3e a6 86 1f bd
       0.14350095 0.119801946 0.13551314 -0.03894677
000100 3d b3 23 3e 2e 41 b5 bc 5c e2 a7 be b0 1e 02 bd
       0.15986343 -0.022125807 -0.32789886 -0.031767547
000110 38 98 de 3d b5 4f 37 bd a5 93 a2 3d 1c 1a 42 3e
       0.10868877 -0.04475375 0.07938317 0.18955272
000120 f0 2c 66 be 3f 2a 20 3d d8 9b b7 3c a1 c1 65 be
       -0.2247808 0.03910279 0.02241318 -0.22437145
000130 be 95 90 be c0 ae 4d bd 36 33 d4 3e 07 7d 08 3e
       -0.28239244 -0.050215483 0.4144532 0.13328944
000140 65 25 c0 3c 82 dd 49 3e 28 c8 eb bd 37 19 80 be
       0.023455331 0.19713405 -0.11512786 -0.25019237
000150 9e c4 89 bd 98 17 10 be a8 9b 2e bc ce a3 e2 bd
       -0.06726955 -0.140715 -0.0106572285 -0.110663995
000160 dd a2 a2 3c b6 b8 55 3d 17 68 f1 bd 4a 4b 84 be
       0.01985305 0.052178107 -0.11787432 -0.2583869
000170 ad 68 ea bd da 5d 58 be 09 c9 8a bd 98 bc 8d 3c
       -0.114457466 -0.21129552 -0.06776626 0.017301843
000180 bd 3d 51 be 75 40 c0 be 94 cc 2a 3e fc d7 51 be
       -0.20433708 -0.37549177 0.16679603 -0.20492548
000190 5d 15 16 be bc 53 a4 bd 25 f8 17 3e 0c d0 33 3e
       -0.14656587 -0.080237836 0.14840753 0.17559832
0001a0 1f ad b0 be 10 79 99 be ef 00 86 bd 0c 4d b0 bd
       -0.3450708 -0.29975176 -0.06543147 -0.086084455
0001b0 3d ae ff bc 5a 19 8a bd 19 fe af be e1 5f b0 bd
       -0.031211013 -0.06743117 -0.3437355 -0.086120375
0001c0 c3 a5 65 be db 37 f2 be 75 dc 58 bd 0a d2 95 3d
       -0.22426514 -0.4730824 -0.05294462 0.073154524
0001d0 cf 2f 9a 3c f8 f7 84 be f2 9f 88 bb 0d ae f6 3e
       0.018821625 -0.25970435 -0.0041694576 0.48179665
0001e0 7c 1e d7 bd 5e e8 23 3e a6 e3 8d bd 30 aa 35 3e
       -0.10503861 0.1600661 -0.06928186 0.17740703
0001f0 38 f8 13 3f bd b3 28 3d 41 3e 53 3c d5 82 91 be
       0.57800627 0.041187037 0.01289326 -0.2842013
000200 d4 14 58 be 80 52 83 be 40 e6 3f 3e 0d 5a 12 bd
       -0.21101695 -0.2564888 0.18740177 -0.03573041
000210 85 f2 0d be f9 12 92 bd 75 8f 56 be 47 1c 37 bd
       -0.13862045 -0.07132525 -0.20953162 -0.0447047
000220 cf 16 f3 bd a2 66 36 bd 2d 27 2a bd b4 f0 db 3d
       -0.11869585 -0.044531472 -0.041541267 0.1073927
000230 ee 1d ca bd 61 a8 2f be 24 8b 4f bb ad ef 46 3e
       -0.0986899 -0.17154075 -0.0031668628 0.19427367
000240 05 a2 3b be e4 86 b9 be c2 2f b2 3e 9b 62 a7 3d
       -0.18323524 -0.36235726 0.3480206 0.081731044
000250 f7 fd d6 3c 60 7e d1 be 9c c8 39 3e f7 b9 38 be
       0.026244147 -0.4091673 0.18142933 -0.1803969
000260 02 00 9b 3e 6e bd 29 be b3 1e bd be 49 2f 8e 3c
       0.30273443 -0.16576168 -0.36937484 0.017356532
000270 ef f0 42 3e 35 0b 82 be e6 b5 dc bd 7c 42 ba be
       0.19037221 -0.25399175 -0.10776882 -0.3637885
000280 b9 1a b9 bd 53 4c b4 be 46 1a a0 be 5f b5 39 bd
       -0.090383 -0.3521448 -0.31270045 -0.045338985
000290 72 a2 d2 bd 25 d9 2d be cd 83 06 be dc 65 d0 be
       -0.1028489 -0.16977365 -0.13136216 -0.40702713
0002a0 0b d8 51 3d 7c 28 71 be 38 5a 48 be 23 d3 17 3e
       0.051231425 -0.235506 -0.19565666 0.14826636
0002b0 c6 d1 6c be 84 b3 aa bc 6a 0f 5b 3e 36 dc 83 bd
       -0.23126897 -0.020837553 0.21392599 -0.06438486
0002c0 44 4f 60 be d6 8e 07 be 28 39 83 bd e8 c8 97 3c
       -0.21905237 -0.13238081 -0.06407386 0.018528417
0002d0 19 0a 33 be 9e e3 45 be 1e 96 05 3e 3e df a6 bd
       -0.1748432 -0.1932511 0.13045546 -0.08148049
0002e0 4d 5e 25 bd 60 fa 3e be 1d 12 3d be 30 a1 35 bd
       -0.040373135 -0.18650198 -0.18463941 -0.044343174
0002f0 d7 64 f2 3c f5 15 66 3d 34 92 54 be 11 67 8f bd
       0.0295891 0.056173284 -0.20758897 -0.0700208
000300 9d 3b 30 be d4 76 1e bd ca aa 00 3e 84 90 59 3e
       -0.1721024 -0.038687542 0.12565151 0.21246535
000310 08 fa a1 be ad 2c c1 bd ff d5 26 be 26 1b b8 be
       -0.3163607 -0.09432349 -0.1629257 -0.35958213
000320 65 6e b1 be 99 45 e5 bd b0 a0 74 bd cf da dd 3d
       -0.34654537 -0.11194915 -0.059723556 0.1083275
000330 03 97 2f be f6 c2 42 be 11 76 16 3e 5e 47 94 bc
       -0.1714745 -0.19019684 0.14693476 -0.018100437
000340 df 26 08 3d 94 dc ce bc bb 61 21 3b 23 70 88 bd
       0.033240195 -0.025251664 0.0024624902 -0.066620134
000350 05 48 25 be 88 b1 e0 bc 1f 00 75 3d 4f 21 88 be
       -0.16140755 -0.027428403 0.05981457 -0.26587912
000360 e9 06 7b be e7 bf 85 3c 66 ba 13 be 89 7e 16 be
       -0.24514355 0.016326858 -0.14426574 -0.14696707
000370 18 79 d6 be 1c ab 0f 3e 72 d3 c8 3b fd 93 0a be
       -0.41889262 0.14030117 0.006128722 -0.13533016
000380 3c 21 6f be 44 57 4c be 82 81 39 be 36 fb 00 3e
       -0.23352522 -0.19955164 -0.1811581 0.1259583
000390 ff 94 da 3d da dc 35 3d fd ff d3 be 82 72 23 3e
       0.1067295 0.044400074 -0.4140624 0.1596165
0003a0 19 c7 b3 be 28 f5 d3 ba c5 78 e3 bd 83 d4 c0 be
       -0.35112837 -0.0016171085 -0.11107019 -0.37662134
0003b0 42 d8 a2 be 3a f4 5d be 0d 15 38 3e 86 26 15 3e
       -0.31805617 -0.21675196 0.1797678 0.14565477
0003c0 35 95 93 bd 18 51 22 bd 7f 06 23 bc 9e 84 85 be
       -0.07206193 -0.03962812 -0.009950279 -0.2607774
0003d0 45 5e d9 bd 2d 7e 59 be 97 ff 2f bd a9 ed 96 bd
       -0.106136836 -0.21239538 -0.04296836 -0.07369549
0003e0 27 81 4a 3d ec 57 60 bb 6f 6f b6 3d 07 27 d7 bd
       0.049439576 -0.0034232093 0.08907973 -0.10505491
0003f0 cd 49 42 be 06 32 f0 bd 5f 9d 8f 3d 2b dc 78 bd
       -0.18973465 -0.11728291 0.07012438 -0.060756844

fc2.weight f4 [256, 260]
000000 30 27 75 3e 4c c9 f8 3c 5e f3 58 be 36 e0 0e bc
       0.2394073 0.030369423 -0.21186587 -0.008720448
000010 ff d4 32 3d 53 06 77 3d 92 8a 4f be 5d a8 ca bd
       0.04366016 0.060308766 -0.20267704 -0.09895394
000020 36 2b b7 3d ad 25 8f be 98 6f cf bd 55 9d b8 be
       0.08943789 -0.27958432 -0.10128707 -0.36057535
000030 d8 85 1b be af 95 dd bc 62 05 ff 3d 3f 0d 13 3a
       -0.15187776 -0.027048914 0.124521986 0.0005609579
000040 1b b9 04 3d a5 6b 23 3e a6 46 7c be a6 38 1c be
       0.032403093 0.15959032 -0.24636325 -0.15255985
000050 99 03 32 bc 37 3f bd bd 90 34 bb 3a 42 9b aa 3e
       -0.010865116 -0.09240573 0.0014282633 0.33321577
000060 98 db 40 3d a8 f7 7d 3c d5 ee 94 3d 1b a1 c3 3d
       0.04708442 0.01550094 0.07272116 0.09552213
000070 47 1f b7 bc e3 1f ff bd 85 32 af ba ec ac 54 bd
       -0.022353781 -0.12457254 -0.0013366496 -0.051922724
000080 51 6d 0d bd 44 4d 25 3d 33 4e 19 bd f6 c1 13 3d
       -0.03452808 0.04035689 -0.037428092 0.036073647
000090 7c 4b 6f 3c fb 8a 1c be 8b c6 f6 bc e2 98 1f 3e
       0.014605399 -0.15287392 -0.03012397 0.15585664
0000a0 c7 8c db 3c 8e b2 ca 3d 3d a5 07 3e ab 82 8e 3c
       0.026800526 0.09897338 0.13246627 0.017396292
0000b0 7e 56 6b bd 30 f6 42 3e dd b0 7f bd 7d 79 fa 3d
       -0.057455532 0.19039226 -0.06242453 0.12230203
0000c0 34 ad d0 3d 9e fa 4b 3e 0d ab 28 3e f1 a0 94 bd
       0.10189286 0.19919822 0.164715 -0.0725726
0000d0 1d 68 27 3c 38 e6 47 3e 6d c5 ed 3d e0 77 12 3e
       0.010217694 0.19521415 0.116099216 0.14303541
0000e0 55 05 6d 3d c8 90 95 bd d4 fe 29 bd 3d 9c a8 bd
       0.057866413 -0.073030055 -0.04150279 -0.08232925
0000f0 52 47 a3 3d 74 a6 f9 3d 68 09 55 be 01 c1 be 3c
       0.07972588 0.121899515 -0.2080437 0.02328539
000100 8d c1 94 3d 67 4a f4 bd 0a 19 5d 3d 52 b8 10 3e
       0.072634794 -0.119282536 0.053978957 0.14132813
000110 81 0b a6 bd ca c8 5f 3e cc de 94 3b 61 bf ca bd
       -0.08107663 0.21853939 0.004543161 -0.09899784
000120 3f ee b9 3e 4c 86 a2 be 06 85 15 3e 86 25 d1 bd
       0.3631458 -0.31743085 0.14601526 -0.10212235
000130 7b c3 d1 3c 3b 66 80 bd e5 35 19 3d b5 99 5c 3c
       0.025605908 -0.06269499 0.037404913 0.013464381
000140 55 96 ec 3d f1 32 a3 bc eb 9d 41 3d c7 a1 f2 bc
       0.11552111 -0.019921752 0.047269743 -0.029618157
000150 50 5f 29 3e f3 b0 db 3d c4 2c 89 be 95 29 68 bd
       0.16540265 0.1072711 -0.26791966 -0.05668028
000160 e1 9a 59 3d 6a 22 ac bd 50 ee bb bc 05 85 3a be
       0.05312622 -0.084050015 -0.022940785 -0.18214805
000170 95 a8 03 3e f1 c9 62 3d 27 e7 f3 be 67 11 3d 3c
       0.12857278 0.055368368 -0.47637293 0.011539794
000180 59 f2 2a 3e 26 6f fd bd 20 67 9e be a8 25 91 bd
       0.16694011 -0.123747155 -0.30938053 -0.070872605
000190 f7 e2 08 3e 1a 08 a4 3e 43 fc 5e 3d f7 d8 f3 3d
       0.1336783 0.3203743 0.054439794 0.11906617
0001a0 39 b9 af be 41 23 64 bc 6c cc 9a bd ce 02 bf 3d
       -0.34321 -0.013924421 -0.07558522 0.09326707
0001b0 b2 6a 65 be 97 23 9d 3d 92 70 49 bd a7 81 10 be
       -0.22403982 0.07672804 -0.04917962 -0.14111958
0001c0 45 fe fe 3c da e5 08 3e 94 54 a0 bd ac ab c9 bb
       0.031127105 0.13368931 -0.07828632 -0.006154498
0001d0 8e e6 1a bd 98 b3 0b 3d e8 1d 12 3e aa b6 fc bc
       -0.03781753 0.03410682 0.14269221 -0.03084882
0001e0 40 33 73 be 6a 41 c3 3b 81 ec 99 3d 47 22 f7 bd
       -0.23750019 0.0059587257 0.07515813 -0.12067085
0001f0 c4 e3 c1 be 86 92 04 be b9 32 21 3d 77 4d 4d 3e
       -0.37869084 -0.1294652 0.039355014 0.20049082
000200 e0 54 c7 bd 24 54 0d 3d e9 e5 39 be e0 b5 d0 3d
       -0.097329855 0.03450407 -0.1815411 0.1019094
000210 53 dd 48 3d f8 74 58 3c c1 9e ec bd d4 79 a8 bd
       0.049039196 0.013211481 -0.115537174 -0.08226362
000220 c1 e5 bb 3c c4 0e 7c 3e f9 f1 a5 3d d2 6b 47 be
       0.022936704 0.24615008 0.08102793 -0.19474724
000230 f6 f2 9b bd d9 fc 8b bc 99 94 8a bd 9c fd 42 be
       -0.076147005 -0.01708834 -0.06766624 -0.19042057
000240 57 3c 82 3d e0 ba 04 3d ba b7 90 be 40 00 5a 3c
       0.06359165 0.03240478 -0.28265172 0.013305724
000250 06 6d 89 bc 3a 4f 81 3d 85 b6 da bc ba 85 32 3e
       -0.01677562 0.063139394 -0.02669836 0.17433825
000260 98 bc 4b be 64 6a 12 3d 7c b9 82 3e 47 8b 36 be
       -0.19896162 0.035745993 0.25532138 -0.17826568
000270 ec ac c7 3d e6 dc 1e 3e f4 dd c5 be 61 57 7b be
       0.09749779 0.15513954 -0.386459 -0.24545051
000280 af ca 6d 3d 87 27 e6 3d 4a 9d 6f bd ad 3c 0f 3e
       0.058054622 0.11238008 -0.058499612 0.1398799
000290 8c cb 86 be 32 8f d5 bd 03 80 9d be 94 35 a2 3d
       -0.2632717 -0.10427703 -0.30761728 0.079203755
0002a0 fb 53 a8 3c 2e 91 ce 3b 07 1d 76 3d 63 fd 82 be
       0.020547858 0.006303928 0.060086276 -0.25583944
0002b0 e3 2e 31 be 38 ce 8a 3d 45 5d e6 bb 27 1c c1 bd
       -0.17303042 0.06777614 -0.0070301616 -0.09429198
0002c0 42 6e fd 3c 76 2f 9c bc a4 98 e3 3d bb 1c 48 bd
       0.030936364 -0.0190656 0.11113098 -0.048855525
0002d0 35 24 9a 3d 43 cb 4d 3d c0 7b 4a bd 6e b5 b9 be
       0.07526437 0.050242674 -0.049434423 -0.36271232
0002e0 bd 6d 97 bd 3e f6 66 3d ef 91 84 bd 7d 8e af bc
       -0.07393978 0.05638718 -0.06473147 -0.021430248
0002f0 ab af 9c bc 79 f2 b4 bc ae e7 78 bd 93 5e bc bd
       -0.019126734 -0.022088276 -0.060767822 -0.09197726
000300 2e 57 39 be cc cf 2e 3c d3 a8 1d bc 74 f7 d4 be
       -0.18099663 0.01066966 -0.00962277 -0.41595042
000310 6c 8c bf 3d be 7c 67 3c d4 0e 51 bc 11 4c 4f 3d
       0.09352955 0.014128862 -0.012759883 0.050609652
000320 55 74 88 3e 22 57 05 3e e6 c1 e9 bd 1a 9e 36 3e
       0.26651254 0.1302152 -0.11413936 0.17833748
000330 03 8b ee 3c 54 5d 57 3d 4b cf 4c bd 2c 20 72 bd
       0.02911902 0.05257924 -0.050002377 -0.059112713
000340 f8 a8 d4 bd 69 10 0c bd 53 29 26 be c8 18 f1 3d
       -0.10383791 -0.034195337 -0.16226701 0.11772305
000350 e7 90 92 3c df 9e 7f bd 8a 71 93 bd f9 09 c4 3d
       0.01789136 -0.06240737 -0.0719939 0.09572215
000360 24 16 37 3c 08 0b dc bc f9 67 dc 3d 74 d0 9f 3d
       0.011174712 -0.026860729 0.10762019 0.07803431
000370 ef a8 42 3b eb 17 f1 be b9 a5 22 bd ef 22 9b bc
       0.0029702743 -0.4708856 -0.039708827 -0.018937556
000380 7e 87 aa bd 81 fb 7d 3e a8 43 1c be 6e 0f 56 bd
       -0.08326624 0.24802972 -0.15260184 -0.05226081
000390 2a ec 8c be a8 2f 86 bc 02 02 f7 bd a9 58 13 bc
       -0.2752393 -0.016380146 -0.1206093 -0.008993306
0003a0 0f 88 a4 bc 7d 07 91 be 83 12 5e bc 04 2f 1e bc
       -0.020084409 -0.28326026 -0.013554218 -0.009654764
0003b0 2f 40 71 3d 0c 98 9f 3c fc b0 9b be b5 7c 21 bd
       0.0588991 0.019481681 -0.30408466 -0.03942557
0003c0 95 b8 4c bd 2d f0 63 be 90 68 2b 3d bc b6 a0 3d
       -0.04998072 -0.22259589 0.041847765 0.07847354
0003d0 fa 60 17 3e 8a d2 3a be b5 65 31 bd 60 22 d9 bd
       0.14783087 -0.18244377 -0.043309886 -0.1060226
0003e0 31 8e 05 be 51 cc 59 bd c7 5b b9 bd 76 a4 9c bd
       -0.13042523 -0.053173367 -0.09050708 -0.07648556
0003f0 e1 fb 7a 3c f7 a7 44 3d 85 18 43 bd 0e 92 c1 bd
       0.015318842 0.048011746 -0.047630806 -0.09451686

fc2.bias f4 [256]
000000 5d 7e d8 be 3b 2b 6e bd 15 80 8c 3c 04 ae ce bc
       -0.42283908 -0.058146697 0.017150918 -0.025229461
000010 c6 dc 99 3d 9c bf ca 3c 7d b9 93 be b3 54 3f 3d
       0.07512812 0.02474957 -0.28852454 0.046711635
000020 d8 ec 1f be 89 c0 32 3e b6 23 94 be 00 85 21 be
       -0.15617692 0.17456259 -0.28933495 -0.15773392
000030 73 a2 cb bd bf 94 0f 3d 52 f7 82 3d 2c 33 2e be
       -0.09943094 0.035053965 0.06394829 -0.17011708
000040 b6 c0 f3 bc f0 84 f6 bb 81 d7 23 3d 95 92 c1 bd
       -0.029754978 -0.0075231716 0.040000442 -0.094517864
000050 85 f0 4b 3c 33 d9 aa 3d d0 3c 69 b8 59 96 42 be
       0.012447481 0.08342209 -5.5608165e-05 -0.19002666
000060 81 9f 10 3e c1 93 d6 bd c8 52 98 bd 96 92 5a be
       0.14123346 -0.104774006 -0.07437664 -0.2134498
000070 a5 e3 a5 bd a6 68 0a be 9b 7c 3a bc ac c6 64 3d
       -0.081000604 -0.13516483 -0.011382247 0.05585353
000080 6f b8 da 3d 70 fa db bc 66 e9 30 be 5b a6 43 be
       0.10679709 -0.026852816 -0.17276534 -0.19106428
000090 8b 5d 6f bb 26 5a b8 be ba b3 52 3d 60 a4 f6 bc
       -0.0036524262 -0.36006278 0.05144093 -0.030107677
0000a0 16 a2 6c 3d 06 e4 0c 3d 19 f2 be bd 1c b6 85 3d
       0.057771765 0.034397148 -0.0932352 0.06528875
0000b0 e1 67 48 be c6 82 4b bd 87 e3 50 be 29 b0 99 bd
       -0.19570877 -0.049685262 -0.20399295 -0.07504303
0000c0 bf 92 30 3e 3c 2b af bd e4 10 c1 3d d3 88 aa 3e
       0.17243479 -0.08553168 0.0942705 0.33307514
0000d0 0d 32 61 3c 8d 06 13 be 48 99 f0 3d 9d 64 a2 be
       0.013744843 -0.14357968 0.11747986 -0.31717387
0000e0 dc 0d 53 bb a3 e9 20 3d 69 a0 fb bd 3b 0d 11 3d
       -0.0032204306 0.039285313 -0.12286455 0.03541301
0000f0 43 0f 9f bd 15 38 4d 3a 08 af ff 3b 08 6c 81 3d
       -0.07766583 0.0007828486 0.007802848 0.063194335
000100 65 ef 86 3d 46 4f a5 3c dd 76 ae 3d 01 d8 34 3e
       0.0658863 0.020179402 0.08518765 0.17660524
000110 67 2d 4d be 79 23 86 3d c0 5a 12 3d f3 ce d9 3c
       -0.20036851 0.065497346 0.035731077 0.026587939
000120 45 c2 92 bd b3 fa 59 3e e0 8d 32 bd 49 04 95 bd
       -0.0716596 0.2128704 -0.043592334 -0.07276208
000130 21 b3 05 be b2 e7 c7 bc 53 8a b9 bd 80 e7 4e 3d
       -0.13056614 -0.024402473 -0.090595864 0.050513744
000140 ff 61 2e 3d 08 50 d7 3c 18 7d ba bd 27 9a 95 3c
       0.042573925 0.026283279 -0.09105891 0.018261982
000150 13 a7 8a bd fe 6e db 3d 42 84 51 be e5 e9 15 bd
       -0.06770148 0.107145295 -0.20460609 -0.036600012
000160 2c 72 f2 bd 94 16 4e be f7 d4 f3 3c 2c a6 ee bc
       -0.11838183 -0.201258 0.029764635 -0.029131971
000170 7f 62 a8 bd 6e a3 91 3e 94 99 10 bd 3a f9 8f 3d
       -0.08221912 0.28445 -0.035302714 0.07029958
000180 15 53 0a be 96 3a 87 bd 25 d5 bb bb 07 26 1f be
       -0.13508256 -0.06602971 -0.005732196 -0.1554185
000190 be 97 d8 3c 7f 66 2c bc 7c bd a3 bd f3 e6 93 bd
       0.026439544 -0.010522484 -0.07995126 -0.072217844
0001a0 cd 6b 06 be 5e d8 a4 3d 23 8b 00 be 67 98 e8 bd
       -0.1312706 0.08049081 -0.12553076 -0.113571934
0001b0 1d 20 5f 3d cb 54 6e be da 36 92 bd e2 97 93 3d
       0.054473985 -0.23274533 -0.07139368 0.07206704
0001c0 e9 d7 78 bd 28 2d 5c be c1 79 43 bc 73 7b e2 3d
       -0.060752783 -0.215016 -0.011930884 0.11058702
0001d0 7e 5a 2b be 30 4f 3f 3e 64 ae f9 bc 2f 28 76 be
       -0.16733739 0.18682551 -0.030478664 -0.24038766
0001e0 21 1f c6 bd 90 66 ef be 4a 52 65 b8 ca a1 44 3e
       -0.09673906 -0.46757936 -5.4674492e-05 0.19202343
0001f0 7a 9d 3b bd b2 69 fe 3c 9c a8 d3 3d 38 21 5e 3d
       -0.04580448 0.031056259 0.10334894 0.0542309
000200 3f 1e d9 bd d3 4f 1c be e4 4b b6 bc 5a 43 7c 3d
       -0.10601472 -0.15264826 -0.022252984 0.06158767
000210 e6 e1 d7 bd 80 9e 48 be 80 69 e9 3c 7f 5a 5c 3c
       -0.105411336 -0.19591713 0.02849269 0.01344931
000220 94 1d 25 3b a8 31 d6 bb 4c c3 02 be 4f d5 4f be
       0.0025194632 -0.006536681 -0.12769812 -0.20296215
000230 ab 4d 2c 3d 48 c3 ab 3d 11 42 bf bd 49 84 9d bd
       0.042066257 0.08386856 -0.09338773 -0.07691247
000240 de 6b 06 bf 98 97 0b be aa 60 b0 3d c3 b9 fe bc
       -0.5250834 -0.13632047 0.08612187 -0.031094437
000250 c1 d8 e6 3d 37 16 d6 bd bf 18 29 bd 01 cd 1a be
       0.11271811 -0.10453456 -0.041283365 -0.15117265
000260 5d 13 c9 bb 55 f9 90 be 88 27 ac bd b7 f3 26 be
       -0.0061363415 -0.28315225 -0.084059775 -0.16303907
000270 2f 6d c5 bd 7e d1 cb 3d 42 49 4a 3d 6c 57 d0 3c
       -0.09639966 0.09952067 0.04938627 0.025432311
000280 c7 d6 5a 3d f7 b3 a1 bd b8 da b4 bd 62 95 00 3d
       0.053427484 -0.07895654 -0.0883078 0.031392463
000290 41 e7 af 3d 9d 8f c5 3d 81 93 2a bd 46 3d df 3d
       0.0858903 0.09646533 -0.041644577 0.10900359
0002a0 0f a0 73 be 78 64 1f 3d 14 b3 65 bd a8 17 30 3d
       -0.23791526 0.038914174 -0.056078985 0.04299131
0002b0 56 e1 d4 bd 42 e2 af bd 78 15 8a 3d b6 32 02 3e
       -0.10394542 -0.08588077 0.06742376 0.12714657
0002c0 39 95 dd bd 3a 4a 28 3d 0a e2 58 3c fb c4 d6 3d
       -0.108194776 0.041086413 0.013237486 0.1048679
0002d0 00 80 6c be cd b4 50 3d d1 75 b5 bd 40 4e aa 3d
       -0.23095703 0.050953675 -0.08860362 0.08315706
0002e0 5e 97 e2 be f0 07 f6 bd 9f 57 13 3d 72 24 10 be
       -0.4425611 -0.12013233 0.035972234 -0.14076403
0002f0 fb ea 83 3c 10 3c 21 be 70 26 ce bd 48 9b 6a b9
       0.016103258 -0.15745568 -0.10065925 -0.00022373826
000300 d5 ab 9c 3c 5a ac af bd ab bc 08 3d 03 6d 1b be
       0.019124905 -0.08577795 0.033383053 -0.15178303
000310 72 f7 85 3e da bc a3 bd d9 ce 5e 3c f0 d1 d0 bd
       0.26165348 -0.07995005 0.013599121 -0.101962924
000320 be 92 d2 3b 0b 8d b2 bc 4e 38 c3 bd d1 2c 23 be
       0.0064261844 -0.02179577 -0.09532224 -0.15935065
000330 da 84 c5 3d 76 23 28 3e 73 b2 c9 bd 85 0d d1 be
       0.0964448 0.16419777 -0.098484896 -0.40830627
000340 e2 ae 0d bd ae 43 6e 3d 82 8c a3 bd 0b 80 95 3c
       -0.03459061 0.058170013 -0.07985784 0.018249532
000350 22 8d 15 3e 4f 03 a4 bd 43 41 7d bb f1 77 9b be
       0.14604619 -0.080084436 -0.0038643635 -0.30364946
000360 ed e4 6d 3d 59 ce 1d bd 0d cf f5 bd 1c e2 9d be
       0.05807965 -0.038526867 -0.120023824 -0.3083657
000370 48 cf 7e be ce 89 81 3c 6c 2c 7b bd ca 24 d1 3b
       -0.24883759 0.01581278 -0.06132166 0.0063825594
000380 b1 5c 12 3d c1 17 09 bd 57 54 1f be 94 bb 8c bd
       0.03573293 -0.03346992 -0.15559517 -0.06871715
000390 6d ae 75 be dd c1 6a bc 1e 4c df be 15 72 39 3d
       -0.2399232 -0.014328447 -0.4361276 0.045274813
0003a0 ae 4b 1a be bc 17 1b be b0 58 33 be 93 61 5c bd
       -0.15067932 -0.15145773 -0.175143 -0.05380399
0003b0 eb b0 53 3c 14 0c 12 be 92 bb 98 3d bf 50 46 be
       0.0129205985 -0.1426242 0.07457651 -0.1936674
0003c0 a7 84 49 be a7 ae 9c bd 84 ef 0f 3e 0d f7 df be
       -0.19679509 -0.076505 0.14056212 -0.43743172
0003d0 38 e5 5e be e7 25 0b be e1 0c e1 bd 90 94 10 bd
       -0.21767128 -0.13588677 -0.109887846 -0.03529793
0003e0 69 27 11 3b ef e5 54 be 57 8f 03 3d 8f 8b ea bd
       0.0022148734 -0.20790838 0.03211912 -0.114524
0003f0 ef 13 74 3d 02 64 cb 3d 57 45 da 3c f9 0d 33 bd
       0.059589323 0.09931184 0.026644392 -0.043714497

fc3.weight f4 [128, 256]
000000 64 2e 9e 3c 4d 52 ba 3d ce aa a9 3c ce c8 a5 3b
       0.01930923 0.09097729 0.020711329 0.005059338
000010 57 90 44 be eb 66 15 3e 09 26 4e 3e ce 0a 4b be
       -0.19195686 0.14590041 0.20131697 -0.1982834
000020 6d 34 8e bd da 05 23 be bb bb 94 bd 2d d9 8b be
       -0.06943593 -0.15920201 -0.07262369 -0.2731413
000030 ff a2 b9 bd 0a 42 52 bc 4d 1c a7 bd 85 b7 c7 3e
       -0.09064292 -0.012833128 -0.08159695 0.39007202
000040 32 85 ed 3d 0e 0e e7 bc 7a 62 a2 3d 35 21 ac bd
       0.115976706 -0.028204944 0.07928939 -0.08404771
000050 5f e0 27 3e c1 76 1e bd 75 27 f0 3c 22 0a 67 bd
       0.16394185 -0.03868747 0.02931569 -0.056406148
000060 0f 2a eb bd 58 ad 01 be 34 b9 a5 3d 04 74 c2 bd
       -0.114826314 -0.12663782 0.08091965 -0.094947845
000070 c7 72 c7 3d 33 93 d8 3b c0 e0 ca 3d 92 8f af bd
       0.09738689 0.0066093444 0.09906149 -0.08572306
000080 88 51 41 3e f2 44 f1 3c 9a f5 2e 3e 2a 38 00 3d
       0.18878758 0.029451821 0.17085877 0.031303562
000090 6c e1 fe 3d 2c a2 00 bd f5 17 07 bc a3 58 27 be
       0.124453396 -0.03140466 -0.008245458 -0.16342406
0000a0 f9 b2 af 3b 1b b9 39 be 29 bf cc 3d de f9 d3 bd
       0.0053619114 -0.18137018 0.099973984 -0.10350393
0000b0 42 80 cf bd a0 aa ee bd 0d 00 20 3b 03 87 38 be
       -0.10131885 -0.11653638 0.0024414093 -0.18020253
0000c0 79 36 31 bc 74 e0 b2 bd 20 c6 34 be f4 fa 3e be
       -0.01081621 -0.08734217 -0.17653704 -0.18650419
0000d0 8e 2a e6 3d db 9a 97 bd 90 98 f0 bd 24 96 86 3e
       0.112385854 -0.07402583 -0.11747849 0.26286423
0000e0 70 4c 28 be cf de fd 3d 99 45 cd 3e 3e 3f 2c be
       -0.16435409 0.12396013 0.4009216 -0.16821
0000f0 fb f9 e6 3d 21 03 06 3e 05 51 08 bb 00 85 3c be
       0.11278149 0.13087131 -0.0020800245 -0.1841011
000100 5b 53 16 3d fb 72 3b 3e 87 8a 34 3e b7 7f 5b be
       0.036700588 0.1830558 0.17630969 -0.21435438
000110 25 ae 17 bc f5 a3 f0 3d 09 1a 1a ba ec 92 5a bd
       -0.009257828 0.11750022 -0.00058785133 -0.053362772
000120 ff 98 f4 bd b0 9d 5f bd 10 b2 41 3e 7d fd ca bd
       -0.11943244 -0.054593742 0.18915582 -0.0991163
000130 0e 53 38 3e ec 9b 68 3c 79 81 33 3b 08 4a af ba
       0.18000433 0.014197331 0.0027390404 -0.0013373503
000140 6a 33 f3 3c 72 8e e8 bd c5 a7 9b bd 87 6c a7 bd
       0.029687602 -0.11355294 -0.07600359 -0.08174997
000150 e1 44 8a 3d e6 b6 8b bd 62 7d 11 bd b1 de e2 bc
       0.06751419 -0.068219945 -0.035519965 -0.027694078
000160 c5 15 96 3d 54 94 21 3d a9 de 63 3e 89 53 66 be
       0.07328371 0.039448097 0.22252907 -0.22492804
000170 bc 21 91 bd 12 61 22 be e6 89 67 be 82 62 6a bc
       -0.070865124 -0.15857342 -0.22611198 -0.014305713
000180 32 73 03 be 7a c3 b8 3c 5d 39 1d bd 0d 84 ad 3e
       -0.12836912 0.022554148 -0.038384784 0.3388981
000190 2f 3c 72 bd 92 2b 0c bd ba 3a e4 bd d4 bb 91 3c
       -0.059139427 -0.03422124 -0.11144014 0.017789759
0001a0 5f 61 6a bc 10 17 00 3e 18 0f a5 3d 7b b5 60 3d
       -0.014305442 0.12508798 0.080595195 0.054860573
0001b0 92 1a 51 bd 59 c3 65 be c4 72 7a bd f3 bb 36 3d
       -0.05105073 -0.224378 -0.061144605 0.044612836
0001c0 96 4b a0 be 1a ce da 3d 4b fe 05 be 2d a6 49 be
       -0.31307667 0.10683842 -0.13085286 -0.19692297
0001d0 ab ce 91 3d 5e 7f eb bd 30 49 dd 3d 82 f7 06 bd
       0.07119497 -0.11498903 0.10804975 -0.032950886
0001e0 f8 59 08 bd eb 5e b6 bd 72 da 3a 3e 80 5f ac 3d
       -0.033288926 -0.08904823 0.18247393 0.08416653
0001f0 0c 10 69 3c 55 13 c4 3d 34 d4 81 bd 6b b9 51 bd
       0.014225017 0.09574 -0.06339303 -0.05120222
000200 2b e0 ee 3d 6f 93 dc bc c1 60 c2 3d b3 ab 6d bd
       0.116638504 -0.02692577 0.094911106 -0.058025073
000210 ff 8a 29 bd 8a 56 f9 3c b1 ed e4 bc c5 4b 3a be
       -0.041392323 0.030436773 -0.027945371 -0.18192966
000220 3e eb 02 be d7 fb fe 3c 8e 9c ec 3c 49 61 f1 bd
       -0.1278505 0.031125946 0.028883245 -0.11786134
000230 d4 2e d1 3b 45 5f 38 bd e7 ff ab 3d 57 ef e8 3d
       0.006383756 -0.04501273 0.08398419 0.113737755
000240 c8 31 e4 bc be ae 5e bd 8f 38 aa be 06 d4 99 3d
       -0.027855769 -0.054365866 -0.33246276 0.075111434
000250 33 30 11 3e 57 a4 58 3d 51 1e 36 3d e5 f7 0b 3e
       0.14178543 0.0528911 0.044462506 0.13668783
000260 dd 71 d5 bc 8e 17 10 3e bd 1b 9f 3c 4c d1 f3 3d
       -0.02605527 0.14071485 0.019422406 0.119051546
000270 fa 30 9b bc a4 b4 6c 3d 6c 2e e1 bd 11 84 fe bd
       -0.018944252 0.05778946 -0.109951824 -0.124275334
000280 59 aa ae 3d f4 c3 e8 3d fa 8a 66 bd 40 cb 85 bd
       0.08528585 0.113655 -0.056284882 -0.065329075
000290 72 45 84 3d c8 98 cc 3d 1b 78 cf 3d a8 7d 12 bd
       0.06458558 0.09990078 0.1013033 -0.035764366
0002a0 0e 59 c5 bd 00 16 78 3d c5 b9 e6 3d fe 76 a6 bd
       -0.096361265 0.060567856 0.112659015 -0.08128165
0002b0 60 da 0f bd 70 65 56 bc 87 1d f3 3d 16 89 5f 3d
       -0.035120368 -0.013085708 0.11870866 0.054574095
0002c0 10 36 9b 3e 8b 14 a0 3d c8 cc 5b bd cc d7 b1 3d
       0.30314684 0.07816418 -0.05366209 0.08683738
0002d0 b5 75 43 be dc a4 2d 3e 1a 77 c1 3c c9 cb f8 bd
       -0.1908787 0.1695742 0.023616362 -0.12148244
0002e0 f0 f5 52 3d 57 d3 32 3c 88 a6 30 3e 96 78 7c 3d
       0.051504076 0.010914645 0.17251027 0.061638437
0002f0 76 60 13 3e 24 d4 77 3e 3b fd d7 3d e2 04 65 bb
       0.14392266 0.24202019 0.10546347 -0.0034945537
000300 8e 4a 35 be 78 d4 13 3d 31 c8 db 3d 31 a2 87 be
       -0.17704222 0.036091298 0.10731543 -0.2649093
000310 84 b3 35 be 8e 78 40 3e a9 92 77 bd c9 13 95 be
       -0.17744261 0.18795988 -0.0604426 -0.29116657
000320 88 c8 2c be f2 7d 05 be e8 e0 d5 bd b7 96 bd bc
       -0.16873372 -0.13036326 -0.10443288 -0.023143156
000330 0b 93 b9 be 5b ad 31 be 8c 74 9e 3b 95 54 45 bd
       -0.36244997 -0.17351286 0.004835671 -0.048176367
000340 6d 1d 1f be 47 a8 ce 3d 33 fd 57 3e d1 f1 45 be
       -0.15538569 0.1009069 0.21092682 -0.19330527
000350 fd 7d 99 bc 6f e1 2a bd 57 2b ee 3d 3c 48 0c be
       -0.018736834 -0.041718896 0.1162936 -0.1369943
000360 a4 51 50 3e a7 8b 5a b9 11 d2 67 3e a9 5c 54 3c
       0.20343643 -0.00020842125 0.22638728 0.012961545
000370 c9 47 e9 3c 7c 6b d6 bd 73 a2 cf 3d 9d e8 32 bc
       0.028476613 -0.1046972 0.101384066 -0.010919717
000380 ed df 46 be d4 58 14 be 6d a5 d9 3d 9c 1f ae 3d
       -0.19421358 -0.1448701 0.106272556 0.08502123
000390 40 8a 43 3e a2 42 34 bd 09 51 4e bd 25 35 41 be
       0.19095707 -0.04400886 -0.05037025 -0.1886793
0003a0 9b ba b2 3b e8 a4 7f 3d 20 6c eb bc 41 3c ff bd
       0.005454374 0.062413126 -0.028738081 -0.124626644
0003b0 28 3b 1d bb ea 1c 8a 3e e0 b8 c6 bd 6e e5 8e bd
       -0.0023991559 0.26975185 -0.09703231 -0.06977354
0003c0 c0 00 8f 3d 87 9b 1c 3d cb fc 17 be cc f5 9e bc
       0.06982565 0.03823426 -0.14842527 -0.019404314
0003d0 04 89 ec bd e8 13 8b 3e ca e0 c8 bd b2 fd 1c 3c
       -0.11549571 0.27163625 -0.098085 0.00958197
0003e0 f1 9f b6 3d eb 61 00 3e f5 a3 99 bd c8 73 f4 3d
       0.08917225 0.12537353 -0.075019754 0.11936146
0003f0 a1 39 22 be 89 ab 66 3e a1 18 35 3b a1 a8 94 bd
       -0.15842296 0.22526373 0.0027633088 -0.07258726

fc3.bias f4 [128]
000000 b8 90 d8 be 2c 7f 0b be 42 dd a0 3c 51 0d 92 3e
       -0.42297912 -0.13622731 0.019636754 0.28525785
000010 62 07 49 bd 21 68 0d bd f6 65 6f be c5 0f 06 be
       -0.049079306 -0.034523133 -0.23378739 -0.13091953
000020 66 cc de be c2 34 78 be 36 23 a2 3d 8e 4d c7 3e
       -0.4351532 -0.24238876 0.07916872 0.38926357
000030 61 24 52 be d9 90 f9 bd 6f a0 17 bd f4 19 9e be
       -0.2052169 -0.121858306 -0.037018236 -0.30879176
000040 d5 62 b9 bd c9 e0 10 be 1a b2 00 3e e1 1c 2e 3c
       -0.09052054 -0.14148249 0.1256794 0.010627002
000050 db 93 91 3d e3 80 f8 3d f6 3d cb be 35 7a 6d be
       0.07108279 0.12133958 -0.3969571 -0.2319115
000060 98 09 03 3c e3 cd e9 3e 21 c5 cd bd 2b c2 a2 bd
       0.007997893 0.45664892 -0.10047365 -0.07947191
000070 72 db 07 be 80 04 d6 be 84 fc fb 3c ec d6 43 be
       -0.13267305 -0.41800308 0.030760057 -0.19124955
000080 9a 4e 7b 3e 67 eb 6d be f4 5b cb be 74 04 d0 bd
       0.24541703 -0.2323433 -0.39718592 -0.10157099
000090 0b 72 cf bd 40 5e 89 be c2 41 cd be 77 dd ad bc
       -0.10129174 -0.2682972 -0.40089232 -0.021223767
0000a0 c0 79 0e 3c 9e c1 db be 1c 69 04 3d d9 17 0b 3a
       0.00869602 -0.42921156 0.032326803 0.0005305983
0000b0 13 5b 36 be c0 a0 0b be 6e 71 4a bd 13 9c ab 3e
       -0.1780818 -0.1363554 -0.04942458 0.33517513
0000c0 22 ba cd 3e a4 15 d3 3d 06 2c 67 be cf 84 ad 3d
       0.4018107 0.10306862 -0.22575387 0.08472597
0000d0 1e e5 7c be c7 54 e5 be de b9 24 3e c6 4c d6 bc
       -0.24696776 -0.44791242 0.16086528 -0.026159655
0000e0 76 e7 0f 3e e9 5a e7 3e 34 7b 96 bd f8 c9 18 3e
       0.14053139 0.45186546 -0.07347718 0.14920795
0000f0 1a 07 ce be 46 34 82 be 2b 63 19 be bf 93 dc be
       -0.40239793 -0.25430506 -0.14979236 -0.4308147
000100 e3 c6 d6 3e 6d 43 52 bd e3 7a 8c be 69 22 62 be
       0.41948614 -0.051333833 -0.27437505 -0.22083439
000110 c1 9c e5 bd 90 a9 5b be 8f 7a a4 be b0 41 15 be
       -0.11211539 -0.21451402 -0.32124755 -0.14575839
000120 36 27 30 bd 53 c1 50 be 5c 7e 9f be fa 72 f6 3d
       -0.043006144 -0.20386247 -0.31151092 0.12033649
000130 f6 2d 01 be fb 3d 85 be 2d 91 d8 3d 4c e0 03 be
       -0.12615189 -0.2602385 0.10574565 -0.12878531
000140 7a 07 c4 be 78 10 85 be 1c de 85 3d c9 b8 ea 3d
       -0.38286954 -0.25989127 0.065365046 0.11461026
000150 30 fa 8c be 82 09 74 3e 42 f9 a9 3e 88 ce 7e bc
       -0.27534628 0.23831752 0.3319798 -0.015552171
000160 0d 25 f7 bd 3c 79 0f be 5d 9d e3 3d b3 82 a7 be
       -0.12067614 -0.14011091 0.11113999 -0.32716903
000170 93 ee 1f be 54 5b 54 be 2c 82 e7 be 7a 36 9b 3d
       -0.15618353 -0.20737964 -0.452165 0.0757875
000180 d1 fe 3d be 7b a9 6e be d4 81 6a be f1 a4 dd 3e
       -0.18554236 -0.23306839 -0.22901088 0.43289903
000190 9e 5b db be b0 0c fa bd 3b 8a 92 be 6f 4d bd 3b
       -0.42843336 -0.12209451 -0.28621086 0.005777053
0001a0 da 9c b7 bd 39 ef 6a 3e 8d 26 02 3e e4 dd 90 be
       -0.08965464 0.22942819 0.12710018 -0.2829429
0001b0 d5 c4 0d be 33 68 97 3d 3f ef 7a be 25 7c 33 be
       -0.13844617 0.07392921 -0.24505328 -0.17527826
0001c0 62 6f ac 3d d7 32 bc be a7 ef 53 be ee 9d 9f 3c
       0.08419682 -0.36757538 -0.20696889 0.019484486
0001d0 57 36 5c 3e 14 66 a4 be bf f9 98 be 4c ab 38 be
       0.21505104 -0.3210913 -0.2987804 -0.18034095
0001e0 30 e1 de bd 16 63 e1 bd 20 90 48 3e 1b 72 5b 3e
       -0.10882795 -0.11005227 0.1958623 0.21430247
0001f0 e4 af d7 be 20 be a8 bd 0f c1 28 bf 0e 85 c9 be
       -0.4212638 -0.082393885 -0.65919584 -0.39359325

fc4.weight f4 [1, 128]
000000 68 20 29 bd cd 5e 89 bc d0 f3 8c 3c c9 f9 3b 3c
       -0.04129067 -0.016768837 0.017206103 0.011473128
000010 78 43 b2 bc 99 e2 91 bc dd cc 8a bc b4 e0 a2 bc
       -0.021760687 -0.017808245 -0.01694339 -0.019882537
000020 2d 6d de bc e5 2a eb bc 00 2f 9b 3c 4e 49 7d 3c
       -0.027151668 -0.028706977 0.01894331 0.015459372
000030 41 3a a7 bc 56 4b bd bc 5e c6 27 bd 8e 38 e6 bc
       -0.02041352 -0.023107212 -0.040960662 -0.02810314
000040 d9 d2 ce 3c f2 69 f7 3c a0 b5 68 3c 06 60 5e 3c
       0.025247024 0.030201886 0.014203459 0.013572698
000050 03 e5 ae 3c 7c a9 99 bc 0b 63 9a bb 4e 43 ce bc
       0.021349436 -0.018757574 -0.004711514 -0.025178578
000060 64 09 b3 3c 0a 91 3e 3c 6a cf c8 bc 14 4f 02 bd
       0.021855064 0.01163126 -0.024512965 -0.031813696
000070 8a 1a ad bc a5 34 29 bc 37 2b 99 3c 04 fa 21 bd
       -0.021130819 -0.010327493 0.018697364 -0.039545074
000080 c5 52 ae 3c 42 6d a0 bc 60 01 b3 bc af b4 ab bc
       0.021279702 -0.019583348 -0.021851242 -0.02096018
000090 b1 41 9f bc 56 29 c9 bb 10 e3 ff bc da 27 88 3c
       -0.019440504 -0.006138961 -0.031236202 0.016620565
0000a0 9c 2a a4 bc 68 a6 b1 bc 01 6b 14 3d 8f 42 9a 3c
       -0.020039849 -0.021685794 0.03623486 0.018830566
0000b0 5f cc e9 bc 1c f8 c1 bc fb a7 1d bc 72 98 fb 3b
       -0.028539835 -0.023677878 -0.009622569 0.007678085
0000c0 e3 e2 44 3c 58 ce e8 3c 7c 05 83 bc f2 3f 17 3d
       0.012016985 0.028418705 -0.015993826 0.036926217
0000d0 6e e4 9f bc 93 7d d5 bc 47 79 80 3c 32 7a 9c bc
       -0.019518103 -0.026060855 0.01568283 -0.019101236
0000e0 5b 7d 22 3c 8d 5a b9 3c e3 7b 06 3d 5b 77 fe 3b
       0.009917582 0.022626186 0.03283299 0.007765693
0000f0 81 30 27 bc 66 2e c0 bc 32 f4 04 bd 13 41 fe bc
       -0.010204435 -0.023459624 -0.032459445 -0.03103689
000100 c2 85 ea 3c 66 d1 c4 3c 0d 8b 93 bc fe 6d 1c bc
       0.028628234 0.02402563 -0.01801064 -0.009547709
000110 7f 58 9a 3c 29 c1 97 bc 3f 49 a1 bc 26 a3 ba 3c
       0.018841026 -0.018524723 -0.019688247 0.022782873
000120 0b c7 d3 bc 2d b6 8c bc 54 10 94 bc 2f 8f 23 3c
       -0.025851747 -0.017176712 -0.018074192 0.009982868
000130 78 ab 51 3c 00 b8 3c bc 8e 56 b1 3c 19 d9 0c bd
       0.012797229 -0.011518478 0.021647718 -0.034386728
000140 d8 5c 86 bc 7e e0 84 bc fd ec 68 3c 90 23 e5 3c
       -0.016401693 -0.016220327 0.014216659 0.02797106
000150 c6 99 48 bc 0a 47 e6 3c b0 d2 97 bc 40 3b 5e bc
       -0.012243694 0.028110046 -0.01853308 -0.013563931
000160 f7 5a b1 bc f0 af 8d bc 6e 99 d6 3c ec 7f c3 bc
       -0.02164982 -0.017295808 0.026196208 -0.023864709
000170 d0 c2 fa bc 7c be 95 bc 12 0a 44 bd ab e6 cb 3c
       -0.030610472 -0.018279307 -0.047861166 0.024890264
000180 8d d9 a4 bc 2d 77 3e bc ac 3f 48 3c 06 64 69 3c
       -0.020123268 -0.011625093 0.012222212 0.014245039
000190 05 4c fe bb 0d 8f 39 3d ec e9 d7 bc af 52 3e 3c
       -0.007760527 0.04530244 -0.02635666 0.011616393
0001a0 84 42 94 3c 54 75 f9 bc ff 63 37 3c 17 11 28 bc
       0.018098123 -0.030451454 0.0111932745 -0.010257981
0001b0 57 46 08 bd db a5 6b 3c 22 83 83 bc 50 66 d1 bc
       -0.033270206 0.014382805 -0.01605374 -0.025561482
0001c0 5f 27 18 3d b1 70 a9 bc 0e 10 cf 3c a7 9b 84 bc
       0.037146922 -0.020683618 0.02527621 -0.016187502
0001d0 75 63 f3 3b 96 2e 51 bc 27 6b ff bc da 9b 7d bc
       0.0074276277 -0.012767455 -0.031179024 -0.015479052
0001e0 58 10 42 3d 37 e0 f3 bc a8 46 49 3c 44 27 a5 3c
       0.047378868 -0.02977 0.012284912 0.020160325
0001f0 16 a2 c3 3a 8f 73 b7 bc 6a 00 07 bd a0 45 1b bc
       0.0014925625 -0.02239397 -0.03295938 -0.009477049
