MADDPG/checkpoints/checkpoint_td3_critic_0.pth (torch, 451791 bytes, 7 tensors)

fcs1.weight f4 [256, 48]
00000000: d63d f6bc b603 b3bd d180 f13c 047d 4b3d
00000010: 081b 8e3d 6495 3abd 6241 4cbb c04e fdbd
00000020: 5f2d 38bd e6f1 473d 3568 9abd 3801 1ebe
00000030: 2c16 06bd e47a 93be ac01 31bc 24b5 75bd
00000040: 3474 483e e71a c03d fede 663d d38e 163c
00000050: 957e a0be 2091 07bf e871 e2bd ba10 0e3e
00000060: e2cd 56bc 7546 9abe 6152 1f3c f21d b13c
00000070: 512f dd3c ddfb d33c 332c a1bd 8e4e 763d
00000080: 3a35 923d f119 ac3d c14f 053e f2cc a4bd
00000090: 9195 283e 0e9f afbd 8d50 933c 6359 34bd
000000a0: 8a33 afba 9ab8 813d 95cd b1bd ee01 d73d
000000b0: 302c 693e 5854 02bf db6a 8bbc 76df b6bd
000000c0: b8fc 263d 726c 773e da7d a7bd de5c 27be
000000d0: f33d 25bd 3591 99bd 8f36 00be fa24 8dbd
000000e0: 5c11 a73d 38e3 fd3e 5a84 50bd 1170 0f3e
000000f0: f320 c8bd 99a2 19be 07f0 57bc 954f 633e
00000100: 458a ba3d a803 223f 3fee 62bd 03f7 6bbd
00000110: f98c 67be 15b8 0abf c2f1 73bd 6f02 073e
00000120: 1cfa b3bb ffea 8ebd c8e8 5dbb 818c 943d
00000130: 0e2c 12be 92d6 36be 1337 03be ef8f bcbd
00000140: a19a 573d 6637 483c 8c24 413c 0f71 463d
00000150: 81df 86bd 5ff1 cdbd 4aea 833d 299a b0b9
00000160: b8c7 89bb af3a 933d 6d39 f53d 3216 a73d
00000170: 0bd9 6a3e 6304 29bf e6fa a4bc e86a 9abd
00000180: fdca cd3d 96c7 dcbd 7785 f2bd 46e2 6dbe
00000190: 2d4a 15be e29f 01bd 993f 963d 57bc 54bd
000001a0: fd18 483d 99e9 b53c 5da0 c9bd c6f8 39be
000001b0: d421 d33d fe04 803d 218c cfbd fbe6 6dbd
000001c0: 20bc 093d 4d7d bfbd 477c ecbd c33d 45bd
000001d0: 7c14 c93e 541f 473d 2c38 8bbc 4b44 393a
000001e0: 63da 12bd 4136 8abe f4b7 7cbd f173 3fbe
000001f0: 4490 cc3d e501 55be b653 5cbd 0141 4dbe
00000200: f78f 25bd e79b f4be ca5e 2ebe 1359 56bd
00000210: 354b 633d 3e87 c2bd a68b 31bc ff1a 7d3d
00000220: 311c 833d 8020 02bf 35df 923d 6eef 2dbd
00000230: 7a58 dfbe 5c47 143e a3db 293d 7a33 90bd
00000240: 14e1 e93d 3174 a1bc 165f 87bd de14 21be
00000250: 59dc 1d3d 10b7 db3d ea97 493d 8f06 0ebd
00000260: 4bf1 a83c 3b44 0fbd 8fb2 03be 47ef 7cbd
00000270: 920f b9bc a3a3 d43d 64ea ef3d db1f a2bd
00000280: 5b1f 333d ba6b 8dbd 4716 31bd c284 24bd
00000290: 28a2 bebe dd2e 99be 2ae8 ae3c 4610 55bc
000002a0: 8f4f 0fbd 3bfc 6c3e d646 05be 5334 24bd
000002b0: 7d96 89be d5b1 473e 7dbc 533d d92b dcbd
000002c0: 21c3 85bd 0934 3a3e a653 29bd 823e 013e
000002d0: be0d c33d 0e76 00be fa56 f2bc 9935 2b3e
000002e0: c694 99bd 1f88 fb3d 5a87 cebc 326b 353c
000002f0: 9a6d bf3e 3b16 b8be 0d0d 643c ed30 363e
00000300: b9c5 a83e dba3 13bd ef76 eabc a576 dcbc
00000310: 78ab 21be 9be1 b9bd 9a73 60bb 3f00 e1bc
00000320: c1c9 a83e bc29 0fbe d122 b1bd 2e6f 86be
00000330: 9dae 76bd 8cc1 7ebe d403 03be 0973 21be
00000340: f405 753e 134a 3dbd ebe6 45bc f3f1 4dbe
00000350: 2779 e03d fc12 60be 70b6 ebbd 9f0c 2cbd
00000360: 7a6c 943d 042a 89be 31af d03d a7ad 9c3e
00000370: 8c35 e33d 4501 9abd bde8 003e d9f4 273e
00000380: 85a5 86bd 41f3 9dbd ec4b 4dbd 8f0f ad3d
00000390: 9dd2 21bd dbe1 dcbd 3057 553d 84c0 223e
000003a0: 8d7e b6bc 8282 583d 271b e33d 50b8 673e
000003b0: 96c0 8ebc 3d7e a7be 576c 0cbe 0945 843e
000003c0: 5a37 bb3d b237 113f bc5c 003e 208a 4d3e
000003d0: eea2 ba3d 0d30 dabe 5e0a c83c 262e bd3e
000003e0: 0363 9d3d fad8 183f 6031 87bd 7dfb 8bbe
000003f0: 0a96 f6bb 0f8e bebe ac2c b43d 0b3e 00be
-0.030058783 -0.08740942 0.02948037 0.04967977 0.069387496 -0.045552626 -0.00311669 -0.12368536
-0.044965144 0.048814677 -0.07539407 -0.15430152 -0.03273599 -0.28804696 -0.010803621 -0.059987202
0.19575578 0.09380131 0.056365006 0.009189325 -0.31346574 -0.5295582 -0.11056882 0.13873568
-0.01311061 -0.3013188 0.0097242305 0.021620724 0.027000101 0.025876934 -0.078697585 0.06013351
0.071390584 0.084033854 0.13018705 -0.08046903 0.16463305 -0.08575259 0.017982746 -0.04403056
-0.00133668 0.06334038 -0.0868179 0.10498415 0.22770762 -0.5090995 -0.017018726 -0.089293405
0.040768355 0.24162462 -0.08178301 -0.1634402 -0.040342283 -0.07498399 -0.12520812 -0.06891818
0.08157608 0.49587417 -0.05090747 0.14007594 -0.097719096 -0.15003432 -0.013179786 0.22198327
0.09108404 0.6328683 -0.05540299 -0.057608616 -0.2261237 -0.54187137 -0.05955673 0.13184522
-0.005492462 -0.06978416 -0.0033860672 0.072533615 -0.14274618 -0.1785529 -0.12813978 -0.09207141
0.0526377 0.012220239 0.011788499 0.048447665 -0.06585599 -0.100558035 0.064411715 -0.00033684194
-0.0042047165 0.071889274 0.11973844 0.0815853 0.22934358 -0.6602232 -0.020139169 -0.07539922
0.100484826 -0.107802555 -0.11841863 -0.23230848 -0.14579077 -0.031646617 0.07336349 -0.051937427
0.048851956 0.022206115 -0.0984504 -0.18161306 0.103091866 0.06250952 -0.10134149 -0.05808161
0.033626676 -0.09350071 -0.115471415 -0.048154604 0.3927344 0.04861386 -0.016994558 0.00070673664
-0.0358528 -0.26994517 -0.06169887 -0.18696572 0.09988454 -0.20801504 -0.05379077 -0.20044328
-0.0404205 -0.47775194 -0.17028347 -0.05233104 0.055491645 -0.09498452 -0.010836517 0.061793324
0.064018615 -0.5083084 0.071714796 -0.042464666 -0.4362219 0.14480346 0.041469228 -0.070410684
0.11419883 -0.019708725 -0.06609933 -0.15730616 0.038540218 0.10728276 0.049217142 -0.034674224
0.02062287 -0.03497718 -0.12861083 -0.06175163 -0.022590432 0.10382774 0.11714628 -0.07916232
0.043731075 -0.06905313 -0.043234136 -0.04016567 -0.3723309 -0.29918566 0.021350939 -0.013004368
-0.034987982 0.23143093 -0.13015303 -0.040088963 -0.26872626 0.19501431 0.05169343 -0.10750551
-0.065313585 0.18183912 -0.04133954 0.12621501 0.095241055 -0.12545034 -0.02958249 0.16719665
-0.074990794 0.122818224 -0.025211025 0.011072921 0.37388307 -0.3595446 0.013919127 0.17792101
0.3296335 -0.036044937 -0.028621165 -0.026912043 -0.15788066 -0.09076234 -0.0034248591 -0.027465938
0.32966426 -0.13980764 -0.08649219 -0.26256698 -0.060225118 -0.2487852 -0.12794429 -0.15766539
0.23928052 -0.04621322 -0.012078981 -0.20111828 0.10960608 -0.21882242 -0.115094066 -0.042004224
0.07247253 -0.26789868 0.10189665 0.30601236 0.11094198 -0.075197734 0.12588783 0.16401996
-0.06574539 -0.077124126 -0.050121233 0.08450233 -0.039507497 -0.10785266 0.0520851 0.15893751
-0.022277141 0.052858837 0.11089163 0.22628903 -0.017425817 -0.327135 -0.13713203 0.2583392
0.09141417 0.5672561 0.12535375 0.20072222 0.091131076 -0.42614785 0.024419006 0.3694927
0.076849006 0.5970608 -0.066012144 -0.27340308 -0.0075252103 -0.37217757 0.08797583 -0.12523668

fcs1.bias f4 [256]
00000000: 91bc ae3d ef53 afbd 8b31 adbd 7e6c 28be
00000010: d12a 9c3b 27e9 5bbd 8ed7 233e 8589 e5bc
00000020: 7dc5 f3bd 15e6 273d c713 dabd 6bed 20bd
00000030: 74ef 85be 2f37 27be 24e0 b8bd b164 843d
00000040: a61f a7bd c50b 33bd 009b e9bd f0dd 493d
00000050: 8f47 203a a525 1fbe e390 1d3e f17d 7bbe
00000060: 4f76 28be f992 aebd 212a 6abd e052 8f3d
00000070: 5274 b3bd 59d5 93bc 9618 bb3c 4b7b e33d
00000080: daaf 243c 6b56 4c3c 07fa e5bd 6735 81be
00000090: 21c6 6cbb 04e7 1d3e 80ff 6abc 4270 85bd
000000a0: 0b02 00bd 3698 00be 8028 a9be f72c 3ebe
000000b0: a082 16be 3e3c e8bd 2d78 dabd 7b36 50be
000000c0: 5d90 323d aa5d 12be 4d19 dd3d e541 8d3d
000000d0: 8c80 813e 706d 6bbd e98d 2cbe 2443 b3bd
000000e0: f74a bebd 101a 35be bc95 05be c47b 8f3c
000000f0: 9a17 87be 4ca6 953d 9742 31be d2fe 7abd
00000100: 35c5 66be 7aab d9bc 65f9 1c3e ec27 9abb
00000110: 6c6e cebe 16da 87bd df02 9439 3243 23be
00000120: 797d b7be ea06 aabd 3696 2abe 190e a0be
00000130: 0368 2abd 7f7b eabd b644 543e 3a74 b0be
00000140: 04ec ddba eeb5 0c3e eefa 633d 0190 9f3e
00000150: 47ac 1bbe 5595 04be 819c 0cbe f8f4 f4bd
00000160: 3879 8f3c 0853 23be 5550 5fbe 84be 84be
00000170: 43fb 7abe 2f1e 093e f58b ccbd 52b0 893d
00000180: bc1e 8dbe 9210 4cbe 088a 1c3e f75c 22bc
00000190: c0aa 173e 2e28 263e 06d1 03be 9e12 abbd
000001a0: 4900 81be dcff 013e 8581 71be 2e87 7a3e
000001b0: 0315 dbbc 59f1 61be 4859 c4bd ef46 083c
000001c0: 56ca 97bd ab90 adbe 5977 713e d14c 80be
000001d0: 2610 acbd ff32 2dbd 2ef9 1abe 6e53 84be
000001e0: d3f3 4dbe ea2c 85be afc4 83bc 8897 b53c
000001f0: dcbe 98bd 883c 55bd 3336 b8bd 342a edbd
00000200: 36f5 823d c368 1dbd c350 1bbe 08a8 2bbd
00000210: d5ad 2cbd 7739 a43b e6a9 9e3c 7ad1 21bd
00000220: 07dd 50be 4fdb 1b3e 9211 30be 3e03 adbe
00000230: b1df 773b ed68 7f3d ee71 2ebe 2428 88bd
00000240: 858d 93bb 5b92 36bd 8aa9 eeba 7745 6bbe
00000250: 21b0 063e 6e5f eabb 5657 863d 139e a33a
00000260: 6704 bfbb 3691 b6be 3a8c 3a3d 0552 0dbe
00000270: 89ff 753e 8fb2 90be 88da 3a3e 7269 6cbc
00000280: 5c4b bf3d df42 5d3a e889 2abd 2f04 aebd
00000290: b892 413d 179a 4c3e 33c9 4ebe c082 ea3d
000002a0: a3b6 2dbe 5663 e0bd 4ee0 5bbe 12fd 173c
000002b0: a2af 023e 818e f2bd 7256 d93d b85a 29be
000002c0: 0e9a 74bd d9d3 8dbe 3bc8 223d 7e24 f73d
000002d0: 17cd 42be b4e2 0abe 7b33 7c3e 7385 40be
000002e0: e0cd a53d f1c7 80bd 3c73 8b3e ab74 ca3d
000002f0: efb8 6bbe eab1 84bd 6746 9c3d 6fde 4fbe
00000300: c652 97be fe15 67be dc43 f93d b36f 1f3e
00000310: d567 a93d 1303 b3bd f973 c53d 9c86 32be
00000320: b02b 1bbd a6ba bfbe 39ae 45bd cb20 97be
00000330: b2e9 78be c196 ccbd ca96 12bf d6ff ffbd
00000340: d649 2fbe a54e 073e 94a3 abbe 224f 54bd
00000350: 5540 8ebe e620 953d 5e01 21be 0227 40be
00000360: 6990 02be a7e1 ef3d 3e84 0b3e c23a 6fbe
00000370: b8b1 013e e20f 58be a8dc 4abd 665d e5bd
00000380: dfb3 a3be de6b 82be 4f21 1c3e 289d 0ebe
00000390: 2ebb 3bbe c688 d8bd 3e64 59be 255e bdbc
000003a0: 570f e63c 1d3c 703d 7029 8dbd b4ef d13c
000003b0: 6f56 8abe 7b84 f9bd 38e0 0ebe 7a3b 83be
000003c0: 42b1 a3bd 9fb8 7fbe 022f 043e a557 003d
000003d0: 5bab cfbd 14cf 113e 749e 1f3e 2f85 83bd
000003e0: 6c6a 50bd 985c a6bd 097c 8f3d 2b50 c1bd
000003f0: 5c05 e7bc 2be8 67bd 3036 79be ccf1 19bf
0.0853206 -0.08560931 -0.08456715 -0.16447636 0.0047658463 -0.05368915 0.16000196 -0.028019676
-0.11902902 0.040990908 -0.106483035 -0.03928892 -0.2615925 -0.16329645 -0.090271264 0.06464518
-0.08160333 -0.043712396 -0.11406517 0.04928392 0.00061141787 -0.15541704 0.15387301 -0.24559762
-0.16451381 -0.085241266 -0.057169084 0.06998229 -0.08762421 -0.018046068 0.022838872 0.11107501
0.010051692 0.0124717755 -0.112293296 -0.25236055 -0.0036128836 0.15420157 -0.0143431425 -0.06515552
-0.03125195 -0.12558064 -0.33038712 -0.1857184 -0.14698267 -0.11339615 -0.10667453 -0.20333283
0.043594707 -0.14293543 0.10795841 0.06897334 0.25293386 -0.057477415 -0.1685101 -0.087530404
-0.09291642 -0.17685723 -0.130454 0.01751507 -0.26385194 0.07307109 -0.17310558 -0.06127817
-0.22536166 -0.026571024 0.15329511 -0.004704466 -0.4031862 -0.066333935 0.000282309 -0.15943602
-0.35837916 -0.083021 -0.16658863 -0.31260756 -0.0416031 -0.11449336 0.20729336 -0.34463674
-0.00169313 0.13741276 0.055659227 0.31164554 -0.15202437 -0.1294759 -0.13731577 -0.119607866
0.017513856 -0.15949643 -0.21807988 -0.25926602 -0.24509911 0.1339042 -0.09987632 0.067230836
-0.2756251 -0.19928196 0.1528703 -0.00990986 0.1481123 0.16226265 -0.12872705 -0.0835316
-0.2519553 0.12695259 -0.23584564 0.2446563 -0.026743418 -0.22064723 -0.095873415 0.008317693
-0.074116394 -0.33899435 0.23580684 -0.25058606 -0.084015176 -0.04228496 -0.15134117 -0.25844902
-0.20112543 -0.2601083 -0.016084997 0.022166982 -0.074582785 -0.05205968 -0.08994713 -0.11580315
0.063944265 -0.038429987 -0.15167527 -0.041908294 -0.042157967 0.005011733 0.019368123 -0.039506413
-0.20396815 0.15220378 -0.17194203 -0.33791536 0.003782254 0.062355924 -0.17035648 -0.06648281
-0.0045029544 -0.04457317 -0.0018208486 -0.22975717 0.13153125 -0.0071524894 0.06559627 0.0012483023
-0.005829382 -0.35657662 0.045543887 -0.13800819 0.2402326 -0.2826123 0.18247426 -0.014429437
0.093405455 0.00084404455 -0.041635424 -0.08496892 0.047259063 0.19980656 -0.20193939 0.1145072
-0.16964202 -0.10956447 -0.21472284 0.009276645 0.12762311 -0.11843587 0.10612191 -0.16538513
-0.05971723 -0.2770069 0.039741736 0.12067507 -0.19023548 -0.13563043 0.24629013 -0.18800907
0.08095908 -0.06288136 0.27236354 0.09885534 -0.23019765 -0.06479247 0.07630616 -0.20299695
-0.2955534 -0.22566983 0.12171146 0.15569954 0.082717575 -0.08740821 0.09641261 -0.17434162
-0.03788346 -0.3744709 -0.048261855 -0.29517207 -0.24307898 -0.099896915 -0.57261336 -0.12499969
-0.1711801 0.13213594 -0.33523238 -0.05183328 -0.27783456 0.072816655 -0.15723178 -0.1876488
-0.127504 0.11712962 0.13624665 -0.23362258 0.1266545 -0.21099809 -0.04952684 -0.11199455
-0.31973168 -0.2547292 0.15247081 -0.13927138 -0.18333122 -0.105729625 -0.21229646 -0.02311618
0.028083486 0.05865108 -0.06892669 0.025626995 -0.2701907 -0.12183472 -0.1395272 -0.25631315
-0.079927936 -0.24972771 0.12908557 0.031333584 -0.10140105 0.1423915 0.15587789 -0.06421887
-0.05088274 -0.081231296 0.0700608 -0.09439119 -0.028200798 -0.056617897 -0.24337077 -0.6013458

fc2.weight f4 [256, 260]
00000000: f158 76bc a1e8 6fbe 4e14 f33d 2a33 ae3d
00000010: 774c 1e3e 6244 0bbe eebc b5bc df99 253a
00000020: 5099 b6bd 81d3 96bc 0b1d 04be 9dfd 88bc
00000030: 853a 99bd ecff f9bc a90c 623e b7cc 1fbe
00000040: e295 d6bd 1621 89bd 3413 e5bd 3de7 c33c
00000050: 81ec a5be 9f48 0dbe 298d cdbd 44bb c63d
00000060: 33a7 e5bb b62c 0bbe 8b02 56bc cfd0 71bd
00000070: 8673 85be 716c 9c3d fba7 fe3c ff8a 903e
00000080: 5b99 80be 7f27 56be db33 8e3d 517a 623d
00000090: 117f 8fbd b558 45bc a06b c0bd 0dbf 193d
000000a0: d187 2fbc 684c 2fbe 20c0 37bd 164a d4bd
000000b0: 537f 00be c719 f8bd b73e 823d 6b8d a53d
000000c0: 4beb 05bd f60e 4abe 1ba3 fbbb 3fe9 72bd
000000d0: 5abc 1ebb 2baf 46be 625a 0f3e f1ad 223d
000000e0: 90c6 15be 1158 793d 85d3 b73d 0c14 29bd
000000f0: 0d3e f9bd e9ce 383e a1df 103d 750e 973d
00000100: 2a8e d1bc e700 ae3c 72de 2d3d 7eff 93bc
00000110: c4df ccbc 349a b63c 336f 9a3b 5aba 43be
00000120: 80b9 a4be e098 713d 502b 38be 1259 dbbd
00000130: 4fdc 8cbc ec76 ab3b 0320 283d 58df cd3c
00000140: 160f 993d 77e3 143e 6c45 bdbd c38f 343e
00000150: 7395 90bd 936c a53d e09d b53d fe06 d13c
00000160: b002 60be 86c0 7dbe ef2b 373c 9170 38be
00000170: c5b3 b33d 0440 c73c b9c5 833d 74c4 0dbd
00000180: 8eb3 ef3c ed2a 35bd bea6 073d 25d8 48bd
00000190: ec95 99be f358 eabd efc3 753e c3c4 2c3d
000001a0: d108 333e dcd0 0fbe 9fb2 f93d 4029 1d3e
000001b0: bfac 44bd 8f1e 2f3e daf3 243c 7191 013e
000001c0: b24c 3abe b95e a0bd 8f35 4abd 0bae 46be
000001d0: fb16 43bc 9d23 70bd e75e a2bd c9c4 b23d
000001e0: 8294 b73d 686b dbbd e013 963d 6ff0 15be
000001f0: e4ef 7a3d 2151 4c3d 0811 c5bd b77b b9be
00000200: c1db 073e d07d 083e 1bbc 24bd e3b7 acbd
00000210: 57d9 9ebc 01e2 d3bc 2e18 bb3d 93a7 1abe
00000220: 4233 41bd 2f9f 093e fb14 1ebe 4030 c5bd
00000230: b83e 973d a043 11be 89b6 3fbd 749e 2cbe
00000240: 8fe2 96be cb82 74bd bf15 82be 8ba1 92bd
00000250: 4671 71bd 5446 c03c 5526 dc3c c9f1 c9bc
00000260: dfca 893d 9400 3b3c 3881 05be 2438 08be
00000270: 4e37 e9bd 0e65 c9bd 2edf 833b 2095 fa3d
00000280: 34d6 113d fbf3 763d cd80 a2bd 3e4b 33bd
00000290: 8d0e cf3d 088a e43b 2439 a53c adb3 d13d
000002a0: 1c77 c33c b78e 27be 942b 7ebd 07af f5bc
000002b0: 35fc 40bd d145 cd3d 9f9f 14be 2d32 9abd
000002c0: 47fc 6bbe 2280 55bc 5eb7 1fbe e693 253d
000002d0: 8e41 283d 4743 fe3d 112f a93c c764 0cbb
000002e0: 8bc3 d53d 8c28 273c b909 2f3e d046 ccbd
000002f0: 23ed 02be a8e5 aebe d155 99bc 0306 93bd
00000300: 5750 733e 7cd6 f6bd 9009 38be 36bc bebc
00000310: 0972 f83c e3b2 053d 7bad 56be fd53 6dbc
00000320: 22bb 71bd 02b4 fdba 5c88 0abe 0671 b3be
00000330: 80da 4b3e 2ddb 8ebd 7a48 de3b 6ecd 09be
00000340: 2ffd c83d 60e7 823d 5de4 8f3d e674 fabd
00000350: 09cb 7abd eca2 a6bd 247c 3dbd b200 6bbd
00000360: 33f7 e33c 652c 603c 790b 0abd d308 26bd
00000370: 2e7c 4a3e 10e8 0d3e 4a28 e93d f9cf e23d
00000380: da98 6d3c d78a 4b3b 5013 debe 6a75 0d3b
00000390: d938 92be d1be 573e f11e 2dbe 786f 6f3d
000003a0: ca03 f53b 3be9 38be c1a1 64be 91b4 c7bd
000003b0: 3b75 433d f526 51be f292 cdbe 07b9 82be
000003c0: 7832 51bd 5489 e23d 25d8 b03d 71b8 2b3d
000003d0: c5dc b2bc bb0b 26bd a9ea adbe 8665 5ebc
000003e0: 2bad ebbd f4f6 91bc c00d 6f3e a650 8ebd
000003f0: 6bbe 0c3d f8ce 0f3d 8d07 e9bd 3962 7dbc
-0.015035854 -0.23428585 0.11869107 0.085058525 0.15458857 -0.13600305 -0.022184815 0.0006317179
-0.08915961 -0.0184114 -0.12901704 -0.016722495 -0.07481865 -0.03051754 0.22075142 -0.15605436
-0.10477807 -0.06695764 -0.11185303 0.023913974 -0.32407 -0.13797234 -0.1003669 0.09703687
-0.007008457 -0.13591275 -0.01306213 -0.059037026 -0.260647 0.07637871 0.031085959 0.28231046
-0.25117 -0.20913504 0.069434844 0.05529243 -0.07006658 -0.012045075 -0.09395528 0.037535716
-0.0107135335 -0.1711899 -0.04486096 -0.10365693 -0.1254857 -0.12114292 0.06359618 0.08083614
-0.032695096 -0.1973227 -0.007679356 -0.059304472 -0.0024221153 -0.19402759 0.13999322 0.039716665
-0.14626527 0.060875002 0.08975891 -0.041278884 -0.12170038 0.1804768 0.03536952 0.07375804
-0.025580484 0.021240665 0.04244847 -0.018066164 -0.025009044 0.022290327 0.004712963 -0.19114056
-0.32172775 0.058983684 -0.17985272 -0.10710348 -0.017194895 0.0052326825 0.041046154 0.025130913
0.074735805 0.14539896 -0.09241757 0.17632966 -0.07059755 0.080773495 0.08868003 0.02551603
-0.21876025 -0.24780473 0.011179908 -0.1801169 0.08774523 0.024322517 0.06434197 -0.03461118
0.029260423 -0.04423039 0.033118002 -0.049034256 -0.29997194 -0.11442747 0.24000524 0.042179834
0.17483832 -0.14044517 0.121922724 0.15347767 -0.048016306 0.17101501 0.010067904 0.12653138
-0.1819332 -0.07830567 -0.049367484 -0.1940233 -0.011907334 -0.058627713 -0.079282574 0.0872894
0.089638725 -0.107138455 0.073280096 -0.146425 0.061263934 0.049882058 -0.09622389 -0.362272
0.13267423 0.13329244 -0.040218454 -0.08433511 -0.019390745 -0.025864603 0.09135471 -0.15102987
-0.047168024 0.1343963 -0.15437691 -0.096283436 0.073850095 -0.14185953 -0.04680494 -0.1685732
-0.29469725 -0.059695046 -0.25407216 -0.07159718 -0.058945917 0.023471035 0.026873747 -0.024651425
0.06728148 0.011413712 -0.13037574 -0.13302666 -0.11387502 -0.09833728 0.004024408 0.122354746
0.03560467 0.06029127 -0.07934723 -0.04377293 0.10110197 0.0069744624 0.020168848 0.102393486
0.023860507 -0.16363035 -0.062053278 -0.029990686 -0.047115523 0.10023082 -0.14514016 -0.075291015
-0.23045455 -0.0130310375 -0.15597293 0.04042425 0.041078143 0.12415176 0.020652326 -0.0021422373
0.104376875 0.010202538 0.17093553 -0.09974444 -0.12785773 -0.3415959 -0.018717678 -0.07178881
0.23761116 -0.120526284 -0.17972398 -0.023283105 0.030327814 0.032641303 -0.20964615 -0.014485356
-0.059016354 -0.0019356015 -0.1352858 -0.35047168 0.1990757 -0.06975398 0.006783542 -0.13457271
0.09813916 0.063917875 0.07025979 -0.12229328 -0.061228786 -0.08136544 -0.046260968 -0.05737371
0.027827835 0.0136824595 -0.033702347 -0.04053576 0.19773933 0.13858056 0.11384638 0.11074824
0.014501775 0.0031058097 -0.4337411 0.0021584877 -0.28558996 0.21068884 -0.16906334 0.058455914
0.0074772583 -0.1805772 -0.22327329 -0.09751237 0.04771922 -0.20425017 -0.40151173 -0.2553179
-0.05107352 0.110613495 0.08634976 0.041923944 -0.021833787 -0.04053853 -0.33968094 -0.01357401
-0.115076385 -0.017817952 0.23345089 -0.06948976 0.034361284 0.03510949 -0.11378393 -0.015465313

fc2.bias f4 [256]
00000000: 2353 22bd e72f 223d d0a2 3f3e 3ae9 30be
00000010: 24db c2bd a67f 81bd ca13 34bd bbec 2fbe
00000020: e0b1 cd3d bc5e 08be 6dae 75bd 197e d1bd
00000030: ce9c 823e c4e6 0cbe 0b87 9cbc 565f 66be
00000040: 02a0 2ebd c0f3 39be a614 4bbe e331 6f3d
00000050: c766 1fbe cb2a 9c3c 0683 e03d 67ce ec3b
00000060: 532e 083d 5c6f 82bb 583a 6abd fae7 0ebe
00000070: 4f23 08be a69d d73c 640e d83d e855 afbc
00000080: d893 71be 7579 50be 9e91 babd a6a4 cdbe
00000090: f260 d3bd 7f11 f9be 38ab e1bc 26a4 3fbe
000000a0: 86d7 a6bd bead e6bd 7a80 3cbc 2c5b 44bd
000000b0: d273 ddbd ec88 0dbe 601f bdbd ac03 51bd
000000c0: 7311 5fbd fa0d 07be f6dd 06bd e238 96bd
000000d0: 70f1 cdbd 68d9 31bd 788d 4bbc af49 15be
000000e0: c116 e2bc d866 c6bb 9b73 4fbd b2de d53d
000000f0: 5ee2 58bd 26e7 2bbe a1b6 fe3d 665f ee3c
00000100: 929a c7bd 1e7c 5dbe 7d0f d4be 6f39 92be
00000110: c1c1 2f3b c523 9cbe d987 acbd c8fd 0bbc
00000120: 969b 8abe 8b84 10bc 871a b03d 25c0 00be
00000130: 5dfc efbd 2d19 d1bd 7a1f 50bd a757 d0bd
00000140: 10db dcbd 8307 3e3d 0926 35be de54 67be
00000150: bbc6 b63d 29a9 cabd f1a9 6f3e bb06 fcbc
00000160: 8c0e 9cbd 3ebe a13d 3a62 39be 94fd 86bc
00000170: 2b4d 8dbc 045e 373d 5b54 7cbe a6aa 42be
00000180: 432c 9bbd 0b7a e0bd cb36 163d 1acf 41bd
00000190: d35d 8b3c b5da 4e3d ec27 cebc 544a f43d
000001a0: 70a9 ccbc 0e49 abbe 16f5 e3bd 889a c13c
000001b0: 0b69 13bd 6866 24be e21c 7dbd 780c 283d
000001c0: 318c dfbd 860e 69be 664a e0bc c7ab db3c
000001d0: 7158 743c 922e 153c 8e0e 263e a75c 9cbd
000001e0: 335b 1bbe c325 e9bd f55a 48be 012b 813d
000001f0: 175e ea3b 4ee8 16be 8da7 f5bd cc49 86be
00000200: 1bda acbd 7671 78bd 5281 92bd 7aa2 15be
00000210: 54b9 24bd 714a 73bd 333d 77bd f8b1 27bd
00000220: abd7 3ebd 63e7 65be 901c a3bd 38d7 28be
00000230: e101 09be a5fb 3fbe 0e6b 1e3d 2a23 b53d
00000240: 5789 68be 26a1 9dbd c12a dd3c c89f c93d
00000250: 964e 3dbd 7539 ec3c 8612 20be 0ffb 56be
00000260: 57b5 833d a222 b83d 3015 9bbd b991 e9bc
00000270: 6eee b8be 1ece 9fbe 3514 c6bd abab 463d
00000280: 1bb9 3cbe 35c0 b0bd 07d8 76be 23ef 563d
00000290: 26fb 0a3d fcea 6fbd 6458 203d cd1d ef3c
000002a0: b6a8 513c f040 f83d cd7f fbbd 55c9 d03c
000002b0: 6c7e 23be 60a4 aa3d fa6f b2bb b550 56bc
000002c0: e43c 203c bca7 593d 86bd b0bd f192 38be
000002d0: a6bd 03be 861c 61bc d5c5 0cbd 0cfa 713c
000002e0: cf65 76be f874 a63b d5e7 e03d fe78 d6be
000002f0: 50bd b7bd 0d1a 043d 85a1 8bbc d89e 2fbe
00000300: e237 a3bd 23c2 553e 55d7 4a3c a853 b1ba
00000310: 369d 96be 4077 7ebd 3ce8 863d f11d 2a3e
00000320: a3d1 25bd 5261 033e a998 f8bd b860 24be
00000330: 89c8 b2bd 6ef2 ab3e 72e6 863d 24fd 06be
00000340: f1ed 2abd b0a0 d1bc 5fac 8bbc 6ff5 883d
00000350: 0d2f d2bc 5a34 41bd 379b 343d 24e4 21bd
00000360: 397d b53d f1a0 ebbe d416 87bd 5837 ddbd
00000370: 244d 9abc bd21 18bf e159 c93d 3b56 8bbd
00000380: fda3 8dbd ac44 9bbd 297a 2ebc e29f 50be
00000390: 4dfa 63bc f667 293d ca52 6dbd a125 9fbd
000003a0: 3e55 973c 4dd7 173e 139c b33b 307e 2ebe
000003b0: f946 b0be 2180 8dbb 8960 91bd dd76 7cbd
000003c0: 2df0 4bbe 8991 7ebd 1205 5f3e 0702 f1bd
000003d0: 17ce 6ebe 0c24 d0bc f505 8bbc f2e1 84bd
000003e0: e8b8 81bd ac74 ddbd 403a 48be f658 a73d
000003f0: 9fe5 1cbe 0b11 24bd a18f bc3d d214 4abe
-0.039630067 0.039596464 0.18714452 -0.17276469 -0.09514454 -0.06323175 -0.043964185 -0.1718015
0.100436926 -0.13317388 -0.0599808 -0.10229129 0.25510257 -0.13759905 -0.019107362 -0.22497305
-0.042633064 -0.1815939 -0.19832096 0.058397185 -0.1556655 0.019063374 0.10962491 0.0072267535
0.033247303 -0.00398056 -0.057184547 -0.1395568 -0.13294719 0.02632029 0.1054962 -0.021403268
-0.23591554 -0.20358832 -0.091098055 -0.4016468 -0.10321225 -0.4864616 -0.027547464 -0.18714961
-0.081465766 -0.112636074 -0.011505241 -0.04793851 -0.108131066 -0.13821763 -0.092345 -0.051028892
-0.05446 -0.13188925 -0.032926522 -0.07335068 -0.10055816 -0.043420225 -0.0124238655 -0.1457889
-0.02759874 -0.0060547404 -0.05064736 0.104428664 -0.052950256 -0.16787395 0.124371774 0.029098224
-0.09746279 -0.21629378 -0.41418067 -0.28559443 0.0026818367 -0.3049604 -0.084243484 -0.008544393
-0.27071828 -0.008820663 0.0859881 -0.12573297 -0.11718056 -0.1020988 -0.05081127 -0.10172968
-0.1078397 0.046393882 -0.1769029 -0.22590968 0.089246236 -0.09895546 0.23404671 -0.030764928
-0.07619962 0.07897614 -0.18103877 -0.016478337 -0.01724871 0.044767395 -0.24641554 -0.1901041
-0.07576802 -0.10960778 0.03667335 -0.047316648 0.017012512 0.050501544 -0.02516552 0.119282395
-0.024983138 -0.33454174 -0.11130731 0.023633257 -0.03598885 -0.1605469 -0.061795123 0.041027516
-0.10915411 -0.22759447 -0.027379226 0.026815308 0.014913664 0.0091053415 0.1621649 -0.076348595
-0.15171508 -0.113841556 -0.19565947 0.063070305 0.0071523297 -0.14737055 -0.119948484 -0.26228178
-0.08440038 -0.06065508 -0.07153572 -0.14612761 -0.040215805 -0.059397165 -0.0603611 -0.04094121
-0.046592396 -0.22451548 -0.07964432 -0.1648835 -0.13379623 -0.18748339 0.038676314 0.08844598
-0.22708641 -0.07696752 0.026997926 0.09844929 -0.046217524 0.028835991 -0.15632066 -0.20994209
0.06431072 0.08990981 -0.075724006 -0.028511869 -0.36119407 -0.31211942 -0.09671823 0.04850356
-0.18429987 -0.086304106 -0.24105845 0.052474152 0.03393092 -0.058573708 0.039146796 0.029189015
0.0127965715 0.12121761 -0.122802354 0.025486628 -0.15966195 0.08332133 -0.0054454776 -0.0130807655
0.009780142 0.05313848 -0.08629899 -0.18024804 -0.12865314 -0.013739711 -0.034368355 0.0147690885
-0.24062274 0.0050798617 0.109817185 -0.41889185 -0.08971655 0.032251406 -0.017044792 -0.17150438
-0.07969643 0.20874839 0.012380441 -0.001352896 -0.29416817 -0.062125444 0.06587264 0.16612984
-0.04048313 0.12830094 -0.121384926 -0.1605252 -0.08729655 0.33583397 0.06586923 -0.13182503
-0.041730825 -0.025589317 -0.017049966 0.06687438 -0.025657201 -0.047169067 0.044093337 -0.039524212
0.08861775 -0.46021226 -0.06596151 -0.108015716 -0.018835612 -0.5942648 0.09831596 -0.068035565
-0.06916044 -0.075814575 -0.010649242 -0.2037349 -0.013914657 0.04135891 -0.057940282 -0.07770849
0.018473264 0.14828224 0.005481252 -0.17040324 -0.34429148 -0.0043182527 -0.07098491 -0.061636794
-0.19915839 -0.062150512 0.21779278 -0.11767965 -0.23320805 -0.025407813 -0.016970614 -0.06488408
-0.06334096 -0.10813269 -0.1955347 0.08171265 -0.15321968 -0.040055316 0.092070825 -0.19734505

fc3.weight f4 [128, 256]
00000000: 748a 45be fa12 c03c 4c94 3f3d 6f09 be3d
00000010: ed2d 403c ff86 723d b0d2 de3d 19a8 fcbd
00000020: 416f 94bc 9f5f c5bd 2c88 073e 8df0 113e
00000030: 130c b6bd 8d3d 8d3d 8b6f 383d 5c88 0e3c
00000040: eb60 153e defd 5bbe 062f 8abd c1ff ddbc
00000050: ce4b 52bd 0228 56be 6b31 9d3c 4db5 02be
00000060: 321e 143d 55a7 dcbd e80b 18bd 86aa 1c3e
00000070: 3b2b 953d b2a9 4c3e 7039 3c3e 8d6a 88bc
00000080: 9f28 993d 4794 20be 0efc b23d 57b3 5bbe
00000090: c598 863e fd9b 83bd aa8a 2f3e 6057 16be
000000a0: de17 04be 48e0 8fbc 8f81 55bd ac94 7abe
000000b0: 6108 81bd aa26 bd3d c6d9 b2bc e2cc 6abe
000000c0: 7aa8 bd3e 244b 5abe 2f6b 42be c435 e83d
000000d0: a586 053e 053c aabd da07 6e3d a461 ac3d
000000e0: 4df4 703e 871e e8be 4837 0b3e cf4e c3be
000000f0: 1c65 5e3d f46d 5e3c e524 86bd e973 3c3d
00000100: e901 bdbd 3441 053c a388 b53c 83b0 8bbd
00000110: 2b97 bcbc 581a 9ebd 6cf8 8e3d 89b7 84be
00000120: 34fc efbd 41f3 d3bd 0b74 febd e380 7ebe
00000130: ceac 283d 6a94 9ebe 70b5 73be d0ca 97be
00000140: 1ce6 c33e 5607 47bd 53ed 20be 9770 1f3b
00000150: 5541 ccbd 5246 5bbe 2398 eeba 53cf 1e3d
00000160: d756 1fbd b001 2cbd e688 f5bc 9a4c c7be
00000170: 1a17 75be da17 5c3c 46fd 2dbd 221d 8fbd
00000180: e31e 8ebe 0ef8 b1bd 1811 0f3c bce8 03be
00000190: 7644 a93e a61e 373d 86d1 87bc 56f2 d4bb
000001a0: 2d60 28bd 6e42 eb3b 157c 93bc e03f 5dbd
000001b0: dca0 b03d c619 80be 6f8e 093e 8a8f 10bd
000001c0: 64b8 013e 9ee7 8ebe 0b1a 093e 175a 913d
000001d0: 3e4d 5f3e 8c9f 9b3d 5279 a13d 1793 98bd
000001e0: 9626 2d3d 3c3d a5bd 0e1e 20be 7d2f d93d
000001f0: fbb1 7a3d 8cdc 5dbd cd14 b7be 48f4 f6be
00000200: 9e65 433e c1cc 78bd 25e9 0f3e b737 63be
00000210: 9347 9a3e 54f1 06be acc9 eebd d75a e9be
00000220: b113 5f3e c0da ebbe aeb8 c33d 2fe4 73bd
00000230: 042c 493e 3105 acbe 7558 e23d 606c b13d
00000240: 0d56 6ebe d808 6d3d fa6c 3f3e f26c 25be
00000250: f7cf 24be 981a ea3c cc74 94be f8e0 6abd
00000260: 66d3 2dbe ec2d a3bd 6a99 e0bd 5326 4b3e
00000270: 66ff 0dbd af85 3fbe 043a 9e3d 2a35 adbd
00000280: a6ca b43d 4cd0 c4be 4371 983d bbfb 52bd
00000290: a5b7 ae3d d14f 86be 0a6c dcbd 32df 173d
000002a0: 0bf5 e9bd 5849 02be 4ba9 83bc d528 44be
000002b0: 4e36 0ebe 806e a93c c90e 9f3e 9476 333e
000002c0: f0db 57bd 776f 22be 754a 86bd bd55 6dbe
000002d0: 8024 9fbe dc96 053c 558c 1f3e af60 53be
000002e0: 9539 153e a75f e3bd fc5e 993d 871e d4bc
000002f0: 9975 763c be16 6bbe 2124 4d3e ade1 93bd
00000300: 0e38 fcbd 9f0b e03d 4860 afbe ad75 5abd
00000310: 6345 a5bc 848e 523e c8b4 1fbd bd20 05bd
00000320: d9c7 afbe 7319 72bd 5470 c0bd 8134 05be
00000330: 4f62 4ebc 6582 3d3d 4a90 e23c 35aa 50be
00000340: 441b e7bd fb19 61be 730d c1bd 844b da3c
00000350: 81aa e5bd 17c1 123e 0029 ad3d 6977 893e
00000360: 8abb 3a3d 2893 38be f618 d6bc 461a eaba
00000370: 4735 53be 189a 3eba 9160 2dbd e357 303e
00000380: ba68 75be 89c1 eabe c820 893e cb3b bcbb
00000390: 1567 6fbe 405b 473e 5875 1c3e b083 b43d
000003a0: d7cc 9b3d 9df8 063d ccbe 24bc 2fe3 43be
000003b0: b1aa cfbe c4a4 853e fe45 133e 41ce ccbe
000003c0: 9765 d23d 8b92 5fbd 1b19 d03c 3e09 4fbe
000003d0: 26d9 533d 007c 3abe e9fb 8c3e 8878 aabd
000003e0: b55f 60be 56e9 d23d a5af aebd c4e3 863b
000003f0: 07f3 113d 5466 f2bb 5410 5c3d b904 76be
-0.19291097 0.023446549 0.046772286 0.09279143 0.0117297 0.059210774 0.10880029 -0.123367496
-0.018119456 -0.09637379 0.13235539 0.14251919 -0.08889022 0.068965055 0.04502825 0.008699503
0.14587753 -0.21483561 -0.0674725 -0.027099492 -0.051341824 -0.209137 0.019188603 -0.12764473
0.03616161 -0.107741036 -0.03712073 0.15299425 0.07283636 0.19986609 0.18381286 -0.01665237
0.07478451 -0.15681563 0.08739482 -0.21455131 0.2628843 -0.06426237 0.1714274 -0.14681768
-0.1289973 -0.017563 -0.05212551 -0.24470776 -0.06300426 0.0923589 -0.021832358 -0.22929719
0.370426 -0.21317726 -0.189862 0.1133838 0.13039644 -0.08312229 0.058112957 0.08417061
0.23530693 -0.4533579 0.13595307 -0.38146064 0.054295644 0.01357602 -0.06550006 0.046008978
-0.0922888 0.008133221 0.02215988 -0.06820776 -0.023021301 -0.077198684 0.069809765 -0.25921276
-0.11718026 -0.103491314 -0.12424477 -0.24853854 0.041180424 -0.30972606 -0.23799682 -0.2964692
0.38261497 -0.04859098 -0.15715532 0.0024328583 -0.099733986 -0.21413544 -0.0018203299 0.03877194
-0.038901176 -0.041993797 -0.029972505 -0.3892563 -0.23934594 0.013433421 -0.04247787 -0.069879785
-0.2775794 -0.08689891 0.008732103 -0.1288175 0.33060044 0.044706963 -0.0165794 -0.0064986153
-0.041107345 0.00717955 -0.018003503 -0.054015994 0.086244315 -0.25019664 0.1343324 -0.03529314
0.12667996 -0.27911085 0.13388841 0.070972614 0.2180681 0.075987905 0.07884468 -0.0744993
0.042273127 -0.0806832 -0.15636465 0.10604761 0.06120489 -0.054165408 -0.35758057 -0.48233247
0.19081733 -0.060742144 0.14053781 -0.22189222 0.30132732 -0.13177997 -0.116595596 -0.45577118
0.21784855 -0.4606533 0.09556709 -0.059543785 0.19645697 -0.3359771 0.11052028 0.08663249
-0.23275013 0.057869762 0.18693915 -0.1615484 -0.16094957 0.028577134 -0.2899536 -0.057343453
-0.16975173 -0.07967743 -0.109667614 0.19838838 -0.034667395 -0.1870334 0.07725909 -0.08457406
0.088277146 -0.38440168 0.07443478 -0.0515096 0.08531121 -0.2623277 -0.10762794 0.03707809
-0.11423691 -0.12723291 -0.016071936 -0.19156201 -0.13887903 0.020682573 0.31065968 0.17525703
-0.052699983 -0.15862833 -0.0655717 -0.23177238 -0.31082535 0.008153643 0.15580876 -0.2064235
0.14572747 -0.111022286 0.0748882 -0.025893463 0.015042686 -0.22957894 0.20033313 -0.072207786
-0.12315379 0.109397165 -0.34253144 -0.05333488 -0.020174688 0.20562178 -0.038990766 -0.032501925
-0.3433216 -0.0591063 -0.09396425 -0.1300831 -0.012596681 0.046266932 0.027656693 -0.20377429
-0.112844974 -0.21982567 -0.09426393 0.026647337 -0.11214162 0.1433147 0.08455086 0.26848915
0.045589007 -0.18024886 -0.02613495 -0.0017860613 -0.20625792 -0.00072708866 -0.04232842 0.17221026
-0.23965731 -0.4585078 0.26782823 -0.0057444326 -0.23379166 0.19468403 0.15279138 0.0881418
0.076074295 0.03295194 -0.010055255 -0.19129632 -0.40559915 0.2610227 0.14382169 -0.4000111
0.10273283 -0.054583114 0.025402596 -0.2021837 0.05172076 -0.18211365 0.27535942 -0.08323771
-0.2191151 0.102984115 -0.08529595 0.0041165072 0.03563216 -0.0073974524 0.05372651 -0.24025239

fc3.bias f4 [128]
00000000: a1bb 3a3e bdfc bbbe c0fc 56be 97f7 09be
00000010: 3bd7 053f 7b1b 77bd cc6e 35bd 51cb 063e
00000020: f4bb 1c3d dbb0 b0bd f216 4c3e 2335 2a3f
00000030: ed5e b2be 38ab 11be 654a 71be 1ca4 89be
00000040: df4d d43d 85fc 773d 1e37 273e cb02 9e3e
00000050: c758 75bd 1c82 1ebe 3050 b2bd 58b4 93bd
00000060: 3c47 cebe 8b66 563e 3060 2dbe aa02 23be
00000070: 4084 b0bd deba 18be 8fea 9dbe 72ae 9e3d
00000080: d3d9 b4be aa97 9e3d b4b2 d53d 7d41 2b3e
00000090: d0ec f0bd b543 063d e554 02be 653f 233e
000000a0: c171 8dbe b815 cfbe 307c c7be 454c bf3d
000000b0: 6187 963d 1e05 d3bd b40d a4bd 8a6a 8e3d
000000c0: 32c9 c3bd aec4 d3bc c59c 50bd f775 c4be
000000d0: c537 c6bd b6e8 39be ebce 12be ff02 b8bd
000000e0: 49b1 c6bd cbda a3be 045c 36bd 150f 00bd
000000f0: 3962 a9be df01 cfbe ac13 92bd 4a98 23bd
00000100: 2232 9fbd fdc3 823d afef bdbe 3689 90bd
00000110: 179b 83bd fb84 483e 17e7 f2bd 32a8 5fbe
00000120: 3c71 b7bd 3e7a 00be ea46 05bd 9ac3 6dbe
00000130: 64d9 acbe 832a acbe e75d 00be 0af9 95be
00000140: 2fee 8c3e df33 adbe 1f3e f03c ba84 1e3f
00000150: ca23 a3be 0086 c63d e600 b8be 070f c6be
00000160: ca64 b8be 573f ad3d bdc2 9ebd 1dc9 dc3d
00000170: d366 99be 6890 93bd 4383 25be cf72 45be
00000180: ff45 acbe 6e5e 05be 5b48 1f3e ebc4 91be
00000190: 0066 07be 696f b33d 762d 28be b757 90be
000001a0: c2bd 95bd e073 84be 6d55 a1bd f4f4 0f3c
000001b0: ca4a d13e 5bb3 e2bd 13cf b5be f20c a5be
000001c0: a28f 7dbe e551 c9be e429 c8be f49c 2fbe
000001d0: cea3 53bd 5470 60be 9d92 f5bd 95f9 a4bd
000001e0: a931 363e e6ca 50be a186 483d 4eb2 a0bd
000001f0: cb54 513e 825b 5fbe 6cd6 aebe 19fe 75bd
0.18235637 -0.36716262 -0.20994854 -0.13473354 0.5228154 -0.06032894 -0.044295117 0.13163497
0.038265184 -0.086274825 0.19930628 0.6648733 -0.34838048 -0.14225471 -0.23563536 -0.26883018
0.10366415 0.060543556 0.1632962 0.30861506 -0.059899118 -0.1547932 -0.08706701 -0.07212132
-0.40288723 0.20937555 -0.16931224 -0.15918985 -0.08618975 -0.14915034 -0.30843017 0.077481166
-0.35322437 0.077437714 0.104344755 0.167242 -0.117639184 0.032779414 -0.12727697 0.15942152
-0.2762585 -0.40446258 -0.38961935 0.09340719 0.0735004 -0.103037104 -0.08010426 0.069539145
-0.09559859 -0.02585062 -0.050930757 -0.3837125 -0.09678606 -0.18155178 -0.14336745 -0.089849465
-0.09701783 -0.32002863 -0.044521347 -0.031264383 -0.3308275 -0.40431115 -0.07132658 -0.039940156
-0.07773234 0.06385038 -0.37096927 -0.07057421 -0.064260654 0.19581978 -0.11860483 -0.21841505
-0.089571446 -0.12546632 -0.032538332 -0.23219147 -0.33759606 -0.33626184 -0.12535821 -0.29291564
0.2752547 -0.33828637 0.029326497 0.61921275 -0.31863242 0.09693527 -0.35938185 -0.3868334
-0.36014396 0.08459347 -0.07751987 0.10780547 -0.2996126 -0.07205278 -0.16163354 -0.19282077
-0.33647153 -0.13024303 0.15554945 -0.2847055 -0.13222504 0.08761484 -0.16423592 -0.2819192
-0.07311584 -0.25869656 -0.07877622 0.008786429 0.40877372 -0.110693656 -0.35509548 -0.3223644
-0.24761823 -0.39320293 -0.3909446 -0.17149717 -0.05166989 -0.2191785 -0.11990855 -0.080554165
0.17792381 -0.203899 0.048956517 -0.07846509 0.20442502 -0.21812251 -0.34147966 -0.06005678

fc4.weight f4 [1, 128]
00000000: a233 e6bc 7412 e0bc ed75 14bc 34ed 45bc
00000010: fac2 89bc 7289 c83c d0cd 8cbc fa3d 003d
00000020: 064e fb3c 6ee6 8fbc 1c13 823c 775b 213d
00000030: d603 98bd 275c babc 4b8c 913d f6fc 35bc
00000040: a8e4 263d c0ab c03c 2c58 f83c c88d db3c
00000050: fc5b 2f3c 186b 06bd 2006 50bc 627b 1fbd
00000060: 2dcc 71bd 76a0 b13c a7ef 7abc c60d 38bd
00000070: 247a 2dbc 4586 a1bc 8145 bebc 33dc ad3c
00000080: 2a77 5ebd fdf4 b03c d48d b33c 14fb 113c
00000090: b9a1 f9bc f0e3 ac3c cc6a 78bb 2c71 5b3c
000000a0: 6174 823c 6bd1 3fbd 003f 2bbd 7ca4 953c
000000b0: 4312 273d 0d6b 503d 28cf a23d ec4e 503c
000000c0: 9d39 b2bc 9d0b 7b3c e6bc 253d 7f3f 33bd
000000d0: cb1b 4ebc 2b7c c0bc b757 b5bc 18ca 693d
000000e0: 5fcf 49bc d8df bebc 937f f6bc ec8f 08bd
000000f0: 46e4 7fbd 8272 2bbd b314 bdbc d764 21bc
00000100: a4ae a2bc bb71 a33c 4370 83bd a4d5 c9bc
00000110: c0a9 85bc 8cda f8bc 230c bbbc 406f 84bc
00000120: 1ddd e4bc fed0 a3bc 7502 b9bc e65f 7b3d
00000130: e9f2 4bbd 7037 58bd 9ed3 eabc 0243 cfbc
00000140: ee9c 8f3c e29f 26bd 28da 363c a3e8 873c
00000150: 960d 84bc 8dec 09bc 3d35 a8bb cd64 a7bd
00000160: 6a01 6fbd 58a6 d43c ebc8 94bc 236a e9bc
00000170: c3a1 03bd 6466 b73c d2e1 af3c 1066 d0bc
00000180: b4a7 dbbc e257 12bd 5381 40bd 1eae 07bb
00000190: 9d15 a7bc 2ef6 123c a252 9f3d 2665 6fbc
000001a0: f71b ba3c d07f e23b 2dec 12bd 1f56 90bc
000001b0: 0c5c 9e3c 6524 28bc 017c 01bd a1c6 13bd
000001c0: ea2c 813c 2516 61bd 3edf 37bc 971b f1bc
000001d0: 3a92 c1bc 763f e3bc 5ab9 00bd fded 973c
000001e0: 27a1 4b3c 35f8 6dbc f32a d23c 8939 95bc
000001f0: 9cbd 7f3c 21ad 11bd d0a8 20bd 0eaa efbc
-0.028100792 -0.02735255 -0.009061319 -0.012080479 -0.016816605 0.024479602 -0.017187983 0.031309105
0.030676853 -0.017565932 0.015878253 0.03939387 -0.07422607 -0.02274902 0.07106837 -0.011107674
0.040745407 0.023519397 0.030315481 0.026801005 0.010703083 -0.032816976 -0.012696773 -0.038936026
-0.059032608 0.021682959 -0.015315927 -0.04493501 -0.010588203 -0.019717345 -0.023226501 0.021223163
-0.054312862 0.021601195 0.021918215 0.008909959 -0.030472623 0.021104783 -0.0037905453 0.0133936815
0.015924634 -0.046830576 -0.04180813 0.018266909 0.0407889 0.05088334 0.07949668 0.012714129
-0.021755988 0.015322593 0.04046335 -0.043761726 -0.012579869 -0.023496708 -0.022136552 0.057077497
-0.0123175075 -0.023300096 -0.030090129 -0.03334038 -0.062473558 -0.04185725 -0.02308116 -0.009850702
-0.019858666 0.019951692 -0.064178966 -0.024638005 -0.016316295 -0.030377649 -0.022832936 -0.01616633
-0.027937466 -0.019997116 -0.02258418 0.061370753 -0.049792204 -0.052787244 -0.02866536 -0.025300507
0.017530885 -0.04067982 0.011160411 0.016590422 -0.01611976 -0.0084182145 -0.0051332996 -0.08173523
-0.058350958 0.025958225 -0.018162211 -0.028492993 -0.03213669 0.02238769 0.021469984 -0.025439292
-0.026813366 -0.035728343 -0.046998333 -0.0020703147 -0.020396048 0.008969827 0.07779433 -0.014611518
0.022718413 0.006912209 -0.035869766 -0.01761919 0.019331 -0.010262583 -0.0316124 -0.0360781
0.015768487 -0.05495276 -0.011222659 -0.029432101 -0.023629297 -0.027740221 -0.031426765 0.018546099
0.012428558 -0.014524509 0.025655245 -0.018215911 0.015609171 -0.0355655 -0.039223492 -0.029255893
